model/article_discriminate_model_des.pth (torch, 739487 bytes, 19 tensors)

block.0.weight f4 [256, 512]
000000 48 64 71 bd 1a 17 0b be 47 f8 f7 bd eb 1f 3d 3e
       -0.058933526 -0.13583031 -0.12107902 0.18469207
000010 e2 d0 e4 bd 79 fb 02 be 29 60 cc bd 00 26 05 bd
       -0.11172654 -0.12791242 -0.099792786 -0.032506943
000020 ea aa 7b 3e 19 3b 97 3e 1d f2 de 3d 6c 91 2b 3b
       0.24576917 0.29537275 0.10886023 0.0026179207
000030 8c fb 53 bd 08 d0 a2 3e 91 58 94 be c8 db de 3c
       -0.051753566 0.3179934 -0.2897382 0.02720441
000040 a8 5d aa bd ab 40 0e bd 77 2b 8f bc a7 b0 98 bd
       -0.08318645 -0.03472964 -0.01747678 -0.07455569
000050 3d bd 2b 3e 56 bd 37 be de 51 31 3d 3b df 98 bc
       0.16771407 -0.1794332 0.043290965 -0.018661132
000060 cc 4d da 3d 2d 27 f5 3d 6d 94 3a 3d cf 16 54 be
       0.1065937 0.11970363 0.045551706 -0.20711826
000070 15 c6 e8 3d ca 39 8b bd 9b e5 73 3b 79 e2 dd bd
       0.11365906 -0.06798132 0.0037215713 -0.10834212
000080 d3 10 c2 bd 94 0e 20 be 42 da 66 3c a4 c3 0f be
       -0.09475865 -0.15630561 0.014090123 -0.14039475
000090 24 50 e5 3d 33 76 b0 3c 7d ef 6b 3d a0 cf 48 be
       0.11196926 0.021540737 0.05760144 -0.19610453
0000a0 0a c0 79 3d 33 e1 6d bc f3 f0 63 3c 4c f7 7c 3d
       0.06097416 -0.014519024 0.013912427 0.06175928
0000b0 d5 6b 89 3d 3f bd 52 bd 50 c2 c1 3d d3 92 2a be
       0.067100205 -0.05145001 0.0946089 -0.16657571
0000c0 b9 c1 8a be 02 94 42 be cb 05 14 be e5 ab 1c 3e
       -0.27100924 -0.19001773 -0.14455335 0.15299948
0000d0 ce 7f 3e be dd 37 4d bd d5 ca 8e 3d 35 bb e3 3d
       -0.18603441 -0.050102104 0.06972281 0.11119691
0000e0 f1 a2 b0 3a 54 97 ae 3b 6e 10 f2 bd 46 b8 46 3e
       0.0013476295 0.0053280983 -0.1181954 0.19406232
0000f0 82 6d 0f 3e 5b 8a f9 bd 41 71 dc 3d 1e 2e be 3c
       0.14006618 -0.12184592 0.10763789 0.02321535
000100 6e b9 f4 bb d7 b1 10 bd 9e 13 86 3d ab d6 26 3d
       -0.007468394 -0.03532585 0.065467104 0.040732067
000110 ea 62 64 bc 32 6c 30 3e 74 f8 2b bd 8b 81 00 3d
       -0.013939599 0.17228773 -0.04198499 0.03137354
000120 55 a4 ab bd ef 72 78 3e fa fa be bc 00 53 02 3e
       -0.08380953 0.24262594 -0.023313034 0.12726974
000130 f7 78 1a bd b8 1c ce 3d bf 29 40 3e 5c 9d 15 bc
       -0.037713017 0.100640714 0.18765925 -0.009131756
000140 82 4b 04 bc 99 9e 54 bb f4 9a f9 bd a7 fc 9a 3d
       -0.008074643 -0.0032443164 -0.12187758 0.07567721
000150 a8 65 d2 3d 6d b1 63 3d 8b e0 54 3c ab 9a de bd
       0.10273296 0.05558913 0.012992988 -0.10869344
000160 b5 9a 87 bd 81 68 ce bd 92 07 24 3d 1e 7a f3 3c
       -0.06621305 -0.10078526 0.040046282 0.029721316
000170 1e 8c 95 bd 10 cf bd 3c 0d 4b 32 3d ac a3 60 bd
       -0.07302116 0.023170024 0.043528605 -0.05484359
000180 5e c3 77 bb ca a5 7c bd 02 45 2e 3d bf 67 8c 3d
       -0.0037805657 -0.061681546 0.04254628 0.068557255
000190 87 68 45 be 56 30 1f be ea 53 a1 3d 06 a1 c8 bc
       -0.19278155 -0.15545782 0.078773335 -0.024490844
0001a0 55 eb 8a 3e 9f fd 79 3d b2 f7 78 be ac b9 37 bd
       0.2713267 0.061032888 -0.24313238 -0.044854805
0001b0 b3 30 2c 3d 9e 74 f5 bd 95 32 0e 3e 6e e0 48 be
       0.04203863 -0.119851336 0.13886483 -0.19616863
0001c0 b1 3a 2c be b2 22 51 3b fc 71 88 bc 02 22 53 3c
       -0.16819264 0.003191155 -0.016655914 0.012886526
0001d0 c7 b9 df 3d 57 8c fa 3c 96 32 a0 3d 95 50 ef bc
       0.10924106 0.030584497 0.078221485 -0.02921323
0001e0 2d 30 42 ba 81 db 5a bc 7b b7 be 3d 40 b1 c9 3d
       -0.00074076914 -0.013357998 0.0931234 0.09848261
0001f0 5e d6 0d 3d 73 bf 11 3d 32 3f 33 be 5a 91 73 3e
       0.034628265 0.03558297 -0.17504576 0.23785916
000200 bb 40 bd bb 83 9f 08 bd 63 07 b9 3e 36 a1 65 be
       -0.0057755387 -0.033355247 0.36138448 -0.22424778
000210 c0 d1 b9 be ce 5d 1c be 70 6f 7b bd 82 85 c1 bd
       -0.3629284 -0.15270159 -0.061385572 -0.09449293
000220 a6 40 78 3d 54 3c 14 be aa 91 bb 3d cf 77 db bd
       0.06060853 -0.14476138 0.091586426 -0.10716211
000230 cb 4b bc 3c cb 2c 16 3d 8a d9 b5 bc 2d be 95 3d
       0.02298536 0.03666381 -0.022198457 0.07311664
000240 65 ec c3 3d 6c 3c 43 3d 70 bb 21 be 68 8f a3 bd
       0.09566573 0.047665045 -0.15794158 -0.07986337
000250 46 4e e8 bd ec 8c 81 3d b2 1e 06 3d 69 77 ec 3c
       -0.113430545 0.06325707 0.032744117 0.028865533
000260 8e f7 02 be eb fb 82 3e 9c 0d c2 bd 21 e7 d4 bd
       -0.12789747 0.25582823 -0.09475252 -0.10395647
000270 6d c6 6d 3d 1a ed 0f 3d d0 91 f0 37 0d 3d 17 3e
       0.05805056 0.035138227 2.8678129e-05 0.14769383
000280 26 71 d5 3d 82 91 f0 bd 3e 8e 99 3d a7 15 84 bd
       0.10421972 -0.117465034 0.07497834 -0.06449442
000290 2f 39 03 3d 13 9d 5a 3e 61 06 21 3d 59 78 ba 3d
       0.032036956 0.21348982 0.039312724 0.09104986
0002a0 19 d9 19 be 98 48 ce bc 7b cc e1 bc 2f 98 8d bd
       -0.15024222 -0.0251811 -0.027563324 -0.06913792
0002b0 d4 61 48 bd 26 59 3d bd 9d 76 66 bd 6f a1 83 3e
       -0.04892142 -0.046227597 -0.056265462 0.25709102
0002c0 a1 bf 04 be b2 af 48 be b9 72 10 bd cd dd 96 be
       -0.12963726 -0.19598272 -0.035265658 -0.29466096
0002d0 46 85 f2 bd c9 0f af 3d 08 31 97 bc 6b 03 49 be
       -0.11841826 0.08547933 -0.018455997 -0.1963021
0002e0 b3 e2 cd bd e6 72 2c be 85 4b f1 3d f2 d4 1a be
       -0.10053005 -0.16840705 0.11781982 -0.15120295
0002f0 61 59 b6 bc 82 0a 93 bd a4 f0 c6 bc 20 d8 d0 bd
       -0.022259416 -0.071797386 -0.024284668 -0.101974726
000300 86 79 cc bc 8f df 34 3c ce af 08 3e 2f 64 24 3d
       -0.02496029 0.011039629 0.13348314 0.040134605
000310 67 34 3d be 6f 0a e4 3c f1 2f c1 bd 51 ac 2e be
       -0.18477021 0.027837006 -0.09432972 -0.17057921
000320 7d cc 13 3d cc 91 01 bd 10 ee e4 bd fb b6 2b 3e
       0.036083687 -0.031633183 -0.11178219 0.1676902
000330 54 b9 78 bd 9d 72 63 3d 5f da da 3c ec 85 dd 3c
       -0.060723618 0.055529226 0.026715456 0.027041398
000340 1b b2 22 3e bf 5f 06 be c4 ce dd 3c a1 15 51 3d
       0.15888254 -0.13122462 0.027076133 0.051046018
000350 74 65 7b 3d 13 0f ad bd 75 b4 2f 3b 6a a5 bc 3b
       0.06137605 -0.08450141 0.0026810442 0.0057570236
000360 9e 13 a8 bd 76 3d b0 bd 62 03 f2 bc 66 07 40 bc
       -0.08206867 -0.08605473 -0.029542629 -0.011720514
000370 86 4d 16 be 7a e4 65 3d a2 c1 b0 bb f8 36 e3 3b
       -0.1467801 0.056126095 -0.0053941766 0.006934043
000380 e2 ae f8 3d ec 0b 4a bd 56 7b 62 be 1f 5e 0d bd
       0.12142731 -0.049327776 -0.22117361 -0.03451359
000390 6c 4d 06 3e dd 51 0c 3d 17 dc 85 3d e4 07 68 3d
       0.13115472 0.03425776 0.065361194 0.05664815
0003a0 1c 03 a8 3b c0 54 db 3d 26 b6 de 3d 60 27 1f be
       0.005127324 0.10709524 0.10874586 -0.15542364
0003b0 fd 6a 42 3c e6 56 1f be 9b f1 cd 3d 68 a7 31 3e
       0.011866328 -0.15560493 0.10055848 0.17349017
0003c0 52 d2 8e 3e aa 41 84 bd d2 e6 83 3d 79 3a b1 bd
       0.27894837 -0.06457837 0.0644051 -0.08653731
0003d0 fc fc ee 3d 4e f2 a2 3a 84 26 07 3d 53 72 35 be
       0.11669347 0.0012431832 0.032995716 -0.17719392
0003e0 a2 1e 58 3d a5 10 ec 3d 98 fa 01 be 32 e5 0a be
       0.05276359 0.11526612 -0.1269325 -0.13563994
0003f0 dd 58 b7 bd c5 21 3e bd 69 9a 69 bd 3e e8 20 be
       -0.08952496 -0.046418924 -0.057032023 -0.15713593

block.0.bias f4 [256]
000000 92 4d 8b 3c 0d 7a 0b 3d a7 b9 02 3e 1b 4f bf bc
       0.017004762 0.034051944 0.12766133 -0.02335315
000010 20 02 0c 3c 68 17 e4 bc d4 b2 b3 bd dd 90 56 bd
       0.0085454285 -0.027843192 -0.08774343 -0.052384246
000020 79 45 ba bc 63 0e 52 3d 18 db 06 3d 4e e2 67 bd
       -0.022738205 0.05128325 0.032923788 -0.056612305
000030 17 a4 fd bc 59 79 d0 bc 06 df 11 3d 8f ed 1f 3c
       -0.030962033 -0.025448488 0.035613082 0.009761228
000040 cc 2a 31 bc d4 49 98 3c 82 66 92 3c ea c7 2a bc
       -0.010813426 0.018589891 0.017871145 -0.01042364
000050 62 84 10 bd 12 86 5f bd 9a 49 2f 3b 19 0f 47 bb
       -0.0352825 -0.05457122 0.002674675 -0.003037399
000060 df 55 af bd f2 f0 02 bd a8 dd fd 3b 30 00 0f bd
       -0.085613005 -0.031968065 0.0077473707 -0.03491229
000070 78 5e 61 3d 36 5b 49 bb 97 07 fe 3c 08 19 94 bd
       0.055021733 -0.0030724532 0.031009478 -0.07231337
000080 f4 79 3c 3d 64 f7 80 ba 33 4c 56 3d 8b 63 12 3d
       0.04601474 -0.0009839353 0.052318763 0.035739463
000090 1c 22 e2 bd 5c b7 ba 3d 8b c1 53 3c c9 2a cd 3b
       -0.11041662 0.09117004 0.012924562 0.006261204
0000a0 ee 85 25 3d 79 86 99 bd 2b de ea 3c 82 77 ae bd
       0.04041093 -0.07496352 0.028670391 -0.08518888
0000b0 a8 1a 21 bd e5 d6 5c bd 17 02 90 3c 03 e8 c3 bc
       -0.039332062 -0.053915877 0.017579122 -0.023914343
0000c0 d0 80 bc 3d 2f d6 04 bd 67 2c 5c bd 96 10 6f 3d
       0.092042565 -0.032430824 -0.053753283 0.058365427
0000d0 6e f5 8f bc b0 0e f6 bc 29 4f 31 bb 5d 6e a1 bc
       -0.017573085 -0.0300363 -0.002705524 -0.019705946
0000e0 3f 07 a9 3d b7 84 82 bc df 33 7c 3d d3 99 67 b9
       0.08253335 -0.015932424 0.061572906 -0.0002208718
0000f0 c2 5c 6b bc bd 19 c3 bd 64 ab 20 3d ec 23 86 bd
       -0.014365377 -0.095263936 0.03922595 -0.0654982
000100 8a a9 0c 3d cb b0 6c ba 56 ac ca 3c 3e b0 3f 3d
       0.034341373 -0.000902903 0.02474038 0.046798937
000110 fe d5 12 bd d0 cd 27 3d 8e 84 12 bc 4e 5e 4a 3c
       -0.03584861 0.040967762 -0.008942736 0.012351586
000120 15 33 cd bc ba 10 fd 3c f0 be c2 3b 3e f1 86 bc
       -0.025048772 0.030891765 0.0059431717 -0.016472455
000130 a2 04 6d bd 08 ee 15 3d 0a 40 0a bd e1 ce 4d 3b
       -0.057865746 0.036603957 -0.03375248 0.0031403827
000140 99 3f 7c 3c 44 1a bb bc 2a 62 9b bc ca f3 19 bd
       0.015396022 -0.022839673 -0.018967707 -0.03758601
000150 b5 9f 12 bc 72 68 03 3d 02 64 8a 3d ba 26 36 3c
       -0.00894921 0.03208203 0.06757356 0.011117632
000160 d1 b9 8e 3d 23 2a 27 3d da c7 bb 3c 26 5b 58 3d
       0.069690354 0.04081167 0.022922445 0.0528213
000170 cf f3 0d bd 60 d5 b8 bc 65 d4 9b bd a8 d0 67 3b
       -0.034656342 -0.022562683 -0.076088704 0.0035372172
000180 b3 ef fa 3c 58 7b a6 3c 14 6a 73 3d 62 1d ea 3a
       0.030631876 0.020322487 0.059427336 0.001786154
000190 36 a8 5d bd b5 de 2b bc 6a 6f 3c 3c 60 ce 2b 3c
       -0.054115497 -0.010490109 0.011501173 0.010486215
0001a0 d2 ed 25 3d 0c 79 95 bc 29 79 08 3c ec e8 f0 bc
       0.040510006 -0.018246196 0.008329668 -0.02940794
0001b0 8a 36 21 bd 29 55 d8 3b 19 48 3f bb 5f 84 d3 bc
       -0.039358653 0.0066019488 -0.002918726 -0.025819955
0001c0 d4 2c 11 3c b1 37 22 3d c9 c7 ec 3a 82 6a 2a bc
       0.0088607855 0.039603893 0.0018064912 -0.01040137
0001d0 0b 8f ef bd 0a 76 84 bc 34 9d e4 3c 6e 98 67 bc
       -0.11697205 -0.016169567 0.027906992 -0.014135463
0001e0 3c 45 03 3e ac 5f 52 bb a8 e9 18 bd e3 0b ae 3d
       0.1281938 -0.0032100482 -0.037332207 0.08498361
0001f0 09 ed f6 bb 2a 3b 09 bd 13 51 5a 3d 75 08 93 3c
       -0.007535581 -0.03350369 0.053299975 0.017948369
000200 25 f5 fe 3b 94 38 73 3b 39 42 6f 3d 4d 51 1b bd
       0.0077806883 0.003711258 0.058412764 -0.03791933
000210 84 31 8a bd 3c a9 e7 bd c5 d5 df 3d b5 8f 33 3c
       -0.067477256 -0.11311576 0.10929445 0.010959555
000220 5f 85 53 bc dd 47 cd bc dc 64 86 3c 07 73 8c 3d
       -0.012910216 -0.025058681 0.016405515 0.06857877
000230 d5 bb b2 3d 50 c0 33 3a 3d 62 af 3c 66 cd 86 bd
       0.08727232 0.0006856965 0.021409148 -0.065821454
000240 cb a6 67 bc 67 d8 5b bc 66 90 61 bd 86 f6 92 3b
       -0.014138888 -0.013418294 -0.05506935 0.0044849543
000250 34 99 82 3a 6a 46 5e bd 3c 83 94 bc 93 35 06 3d
       0.0009963871 -0.05426637 -0.018128984 0.032765936
000260 1a dc 46 3c bd 73 eb bc 3e 7d 68 bb 47 7e 5a bc
       0.012137437 -0.028741712 -0.003547504 -0.013335771
000270 88 39 8b bd 0f cd 75 bd 91 ab 2a bc e6 a5 d5 3c
       -0.067980826 -0.060010012 -0.010416881 0.026080083
000280 bf 75 16 3d 45 95 11 bd 49 4d 94 3c 95 6e ff 3c
       0.036733385 -0.035542745 0.018103259 0.03118066
000290 01 63 a0 bd 36 f0 c4 bd 8f c3 9d bc fc 79 cd bc
       -0.078313835 -0.09616129 -0.019258289 -0.02508258
0002a0 33 67 a5 ba 4d 91 49 3d 8b 4b 09 bd 7d 26 84 3d
       -0.0012619257 0.049210835 -0.03351931 0.064526536
0002b0 6d 5a c9 3d ea 3e a1 bd 77 08 1f bd a7 c2 4f bc
       0.098317005 -0.07873328 -0.038826432 -0.012680686
0002c0 cb 95 9a 3c 82 36 51 bd 96 50 88 bd 27 93 b1 bc
       0.018870255 -0.051077373 -0.066559955 -0.021676613
0002d0 df a3 a4 bb 5b e6 19 3d 89 eb 83 bd 3e bf 17 3d
       -0.005024418 0.0375732 -0.06441409 0.037047617
0002e0 fd 15 4e bd 88 42 b5 3d 69 28 6c 3d a3 4c 9d bc
       -0.05031394 0.088505805 0.057655726 -0.019201582
0002f0 bb e7 21 bc 49 10 81 3b 88 92 81 bc 56 e8 13 3b
       -0.009881909 0.003938709 -0.015816942 0.0022568903
000300 b6 69 15 3d fd 31 d3 3b 74 66 d1 ba 95 76 8e bd
       0.036477767 0.006445168 -0.0015975968 -0.069562115
000310 a2 66 c8 3d 51 7f dd 3c af b7 4a 3c 23 0a 61 3d
       0.09785201 0.027038248 0.012372895 0.054941308
000320 94 eb 99 3b 50 73 d2 bc 90 c2 4b 3d 46 08 dd bb
       0.0046972726 -0.02568975 0.049746096 -0.006745371
000330 8f 86 99 3d 67 3d 74 3d 4e e3 67 3d a8 04 3d 3b
       0.07496368 0.05962887 0.05661326 0.0028841887
000340 f0 ae 8a 3b 03 2f 06 be 6d b4 3c bd c8 7b 5d 3d
       0.00423228 -0.13103871 -0.046070505 0.054073125
000350 de c6 c5 bd ae 44 23 3d 49 12 b0 3c 1a 82 b8 3d
       -0.096570715 0.03986042 0.021493094 0.0900919
000360 a3 f2 b6 3c c4 94 81 3d 66 d0 13 be 22 59 1e 3d
       0.022332495 0.06327203 -0.14434966 0.038659222
000370 3d bd 08 bd f4 2c a2 bc 0e cc fb 3c 1f 24 d0 3d
       -0.033383597 -0.019796826 0.03073695 0.101631396
000380 c5 ee 4a 3d 3f 96 d3 bc f7 08 09 3d 52 4b 74 bd
       0.049544115 -0.025828479 0.033455815 -0.059642144
000390 4e eb 05 bd 51 9f 6e bd 07 f5 39 bc 92 c6 4c bd
       -0.032695107 -0.058257405 -0.011349923 -0.04999406
0003a0 8f 5e 2d 3d f6 00 ba 3c 64 5e 75 bb 84 e0 2b 3d
       0.042326506 0.022705536 -0.0037440294 0.04196216
0003b0 3b 12 84 3b 55 c5 9b bc d6 6d 78 3d 54 a1 93 bd
       0.0040304936 -0.019014994 0.060651623 -0.07208505
0003c0 93 85 d0 3d b1 7e 19 3b 54 c3 85 3d d5 84 29 3d
       0.10181727 0.0023421461 0.065313965 0.041386444
0003d0 0b ba 10 bd 21 f1 c4 3b 82 bf 88 bd 2b 26 42 3c
       -0.035333674 0.00601019 -0.06677152 0.01184992
0003e0 0e 22 6f bd ef 32 39 3d 72 24 44 3c c2 d4 71 3d
       -0.058382086 0.04521459 0.01197158 0.059040792
0003f0 2a 02 a1 bc cc e1 1a bd c0 2d bc bd 5a 89 f0 3d
       -0.019654352 -0.037812993 -0.091884136 0.11744948

block.1.weight f4 [256]
000000 60 3d 56 3f 0c 8e 4f 3f b3 c3 5d 3f 05 cc 62 3f
       0.836874 0.8107612 0.8662674 0.8859256
000010 56 20 53 3f 06 f7 58 3f 01 30 62 3f fe e7 50 3f
       0.82471216 0.8475193 0.883545 0.8160399
000020 02 a3 51 3f b0 0c 5c 3f 09 a7 65 3f 7e 0e 56 3f
       0.81889355 0.8595686 0.89708 0.83615863
000030 81 2f 5c 3f 1c aa 43 3f 88 90 61 3f 1a 30 58 3f
       0.86009985 0.7643144 0.8811116 0.844484
000040 0f d3 5f 3f a0 2a 5d 3f 16 eb 52 3f 17 71 55 3f
       0.87431425 0.86393166 0.8238996 0.83375686
000050 34 45 5e 3f a6 33 67 3f 3f ec 51 3f 02 49 5e 3f
       0.86824346 0.90313184 0.8200111 0.8683015
000060 54 f6 58 3f e6 cd 4c 3f 16 6b 60 3f f8 c8 4d 3f
       0.84750867 0.80001676 0.876634 0.8038478
000070 d5 cd 62 3f 0c b5 59 3f ab 66 4e 3f 51 e5 4f 3f
       0.88595325 0.8504188 0.8062541 0.81209284
000080 86 25 5e 3f 7e fb 52 3f 17 a6 5a 3f 5d e8 57 3f
       0.86776006 0.82414997 0.85409683 0.84338933
000090 f5 f4 48 3f 5c c7 5e 3f 21 09 55 3f d6 22 5f 3f
       0.78498775 0.8702295 0.83217055 0.8716253
0000a0 0d 6f 49 3f fd 44 64 3f 15 19 59 3f f5 27 4f 3f
       0.78685075 0.8916777 0.848039 0.80920345
0000b0 85 b3 5b 3f 05 46 52 3f 16 7e 57 3f 85 49 5d 3f
       0.858208 0.8213809 0.84176767 0.86440307
0000c0 bc 04 55 3f 62 0b 4c 3f b7 15 55 3f 42 dd 66 3f
       0.8321035 0.7970487 0.8323626 0.9018136
0000d0 bc 51 5a 3f 23 15 76 3f a2 8e 60 3f 1a fb 4e 3f
       0.85280967 0.96126 0.8771764 0.808519
0000e0 51 36 58 3f f8 4c 51 3f 76 38 53 3f 15 47 58 3f
       0.8445788 0.8175807 0.8250803 0.8448346
0000f0 c2 0f 58 3f 4f eb 52 3f 62 ed 56 3f a1 55 53 3f
       0.84399045 0.823903 0.8395597 0.82552534
000100 bd d3 4f 3f 49 98 40 3f d7 8a 64 3f a7 a8 4d 3f
       0.8118246 0.7523237 0.8927435 0.8033547
000110 41 69 42 3f 87 68 58 3f 04 29 55 3f f1 f5 5e 3f
       0.75941855 0.84534496 0.8326571 0.87094027
000120 71 cd 50 3f 0f 03 57 3f 7d 1a 51 3f 14 18 52 3f
       0.8156348 0.8398904 0.8168104 0.8206799
000130 72 33 4e 3f fb 1b 60 3f fe 6a 60 3f c9 ff 55 3f
       0.8054725 0.87542695 0.8766326 0.8359342
000140 38 51 4e 3f 85 19 54 3f 96 02 4c 3f 10 9d 56 3f
       0.8059268 0.8285144 0.79691446 0.8383341
000150 83 35 57 3f 74 96 57 3f 79 cc 67 3f 45 a5 55 3f
       0.8406603 0.8421395 0.90546376 0.83455306
000160 71 80 48 3f 0f 06 4f 3f d2 a7 72 3f 83 bb 53 3f
       0.78320986 0.8086862 0.94787323 0.82707995
000170 00 bc 57 3f 0c 9c 45 3f 95 78 50 3f 80 44 49 3f
       0.8427124 0.77191234 0.81433994 0.7862015
000180 c9 d8 5d 3f 53 d9 64 3f cf 58 5a 3f 23 04 5b 3f
       0.8665891 0.8939411 0.8529176 0.8555319
000190 0a d8 66 3f fd 57 51 3f fc 7f 56 3f 7f 51 62 3f
       0.901734 0.81774884 0.8378904 0.88405603
0001a0 47 ee 54 3f ba e1 6d 3f 72 f9 61 3f 07 1d 4b 3f
       0.8317608 0.92922556 0.8827125 0.7934117
0001b0 8a f2 5a 3f 2f 11 5c 3f 00 01 56 3f e2 5d 73 3f
       0.85526335 0.8596372 0.83595276 0.9506513
0001c0 7c 9e 5c 3f 28 e6 56 3f cd 16 4b 3f a1 80 5c 3f
       0.8617933 0.8394494 0.79331666 0.8613377
0001d0 b5 29 4e 3f 1e a5 58 3f ab 5a 50 3f 2f 14 63 3f
       0.8053239 0.8462695 0.8138835 0.8870267
0001e0 5b 71 49 3f 9c 2c 6b 3f d3 71 57 3f 0f 2b 6b 3f
       0.7868859 0.91864944 0.84158057 0.9186258
0001f0 47 06 62 3f 61 29 60 3f 7d cb 54 3f f6 48 59 3f
       0.8829083 0.8756314 0.83123 0.84876955
000200 2d 0d 4a 3f 8e 81 5b 3f bc e4 56 3f 34 d8 63 3f
       0.78926355 0.8574456 0.8394277 0.89001775
000210 ad a2 60 3f 77 b6 59 3f e9 ed 6c 3f 95 93 5b 3f
       0.87748224 0.85044044 0.9255052 0.8577207
000220 e0 a0 48 3f 6f b8 59 3f c5 5b 55 3f 68 06 57 3f
       0.78370476 0.8504705 0.83343154 0.8399415
000230 16 c2 64 3f fd 81 52 3f e7 9c 5b 3f 9b b2 6a 3f
       0.8935865 0.82229596 0.8578629 0.9167878
000240 85 5b 50 3f 9d f1 5b 3f 1e 06 56 3f 36 06 52 3f
       0.8138965 0.8591555 0.83603084 0.8204073
000250 e7 eb 5d 3f 3e 6c 5c 3f 03 3d 48 3f bc 05 4e 3f
       0.86688083 0.86102664 0.78218096 0.804775
000260 f1 e8 5a 3f 48 0d 51 3f bb 71 48 3f 11 10 58 3f
       0.8551169 0.8166089 0.7829854 0.84399515
000270 44 85 54 3f 8f 7b 55 3f 6f 0c 52 3f 6c cc 57 3f
       0.8301585 0.8339166 0.8205022 0.842963
000280 78 71 62 3f 2e 97 58 3f 72 9d 64 3f 02 df 51 3f
       0.8845439 0.8460568 0.8930274 0.8198091
000290 56 a7 5e 3f e7 0b 5e 3f 32 a9 61 3f 09 de 58 3f
       0.86974084 0.8673691 0.88148797 0.847138
0002a0 99 27 5a 3f 9d a2 5a 3f dd 9c 6e 3f 18 26 52 3f
       0.8521667 0.8540438 0.93208104 0.82089376
0002b0 e0 04 4f 3f 29 99 50 3f 61 10 47 3f a5 83 5d 3f
       0.80866814 0.81483704 0.7775937 0.86529
0002c0 09 24 4c 3f 05 7c 57 3f 4f 1b 4f 3f 11 35 5a 3f
       0.79742485 0.84173614 0.80901045 0.8523722
0002d0 5e 98 5b 3f 8a d0 58 3f 9e 47 61 3f 4a 83 50 3f
       0.8577937 0.84693205 0.87999904 0.8145033
0002e0 46 e0 6a 3f 65 91 5e 3f 16 41 4f 3f a2 96 5c 3f
       0.91748464 0.86940604 0.8095869 0.8616735
0002f0 9b 3b 5d 3f f5 fa 59 3f f6 59 53 3f 8d 8e 5d 3f
       0.86419076 0.85148555 0.82559144 0.8654564
000300 6f 76 54 3f aa 5c 61 3f b4 16 50 3f b5 21 4b 3f
       0.82993215 0.8803202 0.8128464 0.7934831
000310 ca d3 5b 3f 3f d5 67 3f c9 42 4e 3f cd c5 64 3f
       0.8587004 0.9055976 0.80570656 0.8936432
000320 9f 49 64 3f 54 32 5c 3f 75 bf 59 3f e5 ae 5b 3f
       0.89174837 0.86014295 0.85057765 0.8581374
000330 0a 33 51 3f 92 9e 5a 3f 40 57 5b 3f 34 89 5b 3f
       0.81718504 0.8539821 0.8568001 0.8575623
000340 ac f9 58 3f 67 91 53 3f a7 de 59 3f ee 83 61 3f
       0.8475597 0.8264374 0.85105366 0.88091934
000350 40 62 54 3f b3 f8 4b 3f 95 5d 62 3f d7 06 5e 3f
       0.8296242 0.7967636 0.88424045 0.86729187
000360 33 3c 5f 3f 05 3b 59 3f 5b e7 5f 3f 9a fa 57 3f
       0.8720123 0.8485568 0.87462395 0.8436676
000370 ce b7 54 3f 57 ca 57 3f ce 63 5a 3f c3 e0 56 3f
       0.83092964 0.8429312 0.8530854 0.8393671
000380 ad ae 57 3f 50 50 53 3f 91 42 4c 3f 90 19 5c 3f
       0.8425091 0.8254442 0.7978907 0.85976505
000390 d1 5d 50 3f 56 ab 55 3f e8 92 62 3f 98 51 5d 3f
       0.8139315 0.8346456 0.8850541 0.8645263
0003a0 a4 1b 5a 3f c8 8f 55 3f 86 c0 5f 3f 5e bd 62 3f
       0.85198426 0.8342252 0.8740314 0.885702
0003b0 16 79 5d 3f 5e 1a 5a 3f 3a 0c 5e 3f dd b9 45 3f
       0.8651289 0.85196483 0.86737406 0.7723673
0003c0 17 9c 51 3f 37 ec 59 3f fd 01 4f 3f 40 38 57 3f
       0.818788 0.8512606 0.8086241 0.84070206
0003d0 9b 16 59 3f a4 e5 4e 3f ee 41 5b 3f 4e 44 58 3f
       0.8480012 0.80819154 0.85647476 0.84479225
0003e0 d6 ee 60 3f 1d dc 51 3f 65 d7 5f 3f 4a 21 4a 3f
       0.87864435 0.8197649 0.8743804 0.78957045
0003f0 2c 98 54 3f 4c 08 58 3f f3 0b 5c 3f f7 0b 64 3f
       0.83044696 0.8438766 0.85955733 0.89080757

block.1.bias f4 [256]
000000 aa 77 03 bf 3a 06 19 bf 4f 0b 25 bf 71 59 22 bf
       -0.5135447 -0.59775126 -0.6447038 -0.63417727
000010 d9 47 23 bf d7 3f 28 bf 04 41 25 bf 98 59 f9 be
       -0.63781506 -0.6572241 -0.6455233 -0.48701167
000020 e8 c7 1b bf 4d 3b 09 bf 6a 6d 20 bf da 71 10 bf
       -0.6085191 -0.5360611 -0.6266695 -0.56423724
000030 8c ea 1a bf 2f bc 00 bf ed 61 2e bf fd 42 27 bf
       -0.6051414 -0.50287145 -0.6811817 -0.6533659
000040 8a ff 2a bf f0 bf 19 bf 48 a9 f3 be 39 23 33 bf
       -0.6679617 -0.600585 -0.4759009 -0.6997562
000050 4e 4f 37 bf 56 e1 1c bf c4 a6 0f bf 44 c9 11 bf
       -0.71605384 -0.61281335 -0.5611384 -0.5694773
000060 19 67 22 bf cf f2 31 bf f8 95 12 bf 1f 48 36 bf
       -0.63438565 -0.6951112 -0.57260084 -0.712038
000070 7f 8e 1f bf 46 8a 28 bf 30 38 35 bf d2 f8 11 bf
       -0.62326807 -0.6583599 -0.7078886 -0.57020295
000080 04 2e 35 bf 39 73 16 bf 05 e0 0a bf e3 92 40 bf
       -0.7077334 -0.58769566 -0.54248077 -0.7522413
000090 1d 86 4a bf 96 dd 1e bf d8 ea 0f bf 38 a4 fa be
       -0.7911089 -0.62056863 -0.5621772 -0.48953414
0000a0 5a 4d 25 bf 70 59 22 bf 4c 2b 00 bf 39 f5 0b bf
       -0.64571154 -0.6341772 -0.50066066 -0.54671055
0000b0 28 52 33 bf ca ff 1d bf d6 80 32 bf 8a 7f 11 bf
       -0.70047235 -0.6171843 -0.6972784 -0.56835234
0000c0 e5 72 16 bf 0f 13 19 bf a5 69 da be 2d ef 10 bf
       -0.58769065 -0.59794706 -0.42658725 -0.56614953
0000d0 1b 3f 10 bf c3 f3 14 bf 26 63 0f bf b4 29 18 bf
       -0.5634629 -0.5818445 -0.56010664 -0.59438634
0000e0 2d 69 12 bf 54 6f 1d bf 3f 41 18 bf a1 20 21 bf
       -0.57191736 -0.61498 -0.5947456 -0.6294041
0000f0 54 a2 01 bf 66 1c 22 bf cf 0c 28 bf e3 3d 35 bf
       -0.5063832 -0.6332458 -0.65644544 -0.70797557
000100 fb d3 13 bf 7d 67 31 bf 43 93 09 bf 5b 8b 2e bf
       -0.5774533 -0.69298536 -0.5374033 -0.6818139
000110 01 6b 28 bf ac 3f e6 be 09 f8 1e bf 6c a9 12 bf
       -0.65788275 -0.44970453 -0.6209722 -0.5728977
000120 53 ab 16 bf dd 21 10 bf 71 02 10 bf 73 bb 21 bf
       -0.5885517 -0.5630167 -0.56253725 -0.6317665
000130 54 1c 22 bf ce 80 1e bf 98 6f 21 bf 99 cb 3c bf
       -0.63324475 -0.6191529 -0.63060904 -0.73748165
000140 51 ca 02 bf a8 17 2d bf 51 17 18 bf f6 f4 2b bf
       -0.5108996 -0.6761422 -0.5941058 -0.67170656
000150 97 77 0c bf 77 cd 2e bf 3c 48 0c bf de 2c 21 bf
       -0.5486998 -0.68282264 -0.5479772 -0.62959087
000160 59 17 24 bf a8 ce 1b bf d4 77 ff be a5 cc 15 bf
       -0.64098126 -0.6086221 -0.4989611 -0.5851539
000170 d2 ec 02 bf 48 e1 31 bf 0e ee 40 bf 6c ba 25 bf
       -0.5114261 -0.69484377 -0.7536324 -0.6473758
000180 84 a5 1f bf 7b c3 09 bf 24 df 12 bf 5f 2c 1b bf
       -0.6236193 -0.53813905 -0.57371736 -0.6061458
000190 05 f7 12 bf c2 3a 14 bf 1d b1 16 bf 59 d1 0b bf
       -0.5740817 -0.5790216 -0.58864003 -0.54616314
0001a0 5a d7 ee be 62 69 09 bf 31 9b 0b bf 8c 7e 24 bf
       -0.46648675 -0.53676426 -0.5453368 -0.64255595
0001b0 89 17 34 bf d1 ff 14 bf 52 78 21 bf 53 a7 ef be
       -0.7034841 -0.58202845 -0.6307422 -0.46807346
0001c0 ec a7 12 bf f1 99 26 bf 44 ce 2f bf ae ff 16 bf
       -0.5728748 -0.65078646 -0.6867411 -0.58983886
0001d0 52 c0 43 bf f1 1f 29 bf bd 70 02 bf 91 2f 3d bf
       -0.7646533 -0.66064364 -0.50953275 -0.73900706
0001e0 de aa 47 bf 93 ac 0b bf f3 b7 0e bf a9 13 07 bf
       -0.779951 -0.545602 -0.55749434 -0.52764374
0001f0 4e 18 28 bf fd 1a 2d bf d7 1a 1b bf 35 91 14 bf
       -0.65662086 -0.67619306 -0.6058783 -0.5803407
000200 c9 50 1e bf b1 27 1e bf 94 a0 e6 be cc 32 0d bf
       -0.6184202 -0.61779314 -0.45044386 -0.55155635
000210 35 fe 1e bf bf d0 15 bf 1e 67 11 bf 74 87 0d bf
       -0.6210664 -0.58521646 -0.5679797 -0.5528481
000220 61 c9 16 bf a4 86 0a bf 19 c7 24 bf 20 6d 06 bf
       -0.5890103 -0.54111695 -0.643663 -0.5251026
000230 38 55 24 bf 22 fc 1a bf 05 77 15 bf 25 8b 14 bf
       -0.64192533 -0.60540974 -0.58384734 -0.5802482
000240 73 9c 0b bf dc 87 35 bf e3 e5 28 bf d8 d6 10 bf
       -0.545356 -0.7091043 -0.6597578 -0.56577826
000250 11 90 21 bf 0d cf 19 bf 64 f7 1e bf 86 50 2a bf
       -0.6311045 -0.6008156 -0.6209624 -0.6652912
000260 a4 ee 1f bf 4a d3 31 bf ac a4 16 bf 31 95 0d bf
       -0.6247351 -0.69463027 -0.5884502 -0.55305773
000270 d5 b0 3a bf 34 de 2f bf aa b6 1b bf e1 c3 1f bf
       -0.72926074 -0.6869843 -0.608256 -0.6240826
000280 e9 86 10 bf c2 25 e8 be b2 cb 1e bf bf 7b 16 bf
       -0.56455857 -0.45341307 -0.62029564 -0.5878257
000290 65 02 23 bf 07 b8 1c bf 2a 6d 19 bf 5f 8a 36 bf
       -0.6367553 -0.61218303 -0.59932196 -0.7130489
0002a0 5e 61 23 bf 16 c5 10 bf f7 d5 13 bf 49 a4 0a bf
       -0.63820446 -0.5655073 -0.5774836 -0.5415693
0002b0 c0 00 3d bf 09 fc 19 bf 33 b0 1f bf 3c ff 08 bf
       -0.7382927 -0.601502 -0.62378234 -0.53514457
0002c0 46 fb 25 bf 4b 0d 2e bf aa 4d 2e bf eb ef 1b bf
       -0.6483654 -0.67989033 -0.68087256 -0.6091296
0002d0 0b 8d 2b bf f7 70 27 bf 31 7b 2b bf 4e bb 25 bf
       -0.6701209 -0.65406746 -0.6698485 -0.6473893
0002e0 69 82 0b bf d0 26 18 bf b0 3c 0d bf 03 db 33 bf
       -0.54495865 -0.59434223 -0.55170727 -0.7025606
0002f0 70 16 12 bf 29 f3 38 bf 6b 1c 28 bf a4 9f 1c bf
       -0.57065487 -0.7224603 -0.6566836 -0.6118109
000300 4e 77 13 bf e6 07 09 bf 02 18 2f bf da e2 2c bf
       -0.5760392 -0.5352768 -0.6839601 -0.6753365
000310 04 77 1a bf 18 c6 21 bf 0e 40 29 bf 3e 00 0b bf
       -0.60337853 -0.6319289 -0.66113365 -0.54297245
000320 71 b0 22 bf 2c 60 23 bf 7b 47 41 bf ef 95 f9 be
       -0.6355048 -0.6381862 -0.75499696 -0.48747203
000330 4f a4 39 bf 09 5f 29 bf 29 a0 1d bf b9 3f 3b bf
       -0.7251634 -0.6616064 -0.6157251 -0.7314411
000340 1b 28 f7 be cb 29 2f bf e3 c4 03 bf 7c 37 2a bf
       -0.48272786 -0.68423146 -0.514723 -0.6649091
000350 f9 49 37 bf 2b e9 47 bf a5 3b 19 bf 14 b5 15 bf
       -0.7159725 -0.7809016 -0.59856635 -0.5847943
000360 80 a3 34 bf 07 32 1c bf 49 59 29 bf ab 51 0b bf
       -0.7056198 -0.61013836 -0.66151863 -0.5442149
000370 23 21 13 bf 83 a2 0b bf 7e d2 27 bf c8 48 17 bf
       -0.5747244 -0.5454485 -0.6555556 -0.5909543
000380 48 42 22 bf ff f9 35 bf 43 7f 2f bf 53 5e 23 bf
       -0.6338239 -0.7108459 -0.6855356 -0.638158
000390 7a e7 1b bf 6d 7f 33 bf 9b 21 1f bf 97 e0 2a bf
       -0.6090008 -0.7011631 -0.6216065 -0.66748947
0003a0 d8 81 31 bf f5 34 11 bf 2e 62 2b bf 73 f0 12 bf
       -0.6933875 -0.5672143 -0.66946685 -0.57398146
0003b0 00 9f 1b bf 67 b3 4b bf 0f 8b 08 bf 00 69 26 bf
       -0.6078949 -0.7957062 -0.53337187 -0.6500397
0003c0 3a 67 1f bf 36 31 28 bf 29 bf 03 bf 2f 75 1b bf
       -0.62266886 -0.6570009 -0.5146356 -0.6072568
0003d0 85 6d 2b bf 7b 72 15 bf c9 29 31 bf d8 3b 1d bf
       -0.6696399 -0.5837781 -0.69204384 -0.6141944
0003e0 9d f2 0b bf e3 1a 25 bf 28 50 0f bf 1f fd 28 bf
       -0.54667073 -0.6449415 -0.55981684 -0.6601123
0003f0 7d 26 1f bf 38 8e 3e bf 63 d9 15 bf 9f 20 27 bf
       -0.62168103 -0.7443576 -0.5853483 -0.6528415

block.1.running_mean f4 [256]
000000 65 cb 7e 3e df 99 5d 3d 41 f4 fa bb 4d 7b 83 3d
       0.24882276 0.05410182 -0.007658512 0.06420002
000010 8b ac 07 3d 2b e2 36 3d 7e e3 cf 3d ed 00 d8 3c
       0.033123534 0.044649284 0.101508126 0.026367629
000020 e2 81 b0 3d fa ad d2 3d 82 2a 59 3d 53 9d 31 bd
       0.08618523 0.1028709 0.053019054 -0.043362927
000030 ed e9 db 3d 83 a0 48 be 8e 40 52 3d bc d2 d9 3d
       0.10737977 -0.1959248 0.051331095 0.106358975
000040 c4 27 73 bd 3b d9 70 3d 8d 66 98 3d 50 c9 db 3d
       -0.059364095 0.058800917 0.07441435 0.10731757
000050 01 10 4f 3e 74 df 8a 3d f9 ba b8 bb b4 31 fc 3c
       0.20220949 0.067809016 -0.0056375233 0.030785419
000060 5f 2f 05 3e d0 42 67 3c a5 2f 14 bd 1e 63 c0 3d
       0.13006352 0.01411505 -0.03617825 0.09393905
000070 ef 0d 19 3e c5 3f 29 3e 96 b3 29 bc a5 59 5f 3e
       0.14946721 0.16528232 -0.010357758 0.2181154
000080 74 9c d0 bd b2 e9 ce 3b 8c be 0a 3e 25 44 0d 3e
       -0.10186091 0.0063144797 0.1354925 0.13795526
000090 bf 30 99 3d 00 d3 c9 3e ca eb 0e 3e fb 3a ea 3c
       0.07480001 0.39418793 0.13957134 0.028592577
0000a0 1a dc 82 3d 54 5e 15 be d4 25 83 3d 26 e7 f2 3d
       0.06389637 -0.14586765 0.064036995 0.11860494
0000b0 e4 8f 01 3d 8c eb 3d bd d6 94 92 bd 94 74 81 3e
       0.031631365 -0.046367213 -0.071572945 0.25284255
0000c0 70 76 fc 3d d2 57 21 3e e1 fd 06 3e 4a a3 06 3e
       0.12327278 0.15756157 0.13182785 0.13148227
0000d0 56 91 83 3e 03 60 bc 3d ba 37 c6 3d 1f 2b b1 bc
       0.2569682 0.09198 0.09678598 -0.021627007
0000e0 00 d6 87 3e 3c 8e 48 bd 8e 0f 37 3d c9 8e cb be
       0.26530457 -0.04896377 0.04469257 -0.39757374
0000f0 34 bd af bd e3 34 21 3d 9a 54 fb 3d 93 d4 48 be
       -0.085810095 0.039357077 0.12271996 -0.1961234
000100 5c 93 58 3e b7 ca c7 bb 16 8a 8c 3d cd bd 3e 3e
       0.21149963 -0.0060971635 0.06862275 0.18627091
000110 1c 75 84 3d ef fa 94 3e fe 89 20 3e fc 32 60 3e
       0.06467649 0.29097697 0.1567764 0.21894449
000120 1d d8 25 3e 5e 77 de 3d 19 ff 05 bd 38 67 84 3e
       0.16195722 0.10862611 -0.032713983 0.2586
000130 a7 28 1f bd b8 22 c6 3d 55 10 5a 3e e4 aa 95 3d
       -0.03885713 0.09674591 0.21295293 0.073079854
000140 3c b6 f0 3b c8 86 6f 3d d2 a6 94 3d f1 9f 35 3c
       0.007345943 0.058478147 0.07258381 0.011085496
000150 47 c1 95 3c 23 99 54 3e 13 5f 75 bd e1 f0 00 be
       0.018280638 0.20761542 -0.059905123 -0.12591888
000160 57 88 b2 3d 99 34 c1 3d b1 41 8e 3d 07 e9 25 be
       0.08717411 0.0943386 0.069461234 -0.16202174
000170 55 06 1b 3e bc 9e a3 bc d1 f2 d2 3d 4d ec b2 3c
       0.15139134 -0.019973151 0.1030022 0.021841193
000180 dd be 07 3d 37 a2 66 3d 51 90 d4 bd 26 46 6b 3e
       0.033141006 0.056307044 -0.10379089 0.22975978
000190 6f 20 b4 3d 54 ad 2b 3e 79 3e 8e 3d 8e 08 f3 3c
       0.08795249 0.16765338 0.069455095 0.029667165
0001a0 07 88 a6 3c e7 01 8e bc 8a 57 51 3e 0e a3 a6 bd
       0.020328535 -0.017334891 0.2044355 -0.08136569
0001b0 b1 11 e2 3d 2b 6e ba 3d fb db 58 3e 43 bb 30 3d
       0.110385306 0.09103044 0.21177666 0.043147337
0001c0 cd 5b ad 3b 62 03 73 3d aa 74 a1 bd 52 83 ea bd
       0.0052904845 0.059329398 -0.0788358 -0.114508286
0001d0 3e 54 25 3e 86 bf 5d 3d ad 50 2f 3e 8b da c1 3d
       0.16145417 0.05413773 0.17120619 0.09465512
0001e0 76 4c 55 3e 37 6c b3 3c e6 c9 95 3d 5d 7d 5c 3e
       0.20829949 0.021902187 0.073139 0.21532197
0001f0 59 9b ea 3d db cb 60 3c ca 4e 5a 3e e2 73 0d 3e
       0.114554115 0.013720478 0.21319118 0.13813737
000200 14 5e dc 3d b6 28 4d 3e 52 69 02 bd ae 1b da bc
       0.107601315 0.20035061 -0.031838723 -0.026624527
000210 f9 2c 88 bb 05 38 bb 3b 70 9f 94 bc eb 41 d1 3e
       -0.004155752 0.005713465 -0.018142432 0.40870604
000220 98 4a 35 3d 10 16 92 3d 14 74 29 be 0e fc 7a 3e
       0.04426059 0.07133114 -0.16548187 0.24510214
000230 20 7c e6 3c d7 fb c7 bd 6e b1 d0 3d 10 b9 1e bd
       0.02813536 -0.097648315 0.10190092 -0.038750708
000240 28 09 4e 3e 20 92 52 bb 58 ca 38 3b b5 01 a9 3d
       0.2012068 -0.0032130554 0.0028196778 0.08252279
000250 fd d0 2c 3e 5a 8a 1b 3e 81 ab c2 3d 37 86 49 3d
       0.16876598 0.15189496 0.09505368 0.049200263
000260 b1 d4 2c 3d 94 0a 76 3d 4f 0a 25 bd 04 0d 0d bc
       0.042195026 0.06006868 -0.040293034 -0.00860906
000270 a4 01 08 3e 48 d4 15 3e f4 15 26 3e 77 10 c6 bd
       0.13281876 0.1463176 0.16219312 -0.09671109
000280 02 85 9d 3d bd 80 e2 3d 88 03 ad 3d c9 55 cc bd
       0.07691385 0.11059711 0.08447939 -0.099773
000290 4a 8c 1b be d2 b0 ea 3c c7 da 88 3d a5 f0 83 3d
       -0.15190235 0.028648768 0.066823535 0.06442384
0002a0 50 6c 0a 3d 70 6c 67 bd e8 f9 a9 3e 19 1a 38 bc
       0.0337947 -0.0564999 0.33198476 -0.011236691
0002b0 b9 59 e9 3c 3a d9 56 3c e2 08 01 bc 36 9a e4 3c
       0.028485166 0.013113314 -0.007875653 0.027905565
0002c0 1e 06 3f 3e d4 ab 01 3e c6 bf d0 3c d1 54 a3 3d
       0.18654677 0.12663203 0.02548207 0.07975162
0002d0 ee 2f ed 3d 98 74 89 bc 5a c1 94 be e4 cc 38 3d
       0.115814075 -0.016779229 -0.29053766 0.045117274
0002e0 da fb c3 3c 7f f8 1a 3d 4a 4d 15 3e f3 b4 5f 3d
       0.023923803 0.03783464 0.14580265 0.054615926
0002f0 fb d6 50 bc ff 4b 09 3e b8 5f ed 3d ea ec 13 3d
       -0.012746568 0.13407896 0.115905225 0.03611461
000300 4b c1 60 3d f8 a4 4d 3e 34 14 da 3d 9b a8 0d bd
       0.05487184 0.20082462 0.10648385 -0.034584623
000310 4e 83 da 3d a1 ec 0a 3e fe 20 e3 bd 9b c0 ca 3d
       0.10669576 0.1356683 -0.11090277 0.09900018
000320 bc 0b 87 bd 1a c0 29 3e 6a e5 16 3e f2 da 92 bd
       -0.06594035 0.16577187 0.14735952 -0.07170667
000330 5c 43 a6 3c f7 c9 57 3e 0a ed 68 bd ff a3 36 bb
       0.020295791 0.21073137 -0.056866683 -0.0027868745
000340 ce 3d 14 3d 11 72 4b 3d 59 91 cb 3d c0 8f 8e 3d
       0.036191754 0.04966933 0.09939832 0.06961012
000350 77 3e 25 3c 7b 1a d4 3c d7 44 c9 3d cd 0b 8f bd
       0.010085694 0.025891533 0.09827583 -0.06984673
000360 62 60 0c be 93 d7 b2 3d 0c e1 f5 3d 4c 8d 2f be
       -0.13708642 0.08732524 0.12005815 -0.17143744
000370 28 62 0d 3e 60 e0 10 3e 10 04 96 3d a7 d4 71 3b
       0.13806975 0.14148092 0.073249936 0.0036900432
000380 0f 95 11 3d 1b 0c 6e 3d 51 06 ef 3d 95 4e 8a 3d
       0.035542544 0.058117013 0.11671127 0.067532696
000390 43 02 4b 3e 31 fe d4 bb e8 d5 a1 bd cc 00 5a be
       0.19825082 -0.0065000285 -0.079021275 -0.21289366
0003a0 af 50 37 be 94 93 69 be a2 ca 37 be 04 9d 64 3d
       -0.17901872 -0.22810203 -0.17948392 0.055813804
0003b0 d4 8e ce 3c 39 1d 99 3c 11 68 02 3b 7c 48 81 3d
       0.02521459 0.018690692 0.0019898454 0.063126534
0003c0 21 4e 63 bc fb cf 0f 3e 77 d2 c1 3d 95 5f 5a 3d
       -0.013873608 0.14044182 0.09463971 0.05331381
0003d0 41 cf 5b bd 5e 1e 84 3c d1 f6 3b 3c 91 39 4c be
       -0.05366445 0.016127761 0.01147242 -0.19943835
0003e0 c5 02 21 3e a7 d1 05 3d 31 13 16 3c ab 8a a5 3e
       0.15723713 0.032670643 0.009159849 0.32332358
0003f0 b3 d2 2e 3d 5d ef 39 bd 59 17 17 be 0f ce 8d bc
       0.042681407 -0.04539429 -0.14755 -0.01731017

block.1.running_var f4 [256]
000000 cb 86 39 3c ae 8d 35 3c 17 a4 2b 3c 6a 02 2b 3c
       0.011323641 0.011081142 0.010476134 0.010437587
000010 1e a6 2a 3c a0 b4 16 3c 24 cf 2d 3c 86 57 3b 3c
       0.010415582 0.009198338 0.010608468 0.011434441
000020 36 da 2d 3c 52 a1 14 3c 10 0e 2d 3c ec 6d 25 3c
       0.010611108 0.009071665 0.010562435 0.010097008
000030 1c 43 46 3c 6b ed 39 3c e2 6a 1e 3c 00 c8 34 3c
       0.012100961 0.011348109 0.009669038 0.011034012
000040 42 da 24 3c 17 86 32 3c 48 c8 36 3c d8 2a 36 3c
       0.010061802 0.010896227 0.011156149 0.011118613
000050 87 13 1b 3c 7e 36 20 3c 59 10 34 3c d3 ef 29 3c
       0.009465105 0.009778617 0.010990226 0.01037212
000060 2d 93 1f 3c d6 4a 30 3c 42 46 52 3c 47 f2 25 3c
       0.009739679 0.01076003 0.012834134 0.010128564
000070 90 4c 11 3c 2f f3 15 3c cc 08 35 3c c2 9a 3c 3c
       0.008868352 0.009152218 0.011049461 0.0115115065
000080 83 52 2b 3c 29 55 44 3c 09 b0 50 3c 7e c7 33 3c
       0.010456684 0.011983194 0.012737283 0.010972856
000090 c4 97 02 3c da b4 1d 3c bc 8d 1d 3c 42 5b 1c 3c
       0.007970754 0.009625638 0.009616312 0.009543242
0000a0 55 16 1e 3c 54 e8 35 3c 0e 86 4e 3c ec a2 44 3c
       0.009648879 0.011102755 0.012605203 0.012001734
0000b0 0b 20 2f 3c 5c 8c 2a 3c e3 48 30 3c 99 1a 20 3c
       0.010688792 0.010409441 0.010759565 0.009771966
0000c0 39 f7 26 3c 74 0b 33 3c 0e 51 3a 3c b9 e8 3e 3c
       0.010190778 0.010928024 0.011371864 0.011652165
0000d0 f9 b7 4b 3c be 67 1b 3c a2 06 6f 3c 9c 8b 1c 3c
       0.012433999 0.009485183 0.014588984 0.00955477
0000e0 bf b8 28 3c 4e f1 15 3c 09 df 26 3c 56 37 27 3c
       0.010297953 0.00915177 0.010185012 0.010206064
0000f0 f9 ae 26 3c b7 15 2d 3c 8c b1 35 3c ab b9 1f 3c
       0.010173553 0.010564259 0.011089694 0.009748857
000100 71 3e 29 3c 7d 2c 0f 3c cd 6c 34 3c 06 c4 25 3c
       0.010329829 0.008738634 0.011012268 0.010117536
000110 e1 4c 49 3c f0 64 5d 3c 97 1a 41 3c a2 07 18 3c
       0.012286396 0.013512835 0.011786125 0.009279164
000120 63 88 3d 3c 78 fb 15 3c dd d7 3e 3c 18 78 2c 3c
       0.011568162 0.009154193 0.0116481455 0.010526679
000130 7d 26 24 3c 2c 07 24 3c e1 a7 1e 3c aa 40 0e 3c
       0.010018942 0.0100114755 0.00968358 0.008682409
000140 7e 8e 24 3c 9b 33 2d 3c a9 2a 2e 3c 42 22 38 3c
       0.010043738 0.010571386 0.010630288 0.011238636
000150 66 a3 39 3c dd cf 53 3c 81 fe 34 3c d9 06 14 3c
       0.011330461 0.012927976 0.011047007 0.009034836
000160 e3 57 20 3c 58 b3 40 3c 32 29 49 3c 52 25 2a 3c
       0.009786579 0.011761509 0.012277888 0.010384874
000170 33 50 50 3c c9 c3 31 3c b2 6c 11 3c 91 c2 37 3c
       0.0127144335 0.0108499015 0.008876013 0.011215822
000180 60 26 23 3c 58 f0 07 3c ee 89 1e 3c 05 a2 3a 3c
       0.00995788 0.0082970485 0.00967644 0.0113911675
000190 e8 7a 21 3c 04 5c 49 3c 7b b3 19 3c 31 d9 33 3c
       0.009855963 0.012290005 0.00938117 0.010977075
0001a0 d9 f5 36 3c a1 db 0c 3c b8 3c 3e 3c 44 bb 1c 3c
       0.011167013 0.0085972855 0.011611156 0.009566132
0001b0 b2 ba 1c 3c b9 20 1b 3c 1c 9b 1d 3c be a6 47 3c
       0.009565996 0.009468251 0.0096195005 0.0121857505
0001c0 92 0f 37 3c ab 0a 27 3c 9c 82 2a 3c 39 5a 23 3c
       0.011173146 0.010195415 0.010407116 0.009970241
0001d0 2d db 0b 3c 07 fe 2b 3c 08 45 30 3c 82 4b 19 3c
       0.008536142 0.010497577 0.010758646 0.009356381
0001e0 be 48 20 3c d5 20 39 3c b0 07 3f 3c f4 05 3f 3c
       0.009782968 0.011299332 0.011659548 0.011659134
0001f0 54 8d 4b 3c fb 1b 16 3c 9d d1 46 3c e0 ee 37 3c
       0.012423832 0.0091619445 0.012134937 0.011226386
000200 d7 f6 42 3c e1 54 31 3c c0 d1 19 3c f3 0a 34 3c
       0.0118996715 0.010823459 0.009388387 0.010988939
000210 d7 d0 36 3c 0c c2 40 3c e2 2e 3a 3c d6 03 50 3c
       0.01115819 0.011765014 0.011363717 0.012696227
000220 e8 75 16 3c 31 b4 36 3c f3 e7 1f 3c 2d 50 6b 3c
       0.0091833845 0.011151359 0.009759891 0.014362377
000230 e2 bb 29 3c d2 69 20 3c 47 d2 18 3c 90 b8 35 3c
       0.010359736 0.0097908545 0.009327478 0.011091366
000240 29 b1 20 3c 8f 31 32 3c 11 81 34 3c e7 a0 33 3c
       0.009807863 0.0108760735 0.0110171 0.010963655
000250 5a db 34 3c f9 da 30 3c 7b 39 46 3c 92 35 12 3c
       0.011038626 0.010794395 0.012098665 0.008923905
000260 bc f2 2b 3c a7 3f 28 3c ff 65 33 3c 29 27 33 3c
       0.010494884 0.010269082 0.010949611 0.0109346295
000270 5f 54 1e 3c d9 42 14 3c 43 8f 30 3c 9a be 3f 3c
       0.00966367 0.009049141 0.010776344 0.011703158
000280 e6 6e 34 3c 51 72 51 3c 1e 8a 38 3c a5 9e 18 3c
       0.011012768 0.012783603 0.011263398 0.009315168
000290 18 3a 13 3c c0 be 37 3c 60 0e 2a 3c dd 05 19 3c
       0.008986019 0.011214912 0.010379404 0.009339777
0002a0 6c f0 48 3c f6 86 0a 3c 03 c0 55 3c 2a ee 1d 3c
       0.012264352 0.008455029 0.013046267 0.009639302
0002b0 9b fd 18 3c f6 db 16 3c 2a 76 26 3c bd 19 44 3c
       0.009337808 0.009207716 0.010160008 0.011969027
0002c0 20 c3 23 3c 15 37 1f 3c 94 1c 3a 3c 21 d2 1b 3c
       0.009995252 0.009717722 0.011359353 0.009510548
0002d0 ab 06 30 3c 61 58 26 3c 7d 58 16 3c 52 d9 3a 3c
       0.010743777 0.010152907 0.009176371 0.011404352
0002e0 b0 62 33 3c 46 56 28 3c c2 3d 3b 3c b5 44 0f 3c
       0.010948822 0.010274475 0.011428298 0.008744408
0002f0 c2 3d 2f 3c 41 bf 15 3c f6 bb 18 3c 44 ec 2f 3c
       0.010695877 0.009139837 0.009322157 0.010737482
000300 19 3f 26 3c a0 04 11 3c f8 fb 15 3c 59 aa 1b 3c
       0.01014688 0.0088512 0.009154312 0.009501063
000310 04 ff 27 3c 96 04 10 3c 6c 87 13 3c 37 0c 22 3c
       0.010253672 0.008790156 0.009004455 0.009890608
000320 28 04 42 3c 16 b6 2c 3c 69 f8 23 3c 47 0f 59 3c
       0.011841811 0.01054146 0.010007956 0.013248271
000330 cb 95 12 3c d1 88 1e 3c c4 fe 23 3c 47 c8 35 3c
       0.008946846 0.009676174 0.010009471 0.011095113
000340 b8 f3 24 3c 6b 24 23 3c b4 76 5a 3c 68 f3 2a 3c
       0.010067873 0.009957413 0.013333965 0.010434009
000350 58 13 22 3c 07 94 23 3c 5d 03 28 3c c3 4c 47 3c
       0.009892307 0.009984023 0.010254708 0.0121642975
000360 23 8e 31 3c f9 eb 14 3c 5e f1 17 3c c2 01 50 3c
       0.010837111 0.009089463 0.009273855 0.012695732
000370 6e e6 4b 3c 4d 8b 1d 3c ad 67 33 3c 3e 2a 08 3c
       0.012445075 0.009615731 0.010950011 0.008310853
000380 1d 86 1a 3c 8f 0d 46 3c 3c 10 15 3c e5 5e 31 3c
       0.009431389 0.012088194 0.009098109 0.010825847
000390 47 ca 34 3c e2 4f 1e 3c 20 47 2c 3c 15 34 21 3c
       0.011034555 0.0096626 0.010515004 0.0098390775
0003a0 6f 9f 42 3c f4 08 33 3c 97 91 14 3c 20 f3 2f 3c
       0.011878832 0.010927428 0.009067914 0.010739118
0003b0 33 e7 21 3c 25 2c 1a 3c 79 cb 3a 3c 7c 31 29 3c
       0.009881782 0.009409939 0.011401051 0.010326739
0003c0 74 f7 37 3c ca 7e 19 3c 57 f4 47 3c 1c 14 21 3c
       0.011228431 0.009368608 0.012204251 0.009831455
0003d0 3e 67 27 3c b6 98 46 3c 52 9c 32 3c 51 83 26 3c
       0.010217486 0.01212137 0.0109015275 0.010163144
0003e0 93 d0 46 3c 6b 97 35 3c 4c b1 24 3c b4 f4 2c 3c
       0.012134689 0.011083464 0.0100520365 0.010556389
0003f0 c5 b3 15 3c 91 01 1c 3c 1a 9b 34 3c 71 3c 1b 3c
       0.009137099 0.009521858 0.011023307 0.00947486

block.4.weight f4 [128, 256]
000000 3c 14 c2 3a fb 6a f8 bd 2e b6 3c be 3c 7b 65 be
       0.0014807056 -0.1212978 -0.18428871 -0.22410291
000010 17 7e dd bd dd a6 2b be 97 96 5a be 4f 92 4b bd
       -0.10815065 -0.16762872 -0.21346508 -0.049700078
000020 25 74 12 be 8a 21 00 bd a1 74 78 bd ea f0 87 bd
       -0.14302118 -0.031281985 -0.0606581 -0.066377476
000030 ea 7c 86 bd 6a 3b 96 3d 6f a4 4f 3e 20 97 4d 3d
       -0.06566794 0.07335551 0.2027757 0.050192952
000040 7d 0d 27 3e e9 b6 5f be f9 e3 d1 3c b3 b8 75 3d
       0.16313739 -0.21847118 0.025621401 0.059990596
000050 6d 11 0f 3e 82 fa cf 3d 56 84 8e 3c 4d 63 0c be
       0.13971491 0.101552024 0.017397087 -0.13709755
000060 7f df 83 bc ba e5 fe 3d 1c cc cf 3c 90 fd 91 bd
       -0.016097782 0.124461606 0.025365882 -0.07128441
000070 23 12 57 be b3 c7 0c 3e ca 30 16 be 17 91 d6 bd
       -0.21003012 0.13748054 -0.14667049 -0.104768924
000080 bf 7e 92 bd fc bb d9 bc 01 b2 fb 3c 0e 0c 78 3e
       -0.07153081 -0.026578896 0.030724527 0.24223348
000090 78 7b ee 3d ad e2 12 be 7a d7 18 be 39 80 4f 3d
       0.116446435 -0.14344282 -0.14925948 0.050659392
0000a0 65 90 3e 3e 1f 90 ce bd c7 ad ff 3c 85 75 b6 3d
       0.1860977 -0.10086083 0.031210793 0.08909134
0000b0 ea d4 bb ba 4c 83 c5 bd 40 97 ea 39 89 53 16 bd
       -0.0014330421 -0.096441835 0.00044744648 -0.03670076
0000c0 13 4a 13 be af 9b 28 be 81 ea 17 3c b1 0d e4 3d
       -0.14383726 -0.16465639 0.009272219 0.11135424
0000d0 ad e4 af bc ae 45 95 bd 39 7d 56 3d b4 99 1f 3e
       -0.021471346 -0.07288681 0.052365515 0.15585977
0000e0 c6 18 0a be 53 cf 89 3d fc 76 f8 bd 0e 58 10 bd
       -0.13486013 0.06728997 -0.121320695 -0.035240225
0000f0 75 31 2b be 61 e2 d7 bd 72 01 48 3e b1 2b 26 3e
       -0.16718085 -0.10541225 0.19531801 0.16227604
000100 8b ee 56 bd e0 39 01 3e 90 20 e7 3d b0 a7 6c 3e
       -0.052473586 0.12619734 0.11285508 0.23110843
000110 3c 3c bd 3d bf 8f eb bd 41 48 17 be ad ba 0f 3d
       0.092400044 -0.11502027 -0.14773656 0.035090137
000120 95 c3 17 3e 16 b0 2c 3e b8 74 57 3e 2d fe 0b bd
       0.14820702 0.16864046 0.21040618 -0.034177948
000130 9d 5e 55 3e 81 c4 29 be 92 d5 96 bc f7 7a 47 3e
       0.20836873 -0.16578867 -0.018412385 0.19480501
000140 29 35 8a 3d c3 26 00 3e 08 1f 05 be 4f 94 30 3a
       0.06748421 0.12514786 -0.13000119 0.0006735967
000150 45 1a db bd a3 de 48 bd 52 8f 23 be 0f 3b 15 be
       -0.1069837 -0.049040448 -0.15972641 -0.1457331
000160 e8 f1 1c 3e e1 8c d1 bd a4 ee fe bd b9 1e 77 bd
       0.15326655 -0.10231949 -0.12447861 -0.060332034
000170 3a 92 4d bc b8 10 bf 3d 9a f0 e8 3d 86 21 45 be
       -0.01254707 0.09329361 0.11374016 -0.1925107
000180 05 3f 2b 3e 33 ee 50 3d 71 71 2c be 46 02 4a 3d
       0.16723259 0.051008414 -0.1684015 0.049318574
000190 d3 27 66 bd 92 6c ce bc 81 7a 67 be 2f bf 39 be
       -0.056190323 -0.025198255 -0.22605325 -0.18139337
0001a0 bc 01 11 3c 82 29 67 be 54 94 07 be 36 76 0d be
       0.008850511 -0.22574428 -0.13240176 -0.13814625
0001b0 7a 8e 06 be 48 71 75 3c 6d 25 0c 3e 38 9d b9 bc
       -0.13140288 0.014980622 0.13686152 -0.022657976
0001c0 4c c3 12 3e 57 83 09 3d dd 5e 98 bd 3f 33 ef 3b
       0.14332312 0.03357252 -0.07439969 0.00729981
0001d0 c9 99 f0 3d bf a5 01 be a5 58 48 bc 29 b7 2c 3e
       0.11748082 -0.12660883 -0.012228166 0.16866745
0001e0 f5 da 7e 3e b6 88 1b be fc 8e fd 3c 02 07 ce bc
       0.24888213 -0.1518887 0.03095197 -0.025149826
0001f0 a6 5b b3 3d dd 54 3d 3d 95 6e 6d 3d df d3 1c be
       0.08757715 0.04622351 0.057966787 -0.15315197
000200 6f 88 4f 3c 49 e9 73 bd d8 c7 04 be 57 58 c4 3d
       0.012666806 -0.05954865 -0.1296686 0.09587162
000210 aa 03 fe bd 5d 3d 49 be 34 06 e6 3d 68 e1 85 3c
       -0.124030426 -0.19652314 0.11231652 0.016342834
000220 7d 4f 9f 3d 75 ac ed bd aa e1 03 3e 08 87 1c 3d
       0.07778833 -0.11605159 0.12879053 0.038214713
000230 2b f5 25 be 12 2d 63 be 95 40 48 be 43 29 d3 3d
       -0.16206805 -0.22185162 -0.19555886 0.103106044
000240 cb 86 2d be ef f2 11 3e 4b 23 1a 3e 0b 9d 41 3c
       -0.1694595 0.14252828 0.15052526 0.011817227
000250 7f 3d 8e bd 86 c4 d1 3d a1 02 eb bd 17 c7 92 bd
       -0.06945323 0.10242562 -0.11475111 -0.071668796
000260 40 dc 0d be 09 fa ec bd 25 95 bf 3d 7f a8 a7 bd
       -0.1385355 -0.11571128 0.09354619 -0.08186435
000270 8d 04 06 3e 3b 4a 13 3e 47 96 94 bd 82 e6 5c bd
       0.13087673 0.14383785 -0.07255226 -0.053930767
000280 18 b8 02 be 5c e7 81 bd e4 2b f2 3a 6a bf bc 3b
       -0.12765539 -0.063429564 0.0018476215 0.005760123
000290 ea c6 01 be 05 b1 76 be c9 d6 30 be 90 a6 e9 3d
       -0.12673536 -0.24090965 -0.17269434 0.114087224
0002a0 75 43 42 bd 88 71 9f bd 39 91 84 3d ad 74 26 3e
       -0.047427613 -0.07785326 0.064730115 0.16255446
0002b0 5c 77 6e 3e 50 6c 97 bd 91 bc bb 3d fe 1d d9 bc
       0.2328772 -0.07393706 0.091668256 -0.02650356
0002c0 59 95 57 bd 62 d6 d9 3d f2 14 19 3e 91 b5 dd bc
       -0.052632663 0.106365934 0.14949396 -0.027064117
0002d0 05 e2 a6 bd c7 78 4b bd 85 7f 07 be 6d 0b c2 3d
       -0.081485786 -0.04967573 -0.13232239 0.094748355
0002e0 a0 1b 70 3d 50 d2 70 be 6d b9 1b 3e 30 fb 33 be
       0.058620095 -0.23517728 0.15207453 -0.17576289
0002f0 85 c5 1c be 06 83 d8 3d fd 80 35 3e be 00 2a 3e
       -0.15309723 0.10571866 0.17724986 0.16601846
000300 5c 15 d9 bd 85 f7 38 be 72 b2 2d be a2 62 61 bd
       -0.10599777 -0.18063171 -0.16962603 -0.055025704
000310 39 0b 0c bd df dd 19 bd 55 92 f5 3d 81 f7 ce bd
       -0.03419039 -0.03756511 0.11990801 -0.101058014
000320 8c 7a c4 bd 06 cf 27 bd d0 74 1b 3e 63 1e 27 3e
       -0.095936865 -0.040968917 0.15181279 0.16320185
000330 6f dd f4 3d a5 66 84 3c f4 e5 4c bd 7a 8a b7 bd
       0.119562976 0.016162226 -0.050023988 -0.08961959
000340 5a 35 3a 3c 73 5d 08 be 1a 7e 78 3d 85 34 3c be
       0.011365259 -0.13316898 0.060667135 -0.1837941
000350 31 db b8 3d 12 e6 4c be 19 e7 dd 3b 2d 65 d2 3c
       0.090261824 -0.2000964 0.0067719338 0.02568301
000360 1c 28 1e 3e 2e c7 cf bd da 5d a2 3c 05 76 10 be
       0.15444988 -0.101454124 0.019820143 -0.14107521
000370 24 5a e7 bd 80 d6 6c bd 08 95 eb bc f2 1c ef 3d
       -0.1129649 -0.05782175 -0.028757587 0.11675443
000380 80 6c 90 bd 99 e7 aa 3d 4c c9 58 be cb bd 05 3e
       -0.07051945 0.08344955 -0.21170539 0.13060682
000390 a4 c5 ca bd 8c 26 f2 3d fe f0 f2 bd c9 67 90 3d
       -0.09900978 0.118237585 -0.11862372 0.070510454
0003a0 ae b4 6e be 9c cb 14 be 41 4c 88 3d 11 c8 e9 3c
       -0.23311111 -0.14530796 0.06655169 0.028537782
0003b0 30 aa 8f bd c7 2b 51 3e 9e 6c 1a be 1f 7d 35 3e
       -0.070148826 0.20426856 -0.15080497 0.17723511
0003c0 69 cc 66 be 07 f7 b9 3d f3 6f b3 3c f5 47 57 be
       -0.22538914 0.0908032 0.021903967 -0.21023543
0003d0 b6 a3 b6 3d a1 d1 98 bd 30 8d 43 3d 24 a9 51 be
       0.08917944 -0.074618585 0.04774207 -0.20474678
0003e0 1e 46 9b 3d 3d 01 0b 3e e4 4c c9 bc b2 d6 97 bb
       0.07581733 0.13574691 -0.024572797 -0.004633748
0003f0 db 7c 07 3e 58 6b 0f be 55 20 34 be b0 e5 0f be
       0.13231222 -0.14005792 -0.17590459 -0.14052463
