model/article_discriminate_model.pth (torch, 669358 bytes, 13 tensors)

block.0.weight f4 [256, 512]
00000000: be00 013d 3d51 873b 6c39 cebb afe6 2f3d
00000010: 0235 163d aa15 823c fa51 83bc 3825 17bd
00000020: 501f 1abc cf8d 22bc 34d5 a93c a8ea c6bc
00000030: daed 08bd 1b28 f33b e0fc 9cbb 9e0a e33c
00000040: 57db e83c 7955 9bbc d59d f5bc af98 babb
00000050: 6956 16bd 7c9d 00bb 9741 bf3b 2526 413c
00000060: c76b 13bd b32f d8bc af90 d4bc 956b 813c
00000070: 4044 81bc 65f0 783b 9b8c 313d 2a1f b4bc
00000080: 9221 3e3d 549a 81bc 13ce d8bc bffc 293c
00000090: 504a 143d 6160 443d ddb1 0dbd 5746 263d
000000a0: f0c3 663c f47f 763c 8e43 353c ca5f 0fbd
000000b0: 47e1 983b 98f8 263d 96ec 0e3d 56fb 2bbd
000000c0: be3e b8bc 2a40 1dbd 4515 efbc f9db 3dbb
000000d0: c9ef efbc 3115 bd39 e60b 473c 3ad4 303d
000000e0: 2971 e33c cfee 98bc f205 113d 0fba 683c
000000f0: c88c 373c 5268 ae3c 8060 1b3c 49d1 0d3d
00000100: 61ca e43c 049e 12bd c1f1 5d3c 0186 febc
00000110: bf8f 87bc bf0e 18bd ab69 8b3c a94d c0bc
00000120: ee6a 0e3d 5c46 b63b fccb be3c ad54 e63c
00000130: 3f11 1bbc 4db3 803c 5dbe 60bc b9e8 f73c
00000140: 80e6 563c 153e dcbc 2c6f e2bb 2856 953c
00000150: 5897 f03b aadf e33c d779 d137 a2c0 283d
00000160: 3763 19bd 8908 8b3c 8dd5 c23c 4f37 8ebc
00000170: 0eae b6bc 0a1b 64bc 8075 453d b253 10bc
00000180: 9a6c d3bc fcb7 053c 0f58 59bc 2a5b 04bd
00000190: 0676 d33c 3f3d 9b3c bb32 13bc 773b d9bc
000001a0: 9e51 003d 37e0 413d 9e0d ef3b b9eb 1cbc
000001b0: 445d bbbc d25d 79bc 7ef6 b03c 5d34 183d
000001c0: 2a50 d3bc 8e9d e5bc bf8a aabc 8d14 d03b
000001d0: a9da f63b 17cb 343d c029 223d 8868 213d
000001e0: 02e7 0dbd 568c f0bc 7a54 ddbb 5100 dcb9
000001f0: 5f56 04bd a293 5b3b 3444 a23c 9a0f 99bc
00000200: 032e 83bc fa2c d63a bf8a e73c d849 263d
00000210: 331c 38bd bf1c 38bd 3259 113d 5c5d 68ba
00000220: 27b4 303d c97d 243d 1215 a2bc 7357 0cbd
00000230: dd3f 8fbc 842c e63c 0ef3 543c e9ad 063d
00000240: e6ed e4bc e808 e8bc c6bd 66bc e9ef ca3c
00000250: a50f d13c 6fa7 0e3c c165 113c 5ddf a63c
00000260: 9281 e0bc 4ed6 033d 4bfe 1bbd 56db 12bd
00000270: c248 04bd 175c 8a3c 9afc 253d d8a4 02bd
00000280: 6ba1 03bd cd6e 8dbc 10f4 2a3d 0bcf e2bc
00000290: d353 213d ca27 063d 7dce 363d 7d12 03bd
000002a0: ee1d b93c ee9c e53b be4b 723c f150 2c3c
000002b0: 9579 bdbc 6b86 86bb 64d5 12bd 9594 cc3c
000002c0: 4917 cf3c 690a d73c 434a 8ebc e9cd df3c
000002d0: d059 1fbd c3ad b23b 7811 6cbc 929c 08bd
000002e0: 3729 ae3c 2d44 f239 2257 43bc f21e ddbb
000002f0: b97c 613c 4211 74bc ec61 d33c 6624 f7bc
00000300: 9437 c7bc a41f a93c d2da eb3b d507 fa3a
00000310: 8009 1bbd 3d04 89bc ec4b aabc ffe5 01bd
00000320: 9413 1fbd 385e d13b 5783 c2bc 9e8f 0fbd
00000330: 7646 123d 108d c1bc e3d0 833c b16c 333d
00000340: 7a5f 76bc cf84 89bc b3b3 823c 9096 9f3c
00000350: c7ce 9abb 4ddf 4fbd 0221 93bc 2140 023d
00000360: aec5 943c 1b89 273c 3269 72bb f2b5 13bc
00000370: 20e5 d43b 14b5 8fbc 3b30 3cbb 9fae 083d
00000380: 65ec c93b 4920 1ebd 5171 413d 8201 ef3c
00000390: 55c7 7a3c b390 26bd 586d 15bd 4138 08bd
000003a0: 83ef 43bb 83d1 c7bc ff8b 21bd b405 433d
000003b0: e410 653c 016c e73c 81a4 92ba 907d 02bd
000003c0: 1a49 43bd 8c84 a33c 152b f23c 36ea 093d
000003d0: a42d 12bc 0b3d 803c 8a2b 3ebd df6e 82bc
000003e0: 7589 c53c 9794 9239 a663 a33c a985 0abc
000003f0: 8c01 523b e5d9 a43c a68b 583a 3fad 5fbc
0.03149485 0.0041295574 -0.0062934663 0.042944606 0.036671646 0.01587947 -0.0160303 -0.03690073
-0.00940688 -0.009921505 0.020731546 -0.024281815 -0.033429958 0.0074205524 -0.0047908872 0.027715024
0.028424902 -0.018961655 -0.029982487 -0.005694471 -0.0367035 -0.0019625118 0.0058366763 0.0117888795
-0.035991456 -0.026389932 -0.025947897 0.01579837 -0.015779614 0.0037985083 0.043346982 -0.021987516
0.046418734 -0.01582066 -0.026465451 0.010375201 0.036203682 0.047943477 -0.03459345 0.040594425
0.014084801 0.015045155 0.01106347 -0.03500346 0.004665527 0.04076442 0.034893595 -0.04198774
-0.022490855 -0.03839127 -0.029184947 -0.0028970225 -0.029289143 0.00036064678 0.012148833 0.043171145
0.02776392 -0.01866856 0.03540606 0.014204516 0.011202998 0.021289978 0.009483457 0.034623418
0.027928533 -0.035795227 0.013546408 -0.031069757 -0.016548036 -0.037123438 0.01701816 -0.023474531
0.034769945 0.0055625867 0.023290627 0.028116548 -0.009464561 0.015710497 -0.013717261 0.030262338
0.013116479 -0.026885072 -0.0069102254 0.018229559 0.0073422603 0.027816612 2.4971478e-05 0.041199334
-0.037448134 0.016971843 0.02378347 -0.017360358 -0.022299793 -0.013922462 0.04820776 -0.008809017
-0.025808621 0.008161541 -0.013265624 -0.032313503 0.025813114 0.018950103 -0.008984263 -0.026517613
0.031327836 0.04733297 0.0072953245 -0.009577685 -0.022871621 -0.015220122 0.021601912 0.037159313
-0.025795061 -0.02802923 -0.020818112 0.006350106 0.0075333905 0.044138994 0.039590597 0.03940633
-0.034644134 -0.029363792 -0.006754455 -0.00041961906 -0.032308932 0.0033504744 0.019807912 -0.018684197
-0.016013151 0.0016340308 0.028264401 0.040597767 -0.044948768 -0.04494929 0.035485454 -0.0008864009
0.043140557 0.04015902 -0.019785438 -0.034263086 -0.017486507 0.028097399 0.012997402 0.032880697
-0.02794547 -0.02832456 -0.014083331 0.024772601 0.025520155 0.0087069115 0.008874358 0.02037018
-0.027405534 0.0321868 -0.03808431 -0.035853706 -0.03229595 0.016889615 0.040524103 -0.03189549
-0.032136362 -0.017264748 0.041736662 -0.027686616 0.03938658 0.03275279 0.044630516 -0.032000054
0.02259728 0.007007233 0.014788566 0.010517345 -0.023129264 -0.0041053793 -0.035848036 0.024973193
0.025279658 0.026250081 -0.017369395 0.027319865 -0.03890401 0.005452843 -0.014408462 -0.033352442
0.021259887 0.00046208632 -0.01192263 -0.0067480737 0.013762646 -0.014896693 0.025803529 -0.030168723
-0.024318494 0.02064497 0.0071977163 0.001907582 -0.037850857 -0.016725654 -0.020788155 -0.031713482
-0.03883703 0.0063894056 -0.023744268 -0.035049073 0.035711728 -0.023626834 0.016090816 0.043804828
-0.015037412 -0.01678696 0.015954828 0.019480973 -0.004724357 -0.050750066 -0.017960075 0.03179944
0.018160667 0.01022556 -0.003698897 -0.009015547 0.0064970404 -0.0175424 -0.002871527 0.033369657
0.0061622136 -0.03860501 0.047227208 0.029175524 0.0153063135 -0.04066534 -0.03648123 -0.033256773
-0.0029897399 -0.024391895 -0.03944015 0.04761286 0.013981078 0.028249742 -0.0011187942 -0.031858027
-0.047677137 0.019960664 0.029561559 0.033670627 -0.008922014 0.015654108 -0.04642824 -0.015922008
0.024113396 0.00027957998 0.019944977 -0.008454719 0.003204438 0.020123431 0.00082605553 -0.013652145

block.0.bias f4 [256]
00000000: 46e9 67ba 66f6 f4bc 2a19 d73c 79ef 4dbc
00000010: c738 4a3c 2b63 f23c a767 e5bc 16f2 edbc
00000020: f65c 5d3c 793a 7fbc 3f26 153d e361 c13c
00000030: 9e8d e33c 8392 b83c 45de 0a3d df65 323d
00000040: c78c 293c 39b7 52bd 6229 b43c a394 1f3d
00000050: 0c13 eabc 5726 f83c d8de f93c 315f 553b
00000060: 412a 72bc 2520 243d 1bfe 603c 7097 9b3c
00000070: c2a4 fab9 cee9 0ebc 9370 bd3c d722 203c
00000080: 912e f03c 351a b33b df43 96bc 3539 cc3c
00000090: 1b9a 18bd 3594 473d df30 07bd 35d8 20bd
000000a0: ecf3 513c 8d27 8fbc 1586 c23a 1f44 47bb
000000b0: 754f e5bc 423c b23c bd05 a2bc 43e0 123d
000000c0: d8f0 3b3c 9596 e73c 1de4 ca3c fefe 95bc
000000d0: 22c1 beba 27f4 953c d0d5 01bc b21e e4bc
000000e0: 167a 373d c1e8 e1bc 293c 313d c7ac c83c
000000f0: 8992 8cbc 3d3f a13c e2a5 1fbc bda2 26bd
00000100: d2eb 8a3c 62db 063d 2eba 0bbd fa9c 8d3c
00000110: 7c2a 1d3d 830e 5e3d 03cd dabc f4f3 1cbd
00000120: f5d4 24bb 827f 843c 734b 1abd 5e4b 903c
00000130: 559c 64bc 1d13 0c3c 6871 bb3c fe9a f43b
00000140: 10ad 78bb 841b 263c 3b5e db3c 9937 38bc
00000150: e38d 26bd 8196 92bc 0d20 b1bc 23ec c3bc
00000160: 8222 c3bb bcfc 973b e6c5 ba3c 5a1d 8aba
00000170: 7d86 193d fa34 823c 9bee 883c 4e91 063d
00000180: e6ed 843b 7d88 3abd fa48 80bc d183 213d
00000190: 029f 2bbd feb4 49bc 2227 103c 9531 17bd
000001a0: e899 f6bc c92d 183d 3056 6abc 5cb7 eeba
000001b0: 702f 3d3c f49b 12bd a845 1f3d e00c d3bb
000001c0: ea01 99bb 0657 a7bc 47e0 073d 1fd9 4cbb
000001d0: 5d9a d83c 43f7 2f3d 433b 3abc 1a39 763c
000001e0: 7610 203d acdd abbc fadc bebc 16ae 093d
000001f0: b4a7 06bc 970e fabc 0007 d73c c5c7 c13c
00000200: 0622 9eba b36b e03b c272 b6bc 5c23 edbc
00000210: 1b29 dd3b 3957 0a3c 7f8a f2bb edda e33b
00000220: f2d6 903c 7cbf 41bc e1db 213d 36c0 cb3c
00000230: c737 1a3d 3e33 f7bb c60e fc3c ccfd aebc
00000240: bf8c fe3c ecdb f53c 95b1 07bd 4aaf 9abb
00000250: 0503 033c 32c9 c93c 88af 2dbb ddc2 ae3b
00000260: 7e85 83bc c130 363c cb88 edbb 7f0a a7ba
00000270: abf3 72bc e51f cbbc cef8 273c 2492 b3bc
00000280: 70c3 0fbb 6d77 073d d276 a7bc 6336 3ebc
00000290: 421b 8bbc 6dbf ba3b d2bb 8fbc 052f efbc
000002a0: 71ae 613c 0c60 49bc 148c 78bb 3c19 5abc
000002b0: 4a37 16bd c33c 1d3d 19ea 2fbc 540a debc
000002c0: b2b5 0b3d 84fa a9bb 4f01 98bc 9a2a 36bd
000002d0: 36a9 b83c 6895 fbbc 66d0 28bc 1420 b5bc
000002e0: ca53 89bb 43ae 033c 887b 71bc 548d bf3c
000002f0: e1c1 e0bc b04f 19bd f6cd 893c 72cb c5bc
00000300: 1ebc b1bc 00f9 8cbc 9725 41bc 14c6 5e3b
00000310: 530f 893c 0932 173d a7d6 2d3d eb42 d0bc
00000320: 8572 553a 0371 813a 2d8c dabc 20dc 73bc
00000330: 50ce b13b 176b 913c a857 1fbb b7f2 65bb
00000340: b565 0cbd 1f18 b23c d9b4 9ebc 55ba 3ebc
00000350: 6ab5 dabc f87c 2a3c 805f 05bd bc0a 9d3b
00000360: aaef aabc 0ed8 2bbc ae97 6abc 4384 c73c
00000370: 8dc7 aabc 846f 35bd beda dfbc c5ae 49bd
00000380: 34ac 623c 36a1 1f3d d4ba be3c cdec 893c
00000390: 6859 fabc 19e1 273d e5a4 853c e33c 6e3c
000003a0: ca71 c1bc f5cf 8dbc ed3d bc3c 1223 ccbc
000003b0: 7e09 a4bc 7f83 28bd af8d ae3c 6147 9ebc
000003c0: 6e32 f9bc 75a4 abbc 13e6 ae3c 016a 36bb
000003d0: 324b 1d3d 1594 f53c f678 2e3d 36b9 903c
000003e0: 10cb db3c 74b1 923c e1ae abbc 7b1e 483c
000003f0: ba7e 883b 5217 513b 3c30 89bb e2ad 6d3a
-0.0008846711 -0.029902648 0.026257116 -0.012569302 0.012342638 0.029588303 -0.028003527 -0.0290461
0.013510933 -0.015577906 0.036413427 0.023606246 0.02777749 0.0225308 0.03390338 0.043554183
0.010348505 -0.051444266 0.02199239 0.03896011 -0.028573535 0.03029172 0.030501768 0.003255796
-0.014780582 0.040069718 0.013732458 0.01899311 -0.0004780647 -0.008722736 0.023124969 0.0097739315
0.02931908 0.0054657706 -0.01834291 0.024929622 -0.03725634 0.048725326 -0.03300559 -0.03926869
0.012814503 -0.017474914 0.0014840985 -0.0030405594 -0.02799199 0.021757249 -0.019778127 0.035858404
0.011470996 0.028270045 0.024766976 -0.018310066 -0.0014553408 0.018304897 -0.007924512 -0.027846668
0.044794165 -0.027576806 0.043270264 0.02449645 -0.017159717 0.019683475 -0.009744139 -0.040682543
0.016958151 0.032924064 -0.0341131 0.017286766 0.038370594 0.05421306 -0.026709085 -0.03831859
-0.0025151346 0.016174082 -0.03766961 0.017614063 -0.013953288 0.008549479 0.022881225 0.0074647656
-0.003794495 0.010138396 0.026778331 -0.011243724 -0.040662657 -0.017894031 -0.021621728 -0.02391631
-0.0059550414 0.0046382826 0.022799443 -0.0010537312 0.037481774 0.015894402 0.016715338 0.032853417
0.00405668 -0.04554032 -0.015659798 0.03943235 -0.04189969 -0.012311218 0.0087983925 -0.03691252
-0.030102685 0.03715304 -0.014302775 -0.0018212604 0.0115469545 -0.03579326 0.03888479 -0.006440744
-0.0046694176 -0.020427238 0.033172872 -0.0031257344 0.026440794 0.042960417 -0.011366668 0.0150282625
0.0390782 -0.020979725 -0.02329873 0.033613287 -0.0082186945 -0.030524535 0.026248455 0.023654828
-0.0012064583 0.0068487762 -0.022271518 -0.028947525 0.006749285 0.008443647 -0.007401764 0.006953588
0.017680619 -0.011825439 0.039516333 0.024871927 0.03765085 -0.0075439503 0.030768763 -0.021361254
0.031072972 0.030012093 -0.03312834 -0.004720603 0.007996325 0.02463207 -0.002650233 0.005333288
-0.016054865 0.011120022 -0.007248973 -0.0012744217 -0.014828603 -0.024795482 0.010252191 -0.021920271
-0.0021936558 0.033072878 -0.0204424 -0.0116096465 -0.016980771 0.0056990893 -0.017545614 -0.029197225
0.0137745 -0.012290966 -0.003792529 -0.01331168 -0.03667382 0.038388025 -0.010736966 -0.027104534
0.034108825 -0.0051873345 -0.018555311 -0.04447422 0.022541624 -0.03071089 -0.010303592 -0.022110023
-0.0041908966 0.008037153 -0.014738925 0.02338282 -0.027436199 -0.03742951 0.016821843 -0.024144862
-0.021696147 -0.017208576 -0.011788747 0.0033992575 0.01673094 0.03691295 0.042441037 -0.025422534
0.000814237 0.0009875599 -0.02667817 -0.014884025 0.0054262057 0.01775126 -0.0024313722 -0.0035087296
-0.034276683 0.021740017 -0.019373344 -0.011641105 -0.026697833 0.010405771 -0.03256178 0.0047925394
-0.020866234 -0.010488523 -0.01431839 0.02435506 -0.020847106 -0.044295803 -0.027325984 -0.04923894
0.013835002 0.038972102 0.023282446 0.016836548 -0.03056021 0.040986154 0.01631398 0.014540884
-0.02361383 -0.017311076 0.022978747 -0.024919067 -0.020024057 -0.04114103 0.021307794 -0.019321145
-0.030419555 -0.020952443 0.021349942 -0.002783418 0.03840179 0.029977838 0.042595826 0.01766644
0.026830226 0.017906882 -0.020957412 0.012214298 0.0041654976 0.003190477 -0.004186658 0.0009066743

block.1.weight f4 [256]
00000000: 3f2f 7d3f 6005 803f f34b 803f 6fcd 7e3f
00000010: fac5 7e3f 8e0b 7e3f 79b4 803f e772 7e3f
00000020: 1653 7f3f 012d 7c3f fdcf 803f 37af 793f
00000030: 67de 7f3f 7e12 7b3f d61c 803f fbd7 7e3f
00000040: 3642 7f3f 5049 813f e86d 7c3f 6d23 7e3f
00000050: 31bf 7f3f 2c4b 7f3f fb33 803f 6cda 7d3f
00000060: f779 7d3f fdb9 7f3f 7b29 7f3f 351b 7c3f
00000070: 6ceb 7f3f 8f8e 7e3f 078b 803f edbd 7f3f
00000080: d38a 7c3f c80f 803f 6169 823f 9c6e 803f
00000090: 59b8 7c3f f82c 7e3f ef65 803f e8ff 7f3f
000000a0: cdf5 7f3f e354 7d3f d0bd 7e3f b156 813f
000000b0: c40a 7c3f c0b0 7e3f 4679 7f3f 4156 7f3f
000000c0: d20e 7c3f 3427 823f 01fe 7f3f 81d7 7e3f
000000d0: 5b8a 7d3f 8909 7e3f 71d9 823f 40d0 7c3f
000000e0: 3f7e 833f d5ab 803f a77e 7c3f 0aa0 803f
000000f0: c6c5 7d3f a8e5 7e3f 3739 803f fa85 803f
00000100: c431 7e3f f72c 803f 2458 803f 13b6 803f
00000110: ec7c 833f d311 803f cc2f 803f 31f6 813f
00000120: 1484 7d3f 52a6 7c3f 3b88 7e3f fe4d 823f
00000130: a7e0 7f3f 5b69 803f 2f02 803f a5b5 7e3f
00000140: 7953 7f3f 2d1e 7f3f 9f3a 803f 8412 803f
00000150: 5870 7d3f fe07 803f 100a 7e3f b3ca 813f
00000160: f2ad 7c3f c970 7e3f 79a7 7c3f 2b43 803f
00000170: 2ec0 813f b3a5 803f b50b 7e3f 74bd 7a3f
00000180: dc20 7e3f b7f2 813f a537 813f c8b0 7b3f
00000190: 1ae2 7d3f 6b5b 813f f92b 803f 08a8 7d3f
000001a0: 18e1 7d3f 5171 7f3f fd36 803f b221 813f
000001b0: a091 7f3f 46d8 7c3f a27f 813f d11a 7f3f
000001c0: 877d 7e3f 478d 7c3f b688 7e3f 86f4 823f
000001d0: 476a 7f3f 786b 813f 0d69 803f 2248 803f
000001e0: 01d1 803f f94a 7e3f 7a8e 7c3f 5e4d 803f
000001f0: f0f1 7e3f 0617 7f3f 59d2 7d3f bc60 7e3f
00000200: 3ff4 803f 441c 803f a5a9 7d3f 3595 813f
00000210: 6a44 7e3f 1450 803f 2bd4 7f3f 0e61 813f
00000220: 7e61 7f3f a24a 803f 4209 813f 98f8 803f
00000230: 1021 803f 311d 7f3f c2d8 803f 2c3f 813f
00000240: a53f 7f3f f65d 7f3f 806a 7f3f 43b0 7d3f
00000250: 5869 813f 7710 7b3f 2d61 7e3f 46b9 803f
00000260: ebdb 7f3f ec84 803f beb7 7d3f 4681 803f
00000270: e3bf 803f 7e9b 823f 83c1 7e3f 3cab 7f3f
00000280: 1efd 7b3f 5f54 823f d6e6 813f 7459 7a3f
00000290: 438b 803f 9b14 7d3f 7d47 7f3f 8e30 803f
000002a0: 21bf 7c3f d0fb 803f 9d4c 7e3f f37b 7e3f
000002b0: eef2 7f3f a234 813f 085f 803f 806a 7d3f
000002c0: 2972 813f 0c43 803f 5987 7f3f 039e 823f
000002d0: a527 803f abd8 813f 77d5 813f 763e 7f3f
000002e0: 83fb 803f 3335 813f b994 7b3f af25 803f
000002f0: f16d 813f ff25 803f 3fc6 813f a8c4 7b3f
00000300: 0daf 7f3f 5730 7b3f af5f 7f3f 293a 823f
00000310: 58ff 803f 6cb9 813f d650 7e3f 36a2 823f
00000320: 31c4 7f3f 8b61 813f 4e24 803f 8b27 803f
00000330: ea0c 7e3f 39f6 7e3f 68eb 7f3f b232 7f3f
00000340: b27d 7c3f d632 803f 4435 803f 0699 7c3f
00000350: eb02 7f3f 7dd9 7f3f 7141 7c3f c616 803f
00000360: 6dc1 7d3f 68f9 7d3f 9bfc 823f 92a5 803f
00000370: fe75 7b3f f826 823f 5086 7f3f 56d5 803f
00000380: 08c4 7d3f 82f0 803f 66c6 7f3f c3df 813f
00000390: cabe 7e3f 08ac 7f3f 5326 7f3f 9c7d 803f
000003a0: 8ad1 7d3f 25ba 7d3f 7f0a 7c3f f267 813f
000003b0: d897 803f 1956 813f 2552 823f 7f62 803f
000003c0: 4764 7c3f 95b2 803f 5a7d 7c3f 2871 7f3f
000003d0: 3f42 803f a8d0 813f 63c3 803f 50b1 833f
000003e0: 4d05 803f 5292 7f3f ffd8 7f3f 29ac 803f
000003f0: 60da 7d3f c6dd 7c3f 0521 813f 0485 7b3f
0.98900217 1.000164 1.0023178 0.99532217 0.9952084 0.9923638 1.0055076 0.9939408
0.99736154 0.9850617 1.0063473 0.9753298 0.99948734 0.9807509 1.00088 0.9954831
0.99710405 1.0100498 0.98605204 0.99272805 0.9990111 0.9972408 1.0015863 0.9916141
0.9901423 0.9989317 0.9967267 0.98479015 0.999686 0.9943628 1.0042428 0.9989918
0.9864933 1.0004816 1.0188409 1.0033755 0.9871879 0.99287367 1.0031108 0.99999857
0.9998444 0.9895765 0.9950838 1.0104581 0.9845393 0.9948845 0.99794424 0.9974099
0.98460114 1.0168214 0.99996954 0.9954758 0.9903924 0.992333 1.0222608 0.98755264
1.0272902 1.0052439 0.98630756 1.004884 0.99129903 0.9956918 1.001746 1.0040886
0.99294686 1.0013722 1.0026898 1.0055565 1.0272498 1.000544 1.0014586 1.0153257
0.9902966 0.98691285 0.9942662 1.0180051 0.9995217 1.0032152 1.0000666 0.9949592
0.99736744 0.9965542 1.001789 1.000565 0.9899955 1.0002439 0.99234104 1.0139984
0.9870292 0.99390846 0.98693043 1.0020498 1.0136774 1.0050567 0.99236614 0.9794533
0.9926889 1.0152196 1.0095106 0.9831662 0.9917313 1.0106024 1.0013419 0.9908452
0.9917159 0.9978228 1.0016781 1.0088408 0.9983158 0.9876751 1.0117075 0.99650294
0.9941029 0.9865307 0.99427354 1.0230873 0.9977154 1.0110922 1.0032059 1.0022013
1.0063783 0.9933315 0.986549 1.002361 0.9958792 0.99644506 0.9914909 0.99366355
1.0074538 1.0008626 0.9908698 1.0123659 0.9932314 1.0024438 0.9993312 1.0107744
0.99758136 1.0022776 1.008095 1.0075865 1.001009 0.9965392 1.0066149 1.0097404
0.9970649 0.9975275 0.9977188 0.9909708 1.0110273 0.98072 0.9936703 1.0056541
0.99944943 1.0040565 0.99108493 1.0039451 1.0058559 1.0203702 0.99514025 0.9987066
0.984331 1.0181998 1.014857 0.97792745 1.0042499 0.98859566 0.9971846 1.0014818
0.9872914 1.0076847 0.9933565 0.9940788 0.99980056 1.0094187 1.0029001 0.9899063
1.0112964 1.0020461 0.998159 1.0204471 1.0012099 1.0144247 1.0143269 0.9970468
1.0076755 1.009436 0.9827381 1.00115 1.0111676 1.0011595 1.0138625 0.9834695
0.9987648 0.98120636 0.99755377 1.0173999 1.0077925 1.0134711 0.99342096 1.0205753
0.9990874 1.0107893 1.0011079 1.0012068 0.99238455 0.99594456 0.99968576 0.9968673
0.98629296 1.0015514 1.0016255 0.98670995 0.9961383 0.99941236 0.98537356 1.000695
0.9912327 0.9920869 1.0233339 1.0050528 0.98226917 1.0168142 0.9981432 1.0065105
0.99127245 1.0073397 0.99912107 1.0146412 0.9950987 0.99871874 0.99667853 1.0038333
0.99147856 0.9911216 0.98453516 1.0109847 1.0046339 1.01044 1.0181319 1.0030059
0.9859051 1.0054499 0.9862877 0.9978204 1.0020217 1.0141802 1.0059627 1.0288486
1.0001618 0.9983264 0.99940485 1.0052539 0.9916134 0.987759 1.0088202 0.9824984

block.1.bias f4 [256]
00000000: 0dd9 8cbc fa8e a5bb e37a cf3b 813a 19bc
00000010: b870 403a e82d 17bc 75c0 fb3a 6f1d 21bb
00000020: 2711 f33a 9fb5 3bbc 54aa c03a 2e65 f4bb
00000030: eae1 163b 715f 1fbc b131 b73b 9f5d 9bbb
00000040: 7c15 e8ba e867 143c 2a26 9fbc c94f 57bb
00000050: 14a6 c8bb 63ea e93a dccb 143c 18a6 cbbb
00000060: 65e8 1cbc 45ed 573a 93b2 bdbb 58a6 8ebc
00000070: 0dd4 6c38 592f 20bb 7243 1e3c ae6f 8abb
00000080: 97ed 5ebc d8d9 b63a 0956 0d3c 0334 3a3b
00000090: 5298 9fbb 788b a1bb b4a6 1a3c eefb ab3a
000000a0: 90ab e9b9 7676 8fbb 2680 7ebb 56e6 483c
000000b0: ce89 53bc 91a7 343a d2a3 b439 fe5d 843a
000000c0: cf0b bdbb 2f27 943c 6179 763b 7337 53ba
000000d0: 66ea 49bb 720f 47bc 4641 723c b309 f9bb
000000e0: b687 9c3c bfa3 113c 4d9d 81bb e636 a33b
000000f0: e807 42bc 7d31 7aba d411 0fba 3f24 8d3b
00000100: a98f 93bc 09ba bc3b 1382 1c3c 083b 713b
00000110: 1dff 903b 257a 573b 8284 983b 7d15 853b
00000120: 65dd fabb 5a52 0ebc 9e75 00bc 5957 a43c
00000130: 7af7 993b 3235 903b 48dd aebb afb2 d43b
00000140: 1306 7bbb 0ecf 2fbc 98f3 83bb e003 243c
00000150: 48b0 50bc 8331 2a3a b513 c43b 5312 353c
00000160: b4fc 203c e0c5 233a d115 a2bb 9839 a03b
00000170: 886b f23b 9e61 a93a cb93 cebb 65e3 8bbc
00000180: 52e0 20bc 437c 673c 7f23 0c3c c3b0 6ebc
00000190: c07d 8bbb 9a91 5a3c 4da1 a6bb 7219 fabb
000001a0: b75f 73bb 8cca 35bc 494a 7f3b 2a70 203c
000001b0: 8bdb 9cbb cadf 20bc 4779 5b3c 5da8 6cbb
000001c0: 803f a9bb e288 a6bc 6adc 213a b21a a13c
000001d0: f377 a0bb 0348 613c 1885 f83b ad0b 703a
000001e0: d5fc 8f3b 53c8 91bb d4e3 74bc 1c21 e6b9
000001f0: 8da2 abbb 41e8 49bb e525 d7bb a207 04bc
00000200: 4ed6 a33b a680 023c 7657 5ebc 56c2 2b3c
00000210: bc63 6abc 5c5f 94ba 871c b5bb d9bf 023b
00000220: 6004 7f3a d931 afb9 db08 00bc 8e00 5e3a
00000230: 68b6 8eba 8254 e1bb c714 ca3b aa93 273c
00000240: 1b69 6dbb f44e 10bc 027b 5cbc c5eb f9bb
00000250: 2cf5 313c c94d 33bc 6c80 18bb 2d68 f43b
00000260: 6cb3 8a3a ac8e 8b3b 83e6 8fbc b384 6b3c
00000270: e279 c03a b64c a93c 497a d9ba a16d dc3b
00000280: 33ed 37bc d91e 123c 08f1 893b 9036 9dbb
00000290: 133a cd3b 2197 b5bb 8602 c8bb 09c4 cf3b
000002a0: 923c 81bc 2dfe 2a38 076f 2a3c 49c5 e7bb
000002b0: 0ac7 143c fce4 113c 6a82 a2bb 2827 81bc
000002c0: 9bd5 b5b8 b700 b63b a1f3 063c cbd5 503c
000002d0: 17c1 0bb9 dc6b 3f3c 30f7 35bc bcce 253a
000002e0: 0088 a13c b166 363b 392b 55bc 32b9 beb8
000002f0: c405 933c 5e7d 0ebb fc7a 5e3c 6ef2 a4bc
00000300: 9f9c 83ba cdf5 89bc 4fd8 a6ba b1ce 773c
00000310: d0ef 5e3c d38b 343c 64a3 b3ba 714c 9a3b
00000320: 439f 133c 993a ba3c f560 04b9 b124 3e3c
00000330: f670 14bc 4c76 573b 10ab 713a 0e33 f0bb
00000340: 7f26 22bc 8cec b23b a545 08bb e6ca 90bb
00000350: df34 b8bb 55c9 1e3b 5ded ceb9 4fae 70bb
00000360: 45fb 28bc 98a2 44bc 1394 bb3c af99 f2bb
00000370: 6118 9dbc 56c5 303c 9aa3 883b 4bc2 9c3b
00000380: 0c89 47bc 29ad 09bb c193 a9bb 48d2 ea3b
00000390: 968e 063a 1072 99bb f06f a53a 0b5a 92ba
000003a0: b830 e9bb d683 5abc 0e14 55bc dcd1 8e3b
000003b0: 47b1 853b b054 883c 78b7 293c f6d3 b13b
000003c0: 2219 1abb f30f 283b 7fae 9dbc 6756 f1bb
000003d0: 2052 a43b 757b 213c 0261 8abb 4f99 4b3c
000003e0: 0888 06bb fb5f abba ddf2 43ba 5bcb a83b
000003f0: 3cd7 2ebc e3d9 b6bb 2e51 29b9 c5e8 c2bc
-0.017193342 -0.0050524445 0.006331788 -0.009352327 0.0007341015 -0.0092272535 0.0019207137 -0.0024584194
0.001854454 -0.011456876 0.0014699199 -0.0074583506 0.002302284 -0.009727345 0.0055906405 -0.004741385
-0.0017706598 0.009057976 -0.019427378 -0.0032853952 -0.0061233137 0.0017846342 0.009081807 -0.0062148683
-0.009576892 0.0008236955 -0.00578911 -0.017413303 5.6464272e-05 -0.0024442284 0.009659635 -0.004224739
-0.0136064505 0.001395042 0.008626469 0.002841235 -0.004870453 -0.004929956 0.009439159 0.0013121346
-0.00044569047 -0.0043781353 -0.0038833707 0.012261948 -0.012911273 0.00068914244 0.0003445433 0.0010098813
-0.00576923 0.01808509 0.0037608969 -0.0008057274 -0.0030809878 -0.012149679 0.01478607 -0.007600033
0.01910768 0.008889138 -0.0039555193 0.0049809096 -0.011842705 -0.00095441175 -0.00054576737 0.0043072994
-0.018012838 0.005759482 0.0095524965 0.0036808867 0.004424943 0.00328792 0.004654468 0.0040613995
-0.007655787 -0.008686626 -0.007840542 0.020061182 0.004698691 0.0044008726 -0.0053364374 0.0064910273
-0.003830318 -0.010730518 -0.0040268414 0.0100106895 -0.012737341 0.0006492363 0.0059837946 0.011051732
0.009825874 0.0006247442 -0.0049464484 0.004889678 0.0073980726 0.0012922769 -0.0063042394 -0.017076204
-0.009819107 0.014128747 0.008553385 -0.01456851 -0.004256934 0.013340378 -0.0050851465 -0.007632428
-0.0037135908 -0.011095654 0.003895419 0.009792367 -0.0047869137 -0.0098189805 0.013395614 -0.0036111095
-0.0051650405 -0.020328943 0.0006174507 0.01966605 -0.0048971116 0.013750079 0.0075842254 0.0009157013
0.0043941536 -0.0044489293 -0.014946897 -0.00043893687 -0.0052378834 -0.00308086 -0.0065657967 -0.00805846
0.0049999123 0.0079652425 -0.013570657 0.010483345 -0.014306005 -0.0011319923 -0.0055270824 0.0019950776
0.000972813 -0.0003341574 -0.007814611 0.00084687106 -0.0010888102 -0.006876529 0.0061670276 0.010228077
-0.0036225978 -0.008807886 -0.013457062 -0.007626983 0.010861676 -0.010943838 -0.0023269905 0.007458708
0.0010582036 0.004258951 -0.017565971 0.0143749 0.0014684761 0.020666461 -0.001659223 0.006726936
-0.011225986 0.0089184875 0.0042096414 -0.004797764 0.0062630265 -0.0055416976 -0.0061038164 0.006340508
-0.015775952 4.0767878e-05 0.010402448 -0.007073079 0.009080658 0.008904692 -0.004959394 -0.015765741
-8.67054e-05 0.0055542844 0.008236797 0.012746285 -0.00013328005 0.0116834305 -0.011106297 0.00063250563
0.01971817 0.0027832205 -0.013010793 -9.094401e-05 0.017947085 -0.0021742205 0.013579126 -0.02013513
-0.0010041184 -0.01684084 -0.001272926 0.015124963 0.01360698 0.011019665 -0.001370531 0.0047088196
0.009010139 0.02273302 -0.0001262462 0.011605428 -0.009060135 0.0032876907 0.0009218911 -0.007330305
-0.0098968735 0.0054603275 -0.0020793465 -0.0044187186 -0.005621537 0.002422889 -0.0003946823 -0.003672499
-0.010313814 -0.012001656 0.022897756 -0.0074035744 -0.019176664 0.010789236 0.0041698935 0.0047839037
-0.012178671 -0.0021007753 -0.0051750843 0.0071661808 0.00051329413 -0.0046827868 0.0012621861 -0.0011165751
-0.0071164034 -0.013337096 -0.01300527 0.0043585133 0.004079971 0.016641945 0.010358684 0.005426879
-0.0023513515 0.0025644272 -0.019248245 -0.0073650363 0.005014673 0.009856095 -0.00422299 0.012426688
-0.0020527858 -0.0013074869 -0.0007474849 0.005151195 -0.010671433 -0.0055801733 -0.00016147338 -0.023792634

block.1.running_mean f4 [256]
00000000: 3c5e 763a 9d31 f5bc c5f8 8a3c 73f3 893c
00000010: 650d aaba 8f4d f83c e0e1 89bc 27c0 ddbc
00000020: a6e8 783d 3030 dbbb 8920 453d ba05 423d
00000030: 940a bd3c 8ce4 013d eb22 463d f1c2 613d
00000040: 2540 f4bb c256 96bd f135 4c3c cbaa 593d
00000050: cc0d 8abd 5dcd 803c a7e0 d53c f94e 99bc
00000060: ad8e 43bd 62cb 5a3d 559b a13c b5ff b13c
00000070: c1b4 8cbc fe1c ac39 72a7 9bbc baa3 0fbc
00000080: 2435 4c3c 592c 1d3d 5821 d2b7 0c16 633d
00000090: ced2 cfbc 6716 883d 55af 8cbd 7dc7 74bd
000000a0: f866 c43b 5c66 bcbb 11fd 2d3d 7fa0 18bc
000000b0: a460 13bd 5bb2 143d 5595 2dbd 0c77 643d
000000c0: 1393 7e3c 5515 bc3c 542d f5b8 1c95 05bc
000000d0: 8c45 1a3c c709 903c 2ef3 f5bb 0450 67bc
000000e0: 7093 313d aa97 c03b 98fc 483d 8a99 033d
000000f0: 5756 a0bc f43c 333d def0 f8bc 3010 e9bc
00000100: 6fb1 f13c 1b18 873b 111d c3bb d8e6 0a3c
00000110: 15c5 a53d a591 8e3d 3c92 46bc 5634 63bd
00000120: 05c1 083c 0d3f ae3c 71c4 22bd e88f ef3c
00000130: 655c dbbc ba03 00bc f72f a03c 4925 063d
00000140: 134c 943b 971e e63c f22e d03c 4eb7 2d3c
00000150: acb8 08bd 9e62 41bc 0b55 40bd f2b6 5abd
00000160: 16d9 073c c3c6 393d 50c1 623c 260c a53a
00000170: 1520 293d a99c 0d3d 2502 d93c 2aa2 7e3d
00000180: 387a 4b3c fe6c 1abd fdc7 c43c 3465 043d
00000190: 9600 acbc ed2e 25bc 3b41 813c cf36 debc
000001a0: c901 abbc cb46 2d3d ece1 6bbd 8a4c 983d
000001b0: bf95 e0bb 8383 91bc cd5d e33c 6f5d dabc
000001c0: a60e 8bbc ba5b 52bd 9225 893d b196 963b
000001d0: e01f 963a fe09 8f3d ac44 f63c f3b9 8ebc
000001e0: 93c3 4d3d 7ea8 5abc 2d3e b3bc 7c00 5d3d
000001f0: d4de 5439 3e7a 85bd 6e7f 8c3c 9eca c53c
00000200: e2ad 793d 046f 4fbc 5bd2 1e3c 6346 69bc
00000210: 6588 a13c 738d 07bb e32d 32bd 909a 32bc
00000220: 02fc 283d 4b24 80bd dfd6 173d 5e6c 003d
00000230: 7f80 9b3c 5754 f43b c3b0 d1ba 20ec b4bc
00000240: 056d d43c 0980 793d b644 d6bc eed6 ba3c
00000250: dc47 7b3c 32d8 c63c e692 0abd afa0 2dbb
00000260: e980 1bbd 1677 773c df2f 04bc db88 863c
00000270: b58c 3f3c 6456 48bc 2878 6e3c bc38 2dbc
00000280: c019 283d ed11 793d 8fe3 57bd 0f3a 153c
00000290: f0d5 f4bb 380f 6ebc a6f1 2fbd 5880 55bd
000002a0: e8f0 1f3c 3f3a c63c 0e1b 3ebc 5c7a b8bc
000002b0: 8451 95bc 1403 863d 0b0a 1e3c 93f4 1bbd
000002c0: d795 693d 32f7 ccbb e0f0 a6bb f9c4 d5bc
000002d0: afc2 41bb 5c53 34bc a91d ac3c 3303 103b
000002e0: 5fa4 ab3c 022b 3a3d 2ed3 c93b e4b6 253d
000002f0: abd5 0dbd 9d47 f3bc a6f8 363c 6cb6 76bd
00000300: 4ccb 95bc 844c 7ebd b568 0fbd 521c cd3a
00000310: 47d8 a23c ce3d 543d 5c59 663d 00c3 84bd
00000320: d3fb 713b 34f7 37bb 0358 42bd 1510 febc
00000330: 16d2 d73b 23dd 183c a483 f33c 2573 95bb
00000340: 653d 0cbd 85fb 643d 35c6 25bd 6cd1 23bd
00000350: 386e dbbc d24d c33a 96d7 80bb bfcf 363b
00000360: aae3 1dbc bd42 14bc 46fc 833c 74b9 243d
00000370: 8347 0cbd 92ac 45bd d71c bfbc 5c9f 05bd
00000380: c2fe c73c d5c5 2b3d 9284 69bc c5d0 9b3c
00000390: 5e79 61bd d7bc c33c 80ce ed3c 59e2 2d3b
000003a0: b17c 0ebc 6bf6 27bd 7250 c93c 1f48 2fbc
000003b0: d786 17bd d4f4 42bd cd5f e63c df1d 2f3c
000003c0: 0533 a7bc 21aa 33bb 21b0 8d3c 83ea cf3c
000003d0: 7a06 c83b 2f3c 0a3d 46b3 7a3d b1f1 6c3d
000003e0: 9acb 3c3d 850f 983c a7a2 0abb 35ff 973c
000003f0: a28d 8dbb f10d d33c 6ecf babc fc1a 0fbc
0.0009398197 -0.029930884 0.016964326 0.016839718 -0.0012973963 0.03031042 -0.016831338 -0.027069164
0.060768746 -0.006689094 0.04812673 0.047368743 0.023076333 0.0317121 0.048373144 0.05511755
-0.0074539357 -0.073407665 0.0124640325 0.053141396 -0.06740913 0.015722925 0.0261081 -0.018714415
-0.047743488 0.053416617 0.019727388 0.021728376 -0.017176034 0.00032827997 -0.019000743 -0.008767063
0.012463842 0.03837237 -2.5049478e-05 0.055440947 -0.025369074 0.06644898 -0.068693794 -0.05976056
0.00599372 -0.005749507 0.04247767 -0.009315609 -0.035980836 0.036302906 -0.042378742 0.055777594
0.015537995 0.02295939 -0.000116909534 -0.008153226 0.009415995 0.017582787 -0.007505796 -0.014118198
0.043353498 0.0058774548 0.049069017 0.032128848 -0.01957242 0.0437593 -0.030388292 -0.028450102
0.029503552 0.0041227466 -0.0059543927 0.008477889 0.08094231 0.06961373 -0.012119826 -0.055469833
0.008346801 0.0212703 -0.039738122 0.029243425 -0.026777456 -0.0078133885 0.019554121 0.0327504
0.0045256703 0.028090758 0.02541301 0.010602785 -0.03337924 -0.011803297 -0.046956103 -0.053397126
0.008291503 0.04535557 0.013840035 0.0012592121 0.04129036 0.03457323 0.02649028 0.06216637
0.012419276 -0.0377016 0.024021143 0.032323077 -0.020996373 -0.010081989 0.015778175 -0.027125744
-0.020874875 0.04230384 -0.057588503 0.07436474 -0.0068537886 -0.017762905 0.027754689 -0.02665588
-0.016974758 -0.05135701 0.06696619 0.0045956005 0.0011453591 0.06984328 0.030062042 -0.017422652
0.050235342 -0.013345836 -0.021880234 0.05395554 0.00020300905 -0.065174565 0.017150607 0.024144467
0.060956843 -0.0126607455 0.009693707 -0.014237973 0.019718358 -0.0020683676 -0.043500792 -0.010901108
0.04125596 -0.06256922 0.03707015 0.031353347 0.01898217 0.007456343 -0.0015998114 -0.02208525
0.02593089 0.06091312 -0.02615581 0.022807565 0.015336957 0.024273012 -0.0338315 -0.002649348
-0.037964735 0.015104076 -0.008068054 0.01642268 0.011691262 -0.012227628 0.014555015 -0.010572609
0.041040182 0.06080811 -0.05270725 0.0091080805 -0.0074717924 -0.014529996 -0.042955063 -0.05212435
0.009762026 0.024197696 -0.01160313 -0.022519283 -0.018227346 0.06543556 0.009645949 -0.03807504
0.057027664 -0.006255054 -0.0050946325 -0.0260949 -0.0029565503 -0.011006203 0.021010237 0.0021974563
0.020952402 0.04545117 0.006159208 0.04045762 -0.034627598 -0.029697234 0.011167681 -0.060232565
-0.018285416 -0.06208469 -0.035011966 0.0015648699 0.01987852 0.051816754 0.056237563 -0.06482506
0.003692378 -0.0028070929 -0.047447216 -0.031013528 0.0065863235 0.009330067 0.029725857 -0.0045608454
-0.034238238 0.05590393 -0.040472228 -0.039994642 -0.026785955 0.0014900512 -0.00393195 0.0027894822
-0.009636799 -0.009049115 0.016111504 0.040215924 -0.034247886 -0.04826028 -0.023329182 -0.03262268
0.02441347 0.041936714 -0.014252799 0.019020448 -0.055047385 0.023893757 0.029029131 0.0026532619
-0.008696721 -0.041006487 0.024574492 -0.010698347 -0.036993828 -0.047596768 0.028121853 0.010688274
-0.02041007 -0.0027414637 0.017295899 0.025380379 0.0061042877 0.0337488 0.061206125 0.057847682
0.046092607 0.018562088 -0.0021154077 0.01855431 -0.0043198625 0.025763484 -0.022803988 -0.008734461

block.1.running_var f4 [256]
00000000: 2518 c73a 393b c93a 7a29 ce3a f8b6 d83a
00000010: 11da d03a 500c bf3a 1412 d03a f090 d03a
00000020: 5a98 e73a 59a8 d43a 578e d73a 5b79 cf3a
00000030: 1e17 d33a ec10 be3a 807b df3a 8388 c73a
00000040: d174 c13a 4b7a cf3a 5121 cf3a 6a4d c73a
00000050: 3413 bf3a b479 ca3a 7557 d63a 9370 df3a
00000060: 8652 d13a 0f4f ce3a 4a1e f23a 46c1 d03a
00000070: ff8e c63a 690c ca3a 5956 d03a 16c3 c23a
00000080: 9a2b e43a d06f ca3a 8fb5 0d3b c291 cd3a
00000090: d024 d63a 35c2 fa3a 63e1 ce3a 1349 cd3a
000000a0: e743 d43a e5de c93a f7fd 083b 99ba ea3a
000000b0: 0a50 ea3a 7b51 c83a 408a c23a 9b0d d23a
000000c0: bd49 cb3a 65ca d43a da29 ee3a 5e96 c13a
000000d0: e937 ca3a d95a da3a 762c e23a 9ced c73a
000000e0: ff6d 103b 9f02 dc3a 899e c43a 7906 bc3a
000000f0: 0338 cc3a 31a9 c33a bf0e d03a 4f87 e23a
00000100: 5035 d03a fe1e c93a c078 d23a e21f db3a
00000110: 02df dc3a eafd d43a 4661 dc3a 92c7 c13a
00000120: 4365 c93a 4cf6 c63a a250 d73a f2f7 033b
00000130: 150f d23a c13c cc3a c6e2 d93a 70e7 e23a
00000140: 0284 e43a 7f67 063b d948 f53a 0f52 f33a
00000150: 5ceb ec3a 04a1 cb3a ae00 e13a 7934 d33a
00000160: 5274 d53a ec27 e63a c735 c73a 4ac1 c83a
00000170: e60b be3a c0fc 103b 6369 d83a 3871 ca3a
00000180: f05d cc3a cb4f d43a b547 fb3a 5e0d ca3a
00000190: aadf e33a 5442 f73a 846a f43a 033b f33a
000001a0: f162 dd3a 5b2b d43a 4ed1 c13a 8455 f53a
000001b0: f0e3 cb3a 8ed6 e33a b188 d73a 1d8f d53a
000001c0: 5ace cd3a 47a4 c83a 6919 d23a bfec e13a
000001d0: b41a c43a 5627 ce3a cfcc d03a 9fac ec3a
000001e0: 612d ca3a 6e5e f33a a777 d93a 899e e13a
000001f0: 138e 003b a40f dd3a 57a0 c93a 409f cd3a
00000200: 2cf5 ff3a 586e da3a 14b1 ca3a 0f79 003b
00000210: 4f96 e23a 4a22 d83a ce80 e93a 1e1b df3a
00000220: 9743 ed3a 4b36 d03a 004d ff3a 3bb0 e73a
00000230: 0144 ba3a 5fab da3a 8e69 ce3a 8936 e73a
00000240: 8fc2 da3a 993a bf3a aa87 dd3a 0e3e cb3a
00000250: a7a0 d03a 3a14 d33a 765c cd3a 374f db3a
00000260: 3d8c cb3a 6bf9 c33a 3e7b c63a 779c da3a
00000270: 4573 f63a b53c 013b 4f77 d03a a437 d43a
00000280: 0d20 e03a 3b08 ef3a 9363 c73a 3ad4 cf3a
00000290: 8555 eb3a 08fd d93a 1a10 c33a 29e2 d83a
000002a0: afde db3a 054a cd3a 7d0e ca3a 1086 d13a
000002b0: 2cc7 083b 7c09 db3a 51d4 d33a 22b7 be3a
000002c0: 7988 e93a 18c6 e43a 5f0c f03a 2ed8 f03a
000002d0: ccf9 e93a 7b11 cc3a 6a02 e83a f161 d03a
000002e0: f960 e23a fc4f ef3a f0e9 e43a 9e1a c83a
000002f0: 32bf 023b 6fa2 d83a aba2 cf3a 8fa0 dc3a
00000300: 52f3 bd3a 3ffe c63a 3f24 cf3a 9d41 c83a
00000310: 7fd0 cc3a 884a 0e3b 90ae c63a 02e3 d83a
00000320: 89e7 c13a b1a1 dc3a 3ae3 d73a f211 de3a
00000330: 29a1 d73a 3928 f23a 8e98 d33a ad96 bb3a
00000340: 16cd c53a ce21 d43a e74b bf3a c962 c33a
00000350: c0f3 bf3a b23e ca3a ffeb cc3a 39b4 c73a
00000360: 07ac bb3a bc09 e93a 5630 f93a e67b d23a
00000370: 6a30 c13a 4bd9 c83a 32e8 ea3a 224f c43a
00000380: 9842 df3a 174e ca3a d6c8 c93a 0d09 cb3a
00000390: e36e cb3a 2eb5 d03a dd0e da3a 0afc da3a
000003a0: 1d14 c23a b61e c53a 5d38 e03a 5c4d 0a3b
000003b0: d89d c23a b19a 013b a357 fe3a 42c7 fe3a
000003c0: 95de d13a 8993 d23a 95bb c23a e2d0 da3a
000003d0: 8b21 bf3a 9b55 f03a e8a8 c93a aaee fd3a
000003e0: 6d17 be3a b4c6 c53a 6867 d53a 818d d43a
000003f0: c067 c63a f7a6 cb3a ae70 cd3a 80ab cf3a
0.0015189691 0.0015352733 0.0015728914 0.0016534021 0.001593413 0.0014575813 0.0015874528 0.0015912335
0.0017669306 0.0016224488 0.0016445619 0.0015829013 0.0016104912 0.0014500893 0.0017050356 0.0015223179
0.0014759545 0.0015829293 0.0015802776 0.0015205566 0.0014577867 0.0015447647 0.0016352969 0.00170471
0.0015970028 0.0015740114 0.0018472162 0.0015926741 0.0015148817 0.0015415075 0.0015894874 0.0014859166
0.0017408014 0.00154447 0.002162311 0.0015683698 0.0016337875 0.0019131365 0.0015783723 0.0015662037
0.0016194553 0.0015401511 0.0020903328 0.0017908394 0.0017876637 0.0015283072 0.0014842227 0.0016025783
0.0015509647 0.0016234635 0.0018170432 0.0014769544 0.001542804 0.0016659155 0.0017255682 0.0015253308
0.002203822 0.0016785449 0.001500086 0.0014345191 0.0015580658 0.0014927742 0.0015873535 0.0017282757
0.0015885029 0.0015344319 0.0016057715 0.0016717876 0.001685113 0.0016249989 0.0016813658 0.0014784208
0.0015365261 0.0015179603 0.0016427229 0.00201368 0.0016026223 0.0015582071 0.001662337 0.0017311405
0.0017434361 0.0020508466 0.0018713727 0.0018563884 0.0018075514 0.0015535657 0.001716634 0.001611366
0.0016285277 0.0017559505 0.0015198522 0.0015316394 0.0014499396 0.0022123307 0.00165109 0.0015445119
0.001559196 0.0016198097 0.0019171151 0.0015415361 0.0017385383 0.0018864372 0.0018647467 0.0018557016
0.0016890449 0.0016187237 0.0014787109 0.0018717502 0.0015555602 0.0017382668 0.0016443935 0.0016293261
0.0015701756 0.0015307748 0.0016029301 0.0017236694 0.0014961571 0.0015728276 0.0015930178 0.0018056816
0.0015424901 0.0018567571 0.0016591445 0.0017213385 0.0019615933 0.0016865623 0.0015382868 0.0015687719
0.0019528023 0.0016664965 0.001546415 0.0019603407 0.0017287227 0.0016489711 0.0017814876 0.0017021631
0.0018101808 0.0015885321 0.0019477904 0.0017676422 0.001421094 0.0016683153 0.001574801 0.0017640154
0.0016690063 0.0014589607 0.0016901393 0.0015506165 0.0015917019 0.001610405 0.0015667814 0.0016731982
0.0015529465 0.0014951652 0.001514293 0.001667871 0.0018802664 0.0019720022 0.0015904697 0.0016190899
0.0017099396 0.0018236706 0.001521217 0.0015856095 0.0017954564 0.0016631195 0.0014882118 0.0016546893
0.0016774739 0.0015662318 0.0015415695 0.0015985388 0.0020870669 0.0016711201 0.0016161298 0.0014550427
0.0017817161 0.0017454056 0.0018314234 0.0018374973 0.0017850935 0.0015569174 0.0017700915 0.001589833
0.0017271332 0.001825809 0.0017464738 0.0015266722 0.0019950387 0.0016527901 0.0015841326 0.0016832518
0.0014492071 0.0015181972 0.0015803649 0.0015278343 0.0015626102 0.0021711905 0.0015158225 0.0016547146
0.0014793734 0.0016832856 0.0016470917 0.0016942604 0.0016451228 0.0018475122 0.0016143487 0.0014311873
0.0015091028 0.0016184391 0.0014594764 0.001490676 0.0014644787 0.0015430062 0.0015634297 0.0015236206
0.0014318236 0.001777939 0.0019011598 0.0016058653 0.001473916 0.0015323547 0.0017921983 0.0014977197
0.0017033396 0.001543465 0.0015394937 0.0015490368 0.0015520718 0.0015923136 0.001663651 0.0016707194
0.001480702 0.001503906 0.0017106641 0.0021103239 0.0014848066 0.001977604 0.001940478 0.0019438046
0.0016011769 0.0016065697 0.0014856929 0.0016694332 0.001458214 0.0018336059 0.0015385421 0.0019373496
0.0014502831 0.0015089125 0.0016281428 0.0016216488 0.0015137121 0.001553743 0.001567384 0.0015843958

block.4.weight f4 [128, 256]
00000000: b268 30bd e4e5 543d eeaf 8d3d c272 e03b
00000010: 758e 7fbb a1a8 043d 193e c9bc 54db 73bd
00000020: 30f0 6b3d b057 1fbd 793b 033d 0120 373d
00000030: 1e7a 813d ad0c 0cbd 6319 5ebd f43f 27bd
00000040: 2733 653c 0a24 ea3c a60c 19bd 6591 38bb
00000050: 1c5b c73c a915 9abc a61e 263c b455 9fbb
00000060: e3ef 853b 8cee 9abd 9d09 63bd 4278 e6bc
00000070: 96ae cb3c 9d64 4d3d 00bc 0a3c c91c b9bc
00000080: 8024 e73c d339 1ebd 9bd8 05bc 6afd 55bd
00000090: 437a ba3c d4b4 113c 8f0f d83c c93b 4fbd
000000a0: fb54 29bc f856 56bc 4ffe 85bd 7f58 8a3d
000000b0: 065b 783d caf8 14bb 9851 d1bc 7ae9 f4bc
000000c0: 5ed3 f63c 99d4 a33d 4890 b5bc bb31 693d
000000d0: 324c 2bbd eea9 853d 031c 9c3d e7f7 2b3c
000000e0: e886 2bbd 9e2a cc3c 4b6f 4abd 8539 7dbb
000000f0: 3bbc 373d ec76 583d 6313 873d 2891 50bd
00000100: 1f65 b1bc 59a6 38bc 795c 313d 8180 123d
00000110: 7cf0 ef3c dc36 3bbc 71da 723d beee 94bc
00000120: 4642 6dbb c617 ecbc f017 953b de41 d6bb
00000130: 8315 3cbc fdcf 72bb c9c1 3f3d 1282 4b3d
00000140: ae54 2bbd 03e0 413d 7790 94bc 494b 11bd
00000150: 5259 abbc 7335 21bc 84fe 5cbd 2da2 08bd
00000160: 1fdc 903c 68d0 193d 3ac4 d53b 069c 69bb
00000170: 33b2 093d 7373 703c aba2 97ba 749d f8bc
00000180: 8188 b3bc c153 363c b094 34bc bc3b d2bc
00000190: d6f4 32bc 5276 333d cc6f 63bd e906 803d
000001a0: a677 223d 9753 74bd 7019 213d 29a9 f93b
000001b0: ee82 82bc 645e f2bb 0d71 653d 596f ce3b
000001c0: 23bb 8cbd 7dda 753c f6ba 53bd 10e7 2c3c
000001d0: ed57 5abc 43b4 c8bc cd0e 15bd 3930 6a3d
000001e0: 06a1 8abc 2e1c 793d 8475 72bd f048 79bd
000001f0: 826c cb3c 2186 b53b 15cc 263c f0ca bbba
00000200: 3498 2cbd 9d43 e03c 35a6 9bbc f12f 1b3c
00000210: 9b00 5bbd 3bbf 7f3d f0fb 3abd 93f0 62bb
00000220: 702c 10bc eb69 8c3c ff23 cbbc a18e ccbc
00000230: 7818 f1bc 23c6 0abd 5600 86bc 4cab 033d
00000240: 8119 d8bc 7a5a 0ebd fad7 513d 65bf dfbc
00000250: a912 38bc 7f11 97bb 1742 573d da2e 9d3b
00000260: bc59 43bc e0aa 14bd b003 63bd 1dbc 87bd
00000270: 314a 433d 26c1 fabc 5287 cbbc 35b0 543d
00000280: b5fe 7cbd 4652 fc3c 23c6 1e3d 4c7b 7b3d
00000290: 934b 56bd f039 de3c 5bbc 903c bb42 3cbd
000002a0: 00f2 6dbc 23df 223b a874 0dbd cf56 463c
000002b0: a82b 52bd 45d7 54bc fc41 83bb 57cf 58bc
000002c0: 2d26 7dbd e973 923c b72e 5abd 6e6f 7a3c
000002d0: a9e8 6c3d c0ec 313d 2417 32bd daa3 edbc
000002e0: bb35 1ebd f269 55bd 0bfa 603d 18c7 183d
000002f0: 0809 21bc 4077 24bd 46f4 3cbd e69a ec3c
00000300: c34c 30bd 2d5d 0ebd beca 303d f70b f4ba
00000310: 1ae4 6bbc 2394 103a c49f 4dbd 21c2 f43c
00000320: 83fe 103d 16de 9abc 23bd 4c3c bb8c 63bd
00000330: 276f 6c3d 0c88 a53c 8a7a 59bd 9435 723c
00000340: 1c81 87bd 2ddc 193d 4575 63bc 8b63 afbc
00000350: c527 8139 45e1 9f3c a0c4 723d 09b9 7ebd
00000360: 846d 883c b18a e53c 0bbd 4cbd 3f6f 543d
00000370: 203b 1a3d c10c 11bd 6417 f5bc e00c 563d
00000380: d945 2c3c 228d 86bd df1b 073d 783d 2cbb
00000390: 0878 3cbd 10fd 4fbd fd7c 4abc 89c9 50bc
000003a0: 8518 3d3d 6265 2ebc 7bc6 58bd bcfa 81bc
000003b0: c9d3 a7bc 4761 093c c909 3bba 364f 2dbd
000003c0: 1092 0abc abdf 2b3d 5e54 e63b cac6 b73c
000003d0: 9637 a9bc c37f 003d 9415 5c3d fd1d 35bd
000003e0: 95f2 1c3d 7390 033d 363d 363d ad5a 24bd
000003f0: 78b8 283d 5ec2 55bd 68b0 f5bc efe2 113d
-0.043068595 0.051977053 0.069183215 0.0068496177 -0.0038994823 0.03238738 -0.024565743 -0.05953534
0.057602108 -0.038901985 0.03203914 0.044708256 0.0632212 -0.034191776 -0.05422343 -0.040832475
0.013989246 0.028581638 -0.037365578 -0.0028162834 0.024335437 -0.018809156 0.010139143 -0.0048625115
0.0040874346 -0.075650305 -0.05542909 -0.028133515 0.024863522 0.05014478 0.008467674 -0.022596734
0.028215647 -0.038629364 -0.008169319 -0.052243628 0.022763377 0.00889321 0.026374606 -0.050594125
-0.010335202 -0.013082258 -0.06542646 0.067551605 0.06063368 -0.0022731298 -0.025551602 -0.029896487
0.030130085 0.07999534 -0.022163525 0.056932192 -0.041820712 0.06526552 0.0762253 0.010496116
-0.041876704 0.024922665 -0.049422543 -0.003863902 0.044857245 0.052847788 0.065954946 -0.05091968
-0.021654664 -0.011270129 0.04330108 0.035767082 0.029289477 -0.011426654 0.059290353 -0.018180247
-0.0036202832 -0.02881993 0.0045499727 -0.0065386137 -0.011479738 -0.003705024 0.046815667 0.04968459
-0.041828804 0.047332775 -0.018135292 -0.03547219 -0.020916615 -0.009839403 -0.053953663 -0.033357788
0.017683087 0.037552267 0.006523636 -0.0035645976 0.03361721 0.014675963 -0.0011568865 -0.030348517
-0.021915676 0.011128367 -0.011021778 -0.02566325 -0.010922631 0.04381401 -0.05552654 0.06251318
0.039664887 -0.05965003 0.0393309 0.0076190424 -0.015931573 -0.007396506 0.056016017 0.006299895
-0.06871631 0.015005705 -0.05169197 0.0105531365 -0.013326627 -0.024500018 -0.03639107 0.057174895
-0.016922485 0.06081789 -0.059194103 -0.060860574 0.024832014 0.005539671 0.010180493 -0.0014327448
-0.04213734 0.02737599 -0.019000152 0.009471879 -0.053467374 0.06243823 -0.045650423 -0.0034628257
-0.008799657 0.01714035 -0.024797438 -0.024970355 -0.029430613 -0.033880364 -0.016357582 0.032145783
-0.026379349 -0.034754254 0.051231362 -0.027312944 -0.011234918 -0.00461024 0.052553263 0.004796845
-0.01192325 -0.03629577 -0.05542344 -0.06627677 0.047678176 -0.030609678 -0.0248448 0.051925857
-0.061766345 0.03080095 0.038763177 0.061396882 -0.052318167 0.027127236 0.01766794 -0.045962077
-0.014523029 0.0024852238 -0.03453508 0.012105658 -0.051311165 -0.012990777 -0.0040056687 -0.013233027
-0.061803985 0.017877536 -0.053267207 0.015285356 0.05783907 0.043438673 -0.0434791 -0.029008795
-0.03862546 -0.05210299 0.05492596 0.037299246 -0.009828813 -0.04015279 -0.046131395 0.028882455
-0.043041956 -0.034756828 0.0431621 -0.0018619288 -0.014397645 0.0005515238 -0.050201192 0.029877724
0.03539897 -0.018904727 0.012496266 -0.055554133 0.05772319 0.020206474 -0.053095378 0.014783282
-0.066164225 0.03756349 -0.01388294 -0.02140977 0.00024634428 0.019516597 0.059269547 -0.062188182
0.016653784 0.028020235 -0.049984973 0.051863905 0.037654042 -0.035412554 -0.02991838 0.052258372
0.0105147 -0.06569888 0.032985564 -0.0026281755 -0.04601291 -0.05077845 -0.012358901 -0.012743362
0.04616596 -0.010644289 -0.05292366 -0.01586663 -0.02048673 0.008385009 -0.0007134942 -0.04231187
-0.008457676 0.041961353 0.0070291003 0.022433657 -0.020656388 0.031371843 0.053731516 -0.044218052
0.03831728 0.03212018 0.04449197 -0.040125538 0.041191548 -0.052187316 -0.029991344 0.03561681

block.4.bias f4 [128]
00000000: df4f 0b3d f8bd 73bd fcf3 2dbd e663 073d
00000010: 679e e83c 086e e63c d6ca 7c3d fdfa 503c
00000020: a4e2 47bd 34c1 21bd b3de 81bc ead6 b83a
00000030: 10b9 34bd ee1e 67bd 74d6 f8bc 2863 d3bc
00000040: 1ee1 793d 7d74 b53c ee63 c13c 321f 60bd
00000050: 38eb 0f3a 9032 4b3d f0bb 3f3d 2045 883c
00000060: a3e1 a8bc bb2d 1abb da8a 6ebd d471 bcbc
00000070: c121 1e3d efe3 333d 1e0e b6bc d247 69bd
00000080: 5355 c53c 80a2 40bd 9634 2d3d 24f7 4d3d
00000090: 1e62 babc 2ba2 833c 1179 0abc 9401 cbbc
000000a0: d3e8 7abd 3259 f6bc ebfe 94bc 3bfc 363d
000000b0: 5186 67bc bc3c c83a a0b4 373c a298 953c
000000c0: 688c 0e3c ec33 e63c 6060 843c 5676 32bd
000000d0: 5b48 033b 2010 92bb 4f0d 6a3d d224 be3b
000000e0: 7a59 0ebd 1a53 b5bc 5e0c 75bd b0ea f4bc
000000f0: 9d1d 693d 23a5 25bd 8c3c db3a 3962 2c3d
00000100: 92ee 513c 127e 3bbd db0e 803d 63a9 f93c
00000110: dac8 10bd 5a0e 60bd 0e39 dfbb f03c 17bc
00000120: cc42 9d3a a42f 39bd 4710 fe3c 2277 23bd
00000130: 87b0 2b3d ad1d f93c d239 b33c c130 71bd
00000140: 8fba 9d3c 924c 093c ac86 5ebd fa6e 31bd
00000150: 7a25 6c3b b0b1 203d ed17 783c 8922 d5bc
00000160: 532e 15bd b926 01bd 8298 7fbd a573 203d
00000170: fed0 cd3b 6940 bc3b b89f 8abc 9281 51bd
00000180: cb88 32bc 6ffa 6ebd 4ddd af3b 838e cdbc
00000190: 3148 1a3c d1f4 123d 65ab e0bb 0226 7dbd
000001a0: 4dff ed3c de07 97bc 4f07 2e3d 7aa7 5fbc
000001b0: efc8 563d f533 15bd 5b8a 133d aede 81bb
000001c0: 8307 72bd 9d43 0ebd 1f1c 3a3c 0952 21bd
000001d0: 4008 df3c 0133 7bbc 5ef4 d5bc 9f9a 43bb
000001e0: cf0d 48bd cb3c d83c 0580 6a3c 5528 45bd
000001f0: bf01 05bd 5ace 173d 1c81 193c fbe7 2ebd
0.034011718 -0.05950734 -0.04246901 0.033054255 0.028395845 0.028128639 0.061716877 0.012755153
-0.048800126 -0.039490893 -0.015853262 0.0014102135 -0.0441218 -0.05642598 -0.030375697 -0.025804117
0.061005704 0.022150273 0.02360722 -0.05471725 0.00054900674 0.049608767 0.04681009 0.016634524
-0.020615404 -0.0023525793 -0.058237888 -0.023003496 0.03860641 0.043918546 -0.022223528 -0.05695326
0.024088537 -0.047029972 0.042286478 0.05028452 -0.022751864 0.016068539 -0.008451716 -0.024781026
-0.061257195 -0.030071829 -0.01818796 0.04467414 -0.014131145 0.0015276889 0.011212498 0.018261258
0.008700468 0.02810093 0.016159236 -0.043569885 0.002003214 -0.0044574887 0.0571416 0.005802729
-0.0347533 -0.022134352 -0.059826247 -0.029897064 0.056913007 -0.04044069 0.0016726418 0.04208586
0.012813227 -0.045774527 0.062528335 0.030476278 -0.035347797 -0.054701187 -0.0068122214 -0.009230837
0.0011998056 -0.04521145 0.031013621 -0.039908536 0.041916396 0.030409658 0.021878157 -0.058884386
0.019253997 0.008380072 -0.05432765 -0.043318726 0.003603308 0.039231956 0.015142423 -0.026017444
-0.03642113 -0.03153107 -0.062401302 0.039172787 0.0062810173 0.005744983 -0.016921863 -0.05114896
-0.010896872 -0.0583443 0.0053669573 -0.025092369 0.009416626 0.035878006 -0.0068563693 -0.061803825
0.029052401 -0.018436369 0.04248744 -0.013650769 0.05243772 -0.036426503 0.036020618 -0.003963313
-0.059089195 -0.03473245 0.011359244 -0.039384875 0.027225614 -0.0153319845 -0.0261175 -0.00298468
-0.048841294 0.026396176 0.014312749 -0.048134167 -0.03247237 0.037062027 0.009369161 -0.042701703
