model/des_w2_rc70.pth (torch, 739487 bytes, 19 tensors)

block.0.weight f4 [256, 512]
0.08683636 -0.08802583 0.05239322 -0.0026526055 -0.02422021 0.029753156 0.09371796 -0.027413178
0.0016234397 -0.06275413 0.04039459 0.058830686 -0.027881084 0.0058405404 0.0889695 0.0046751075
-0.07977979 -0.0021812527 0.024894428 0.08999399 -0.05886292 -0.028316056 -0.059702672 0.0072318134
-0.008617613 -0.04324143 -0.03635165 0.048932504 -0.09301118 -0.09688677 0.07914968 0.0017497439
-0.06331663 -0.036980078 -0.019957166 -0.07246493 0.010391195 0.07642914 0.09517586 0.022068337
-0.0075158416 0.055796307 -0.055898834 0.11594645 0.019330822 0.013863421 0.040810842 0.037749175
0.004204144 -0.08889285 -0.00031667322 0.044564478 0.016082762 0.037440084 0.039960437 0.03382581
0.038800076 -0.0028952905 -0.059330884 0.024789024 0.054129735 -0.028167589 0.038205463 0.04697067
-0.013647589 0.03279064 0.10392652 -0.02158791 0.08875333 -0.0064270278 -0.028490927 0.050000254
0.015700318 0.01848845 -0.024078224 -0.032401487 -0.00075844355 -0.008345927 -0.044885416 -0.015946047
0.00911824 0.010812658 0.025145266 -0.07594937 0.029905433 -0.031071102 0.016904885 0.005747233
-0.004912825 0.03534308 -0.042597134 -0.027223261 0.06415836 0.0034888897 -0.07354734 -0.032821532
0.0109833535 0.017630449 0.00923414 0.070071444 -0.01212929 -0.03532141 -0.051411625 -0.104930274
-0.032825965 0.02490654 0.041908544 -0.05035 -0.07108184 0.03908691 0.009301091 0.023785714
0.094128214 0.021161746 -0.025290577 0.04207316 0.041353904 -0.15981619 0.017946582 0.047058314
-0.06790928 0.061468843 0.06451004 -0.04024584 0.09100369 0.04714991 0.015383421 0.026379522
0.07863806 0.058577478 0.044534136 -0.03819614 -0.0850744 0.039825875 0.024458934 -0.042193957
0.012577518 -0.072581545 -0.03595074 -0.111652456 -0.0035261877 -0.08587496 0.053305417 -0.046950307
0.04093323 -0.0022578584 0.08749084 -0.0082962895 0.006358459 0.035816573 0.009729634 0.041875947
0.013182223 -0.08517158 -0.06597896 0.004027551 0.10041442 -0.017762726 -0.045296267 -0.111089185
0.022605862 -0.004660049 -0.045167685 -0.10645329 0.015092997 0.041282825 -0.06190449 0.016569717
0.005963773 -0.08815044 0.08861108 0.08134751 0.009510595 -0.06840244 -0.012447296 0.023892678
-0.010299668 -0.07317653 0.04861213 0.010684419 -0.065760076 0.065283 0.010581729 -0.069335036
-0.015535172 -0.05757464 -0.06557391 -0.09252292 -0.11303648 0.051676195 0.015853113 -0.07174781
-0.02863919 -0.0056508696 -0.044886373 0.07593479 0.0073840586 -0.07144634 -0.008748363 0.0974091
-0.15722217 0.08523703 0.047960453 0.025454307 0.04396634 -0.010362168 -0.12994513 -0.03804384
-0.02468062 -0.011447996 0.016103055 -0.019776398 0.0024361287 -0.041037574 -0.03729291 -0.039531447
-0.01726083 0.038980763 0.057140496 -0.048693374 -0.059117828 -0.10012165 0.0005301693 0.04561752
0.029053966 0.038421154 0.021511694 0.011473621 -0.032239012 -0.041121658 0.01713345 -0.050826326
0.032237608 0.045412246 -0.02938825 -0.06891252 -0.03167899 0.03872965 0.072358236 0.024635741
-0.020070184 0.021564892 -0.011965152 0.041951906 0.03764119 0.08292958 0.08274841 0.043733336
-0.01794762 -0.016076073 -0.0029458317 0.12856215 -0.07996268 -0.13289717 -0.010905355 0.18485211
00000000: 43d7 b13d e346 b4bd 469a 563d 56d7 2dbb
00000010: 7669 c6bc e4bc f33c 34ef bf3d 9a91 e0bc
00000020: 99c9 d43a 3d85 80bd cc74 253d 72f8 703d
00000030: df66 e4bc 0162 bf3b a435 b63d a531 993b
00000040: 9663 a3bd 59f3 0ebb 66ef cb3c c54e b83d
00000050: 3f1a 71bd 13f7 e7bc ca8a 74bd d9f8 ec3b
00000060: e430 0dbc ed1d 31bd 78e5 14bd 736d 483d
00000070: a57c bebd 926c c6bd 3a19 a23d aa57 e53a
00000080: 26ac 81bd 6c78 17bd 367d a3bc 7e68 94bd
00000090: d53f 2a3c e286 9c3d 90eb c23d a8c8 b43c
000000a0: 7347 f6bb ab8a 643d 2df6 64bd 5575 ed3d
000000b0: ac5b 9e3c 6723 633c 4529 273d e19e 1a3d
000000c0: eac2 893b 740d b6bd 2907 a6b9 3e89 363d
000000d0: ffbf 833c c65a 193d 8ead 233d ef8c 0a3d
000000e0: d4ec 1e3d eabe 3dbb f104 73bd 5a12 cb3c
000000f0: 24b7 5d3d b7bf e6bc 557d 1c3d 5164 403d
00000100: 239a 5fbc 7a4f 063d 6dd7 d43d 21d9 b0bc
00000110: 4ec4 b53d d199 d2bb ce65 e9bc 11cd 4c3d
00000120: f49d 803c 1775 973c b23f c5bc 6cb7 04bd
00000130: 49d2 46ba 5bbd 08bc c5d9 37bd 49a1 82bc
00000140: ac64 153c 9327 313c 72fd cd3c 588b 9bbd
00000150: 3dfc f43c d388 febc 1d7c 8a3c 4953 bc3b
00000160: c3fb a0bb e8c3 103d 557a 2ebd 5103 dfbc
00000170: 7565 833d dba5 643b fd9f 96bd df6f 06bd
00000180: 86f3 333c bb6d 903c ca4a 173c 9e81 8f3d
00000190: eeb9 46bc 2fad 10bd ff94 52bd afe5 d6bd
000001a0: 8574 06bd cd08 cc3c 4ba8 2b3d cd3b 4ebd
000001b0: 5b93 91bd 9919 203d 9a63 183c 42da c23c
000001c0: 4bc6 c03d 665b ad3c 2f2e cfbc e854 2c3d
000001d0: b662 293d dba6 23be b604 933c 38c0 403d
000001e0: 0514 8bbd c1c6 7b3d d71d 843d d2d8 24bd
000001f0: 2560 ba3d 4420 413d bf0a 7c3c de19 d83c
00000200: fe0c a13d f0ee 6f3d 6d69 363d 8e73 1cbd
00000210: 7d3b aebd 7520 233d 1a5e c83c 92d3 2cbd
00000220: ef11 4e3c a2a5 94bd 1541 13bd 0baa e4bd
00000230: 9d17 67bb 36df afbd c856 5a3d f74e 40bd
00000240: 9aa9 273d 94f8 13bb 662e b33d 29ed 07bc
00000250: 9f5a d03b 66b4 123d 0b69 1f3c 1d86 2b3d
00000260: 40fa 573c 706e aebd fa1f 87bd 8cf9 833b
00000270: 13a6 cd3d 2383 91bc 9488 39bd ba82 e3bd
00000280: ee2f b93c 53b3 98bb c001 39bd 2f04 dabd
00000290: 9e48 773c 2e18 293d 908f 7dbd 37bd 873c
000002a0: c16b c33b 3888 b4bd ba79 b53d 8699 a63d
000002b0: 54d2 1b3c 9416 8cbd beef 4bbc 94ba c33c
000002c0: f0bf 28bc 94dd 95bd 831d 473d b40d 2f3c
000002d0: 38ad 86bd 18b3 853d fd5e 2d3c 87ff 8dbd
000002e0: 3c87 7ebc 63d3 6bbd 9d4b 86bd a87c bdbd
000002f0: ac7f e7bd 6baa 533d 63de 813c 84f0 92bd
00000300: bc9c eabc ee2a b9bb c6da 37bd b383 9b3d
00000310: f9f5 f13b 7552 92bd 4b55 0fbc 6c7e c73d
00000320: d9fe 20be c190 ae3d 2e72 443d 8d85 d03c
00000330: 0d16 343d 15c6 29bc 5610 05be dcd3 1bbd
00000340: 032f cabc 6090 3bbc 8eea 833c 1d02 a2bc
00000350: 75a7 1f3b 0417 28bd 73c0 18bd baeb 21bd
00000360: 9666 8dbc 4baa 1f3d 270c 6a3d b472 47bd
00000370: 8925 72bd 940c cdbd 0ffb 0a3a 70d9 3a3d
00000380: 9502 ee3c 805f 1d3d 4b39 b03c dbfb 3b3c
00000390: 0e0d 04bd 2f6f 28bd 735b 8c3c 442f 50bd
000003a0: 950b 043d 3102 3a3d a1bf f0bc 0222 8dbd
000003b0: d4c1 01bd fba2 1e3d 8e30 943d e5d0 c93c
000003c0: 3a6a a4bc dba8 b03c 7c09 44bc c3d5 2b3d
000003d0: a62d 1a3d fcd6 a93d 0078 a93d ba21 333d
000003e0: e306 93bc f8b1 83bc db0e 41bb cca5 033e
000003f0: 79c3 a3bd 3216 08be 60ac 32bc df49 3d3e

block.0.bias f4 [256]
-0.041703373 -0.036501184 0.010067931 -0.0051826793 -0.08469886 -0.02365083 -0.011149644 -0.010789037
-0.001874772 -0.018505206 -0.039028857 0.019132229 -0.019587498 -0.023288965 -0.020525884 0.028755536
-0.0030935295 -0.025027324 0.044417974 0.03792078 0.036320806 0.022399753 0.044994235 0.025714308
-0.036683057 0.0194903 0.049501598 -0.0450893 -0.0041084844 -0.0061790296 -0.0129537685 0.017976912
0.006875211 0.0098252855 -0.0016188753 0.022642503 0.05113169 -0.036515944 0.0017351927 -0.015630519
0.04392615 0.011670076 0.0008828594 0.026947178 0.07158613 -0.03785271 0.048019674 0.02803596
0.06901561 -0.003371472 0.05185157 -0.030275548 -0.061440602 -0.06051037 -0.009800478 0.061922204
-0.08887935 -0.083844066 0.047186166 0.0013350716 -0.031786893 0.024980746 0.057548944 0.035894632
-0.010967761 0.0152124865 0.02130393 -0.0077711754 -0.037357915 0.010720182 -0.06811794 0.014636981
0.017378569 -0.021745244 0.026410649 -0.023698635 0.057080515 -0.05863408 0.011086854 0.024236329
0.034992907 -0.022309737 -0.02534704 0.06582581 -0.008382945 0.0037392464 -0.022606758 0.02764832
-0.029410454 0.0138945235 -0.012191364 0.0048705577 -0.016974112 -0.0004965554 -0.016473472 -0.045598004
-0.019957263 -0.031300962 -0.047028784 -0.026802167 0.013661371 -0.056157235 0.0075905602 0.036674097
-0.06731691 -0.0038759655 0.03335012 0.025115617 -0.0050479495 0.017483713 -0.0039574895 -0.011321023
-0.017565979 -0.05636348 0.037242737 0.076770775 0.0073519177 0.033860978 0.06308117 0.012561089
0.003607956 0.0068861516 -0.00023070471 0.023716388 -0.058657464 0.023309521 -0.013700547 -0.0005431883
0.02675193 -0.012668776 0.022189097 -0.010928676 -0.031038707 0.024712602 0.018081753 0.051410157
-0.017229456 -0.020737821 0.017124034 0.035962656 0.025246534 -0.003977177 0.038110364 -0.006200048
0.05303955 0.012818777 0.03148722 0.0076941177 -0.012261406 -0.0439292 0.035014737 0.03812914
-0.019030765 0.01781633 0.042670403 0.025369622 -0.06368445 0.050829444 -0.050053585 0.007700966
-0.030887263 0.025163868 -0.010877232 -0.031061232 -0.05798688 0.04473894 0.06734245 0.0406084
-0.004085303 0.022323499 0.009924369 0.066855736 0.0110848155 0.03530908 -0.00530693 0.033829864
-0.040978216 0.010812229 -0.009078115 0.03985681 0.04292381 0.009625441 0.02932566 0.0642924
0.03909308 0.015199924 -0.042918447 -0.037282057 0.003556434 0.04812126 -0.05545887 -0.028477987
0.028168136 -0.0028661764 0.02839423 -0.019649522 -0.02422985 0.0044384934 0.011083881 0.07601096
-0.014911116 0.02788382 -0.02578791 0.023909252 0.054031692 -0.0041592224 -0.01517331 0.01900165
0.013872818 0.011360462 0.016014935 0.014014508 0.0549124 0.023770487 -0.026669357 -0.007451078
0.018176256 -0.0173315 0.0008371516 0.02148334 -0.0110679725 0.024871193 0.04939647 -0.021119205
0.0388063 0.027057225 0.03693018 0.029852452 0.06838041 -0.065568425 0.005014843 0.029535154
0.004764923 0.07283292 -0.037983634 -0.015106534 0.0029455025 0.01273657 -0.016385052 -0.046482176
0.054078046 -0.05185025 -0.015318871 -0.028331216 0.07312665 -0.03586328 -0.0015865184 0.0038774773
0.01757743 -1.04510555e-05 -0.010897333 0.0057529383 -0.020833753 -0.008108646 -0.07916518 0.045718007
00000000: 28d1 2abd 4482 15bd f7f3 243c 77d3 a9bb
00000010: 9976 adbd 63bf c1bc ffac 36bc 80c4 30bc
00000020: e9ba f5ba 3b98 97bc b9dc 1fbd 31bb 9c3c
00000030: f675 a0bc 80c8 bebc e625 a8bc bb90 eb3c
00000040: d0bc 4abb 1a06 cdbc 9fef 353d d252 1b3d
00000050: 20c5 143d b07f b73c e04b 383d d0a6 d23c
00000060: f940 16bd 1faa 9f3c 30c2 4a3d 8faf 38bd
00000070: 77a0 86bb 7579 cabb 0b3c 54bc 5144 933c
00000080: 7349 e13b 3cfa 203c 7130 d4ba c57c b93c
00000090: 776f 513d be91 15bd 686f e33a 930b 80bc
000000a0: e8eb 333d d933 3f3c b16f 673a 54c0 dc3c
000000b0: c09b 923d 710b 1bbd 47b0 443d abab e53c
000000c0: 0e58 8d3d eaf3 5cbb 5062 543d 6d04 f8bc
000000d0: 24a9 7bbd b9d9 77bd 2f92 20bc 23a2 7d3d
000000e0: 6006 b6bd 70b6 abbd 4846 413d 92fd ae3a
000000f0: f932 02bd 6ca4 cc3c 71b8 6b3d 4006 133d
00000100: 20b2 33bc cb3d 793c 9485 ae3c 58a5 febb
00000110: 9d04 19bd b4a3 2f3c 6b81 8bbd f3cf 6f3c
00000120: 805d 8e3c 1523 b2bc 255b d83c a423 c2bc
00000130: 42cd 693d 4a2a 70bd a3a5 353c 448b c63c
00000140: b954 0f3d e9c2 b6bc 98a4 cfbc afcf 863d
00000150: 9f58 09bc 250e 753b cf31 b9bc bb7e e23c
00000160: 31ee f0bc dba5 633c 49be 47bc 3399 9f3b
00000170: 4b0d 8bbc 452b 02ba 60f3 86bc f9c4 3abd
00000180: 6a7d a3bc 7035 00bd 41a1 40bd 3890 dbbc
00000190: f1d3 5f3c 2105 66bd 3cba f83b 9437 163d
000001a0: 73dd 89bd e903 7ebb 239a 083d 44bf cd3c
000001b0: 4569 a5bb 013a 8f3c d4ad 81bb d07b 39bc
000001c0: 87e6 8fbc 64dd 66bd d78b 183d ff39 9d3d
000001d0: 5be8 f03b cfb1 0a3d b330 813d 07cd 4d3c
000001e0: 7573 6c3b 3aa5 e13b 53e9 71b9 df48 c23c
000001f0: cf42 70bd 9cf3 be3c 4278 60bc c064 0eba
00000200: dd26 db3c b390 4fbc e9c5 b53c 310e 33bc
00000210: e344 febc 1572 ca3c 2f20 943c 7593 523d
00000220: ca24 8dbc 5de2 a9bc b447 8c3c 944d 133d
00000230: d2d1 ce3c fb52 82bb 9d19 1c3d c629 cbbb
00000240: 0040 593d d905 523c bef8 003d f01e fc3b
00000250: 10e4 48bc 1bef 33bd 9d6b 0f3d 4d2d 1c3d
00000260: 68e6 9bbc 8df3 913c 29c7 2e3d f4d3 cf3c
00000270: fe6c 82bd 8932 503d fd04 4dbd 6358 fc3b
00000280: 4907 fdbc 7524 ce3c 6b36 32bc 2074 febc
00000290: a783 6dbd 2e40 373d d7ea 893d fe54 263d
000002a0: 01de 85bb c5df b63c d299 223c a9eb 883d
000002b0: 169d 353c 41a0 103d c1e5 adbb 2f91 0a3d
000002c0: c6d8 27bd c625 313c 60bc 14bc e540 233d
000002d0: e1d0 2f3d 07b4 1d3c 5e3c f03c bcab 833d
000002e0: 1120 203d 1a09 793c 41cb 2fbd 12b5 18bd
000002f0: 1013 693b cc1a 453d d728 63bd ab4a e9bc
00000300: ddc0 e63c 76d6 3bbb 049b e83c 09f8 a0bc
00000310: ae7d c6bc c870 913b 2b99 353c a2ab 9b3d
00000320: c14d 74bc 9c6c e43c 2b41 d3bc 56dd c33c
00000330: 5650 5d3d 164a 88bb 7a99 78bc 59a9 9b3c
00000340: d14a 633c 3b21 3a3c c131 833c 1b9d 653c
00000350: d3eb 603d 53ba c23c b279 dabc 2c28 f4bb
00000360: 5fe6 943c cafa 8dbc 4b74 5b3a d4fd af3c
00000370: 7156 35bc acbe cb3c f453 4a3d 2f02 adbc
00000380: 5bf3 1e3d 1da7 dd3c 1a44 173d 218d f43c
00000390: 070b 8c3d bd48 86bd 8d53 a43b b5f3 f13c
000003a0: 1223 9c3b 6d29 953d ba94 1bbd 6581 77bc
000003b0: 5509 413b 0cad 503c f239 86bc 1864 3ebd
000003c0: f180 5d3d ee60 54bd 00fc 7abc de16 e8bc
000003d0: 6dc3 953d 60e5 12bd b9f2 cfba 461d 7e3b
000003e0: 8bfe 8f3c f156 2fb7 ba8a 32bc 2583 bc3b
000003f0: 8cab aabc 20da 04bc 5b21 a2bd ce42 3b3d

block.1.weight f4 [256]
1.0057211 0.95638525 0.9460067 0.96032166 1.0299792 0.98429775 0.9818257 0.9813464
0.94858253 0.9615232 0.9367098 0.9743354 0.96777165 0.98148715 0.9736873 0.99914795
0.94883555 0.9665929 0.9702354 1.0026428 0.94983387 0.97263074 0.9578994 0.9305782
1.0236123 0.950121 0.9583963 0.98075217 0.9232647 0.9359571 0.9458865 0.9795943
0.95052284 0.97350156 0.9801849 0.96837574 0.9448992 0.9558377 1.004649 0.95825475
0.9614588 0.9735018 0.9671057 1.0110737 0.9637634 0.92035747 0.9276529 0.9816765
1.0063037 0.95036143 0.939902 0.9634123 0.9722037 0.98841107 0.9539501 1.0186654
0.9523825 0.98122567 0.99920875 0.9527821 0.9898408 0.9864322 0.9531137 0.95404595
0.9038949 0.96162236 0.96362543 0.97644275 1.0061202 0.96460366 0.98480004 0.9851872
0.9630704 0.99320495 0.9905941 0.9390021 0.9627026 0.9532399 0.9468693 0.99066883
0.9446612 0.98045063 0.9711685 0.9782227 0.9429267 0.9770069 0.98271096 0.9777124
0.9816214 0.9752356 0.99151224 0.943993 0.95349675 0.9472739 0.966242 0.952542
0.9768534 0.9482101 0.92411417 0.9252097 0.9558723 0.927774 0.9441422 0.97597134
0.95084435 0.94243854 0.9508961 0.95444435 0.9676814 0.9757041 0.9921366 1.0152923
0.9598833 0.9617698 0.9619726 0.952131 0.9748748 0.97586596 0.98120505 0.9595656
0.95478755 1.00514 0.9678608 0.9522618 0.967704 0.9654575 0.9580336 0.97853607
0.94301915 0.98356557 0.9854619 0.9665427 0.99250174 0.99894094 0.96570987 0.9639355
0.98094267 0.98780006 0.9594598 0.91352296 0.95438975 0.9339689 0.9883755 0.9252479
0.9362908 0.9892631 0.94496804 0.95295197 0.9498865 0.92784727 0.9623984 0.9614826
0.9729075 0.9588093 0.9672231 0.93145186 0.97372705 0.95061916 0.96185356 1.0111508
0.9732049 0.9872374 0.9720494 0.99485254 0.97541636 0.96154535 0.9765834 0.9785493
0.9794195 0.9498175 0.9168168 0.97819924 0.93493885 0.9393369 0.96569103 0.99480313
0.94504285 0.9757738 0.96002597 0.9709816 0.97485316 0.94528997 0.9760648 0.9546522
0.9999526 0.94466794 0.9320953 0.9741562 0.9702959 0.9411613 0.9783611 0.9571899
0.94471234 0.9346043 0.9662613 0.97858596 0.9930204 0.99671453 0.958588 0.98024917
0.91946846 0.95622927 0.99457985 0.9857224 0.970577 0.97486925 0.9601907 0.955109
0.92102873 0.9228178 0.9954886 0.90909 0.9629423 0.99164623 0.9263058 1.0202196
0.9775666 1.0079869 0.9639982 1.0155694 0.9780899 0.9835388 1.0128232 0.9678356
0.9957328 0.97444445 0.95596373 0.98805684 0.9377196 1.0048105 0.9622243 0.9755277
0.9378879 0.9271162 0.9952229 0.9873309 0.98944235 0.9448714 0.91705513 0.93326724
0.9843472 0.98585683 0.96266913 0.9654245 1.0163639 0.9711676 0.96998817 0.9547578
0.97741693 0.95269203 0.96186453 0.95925957 0.9812763 0.951762 0.93342006 0.93162763
00000000: 78bb 803f aad5 743f 7f2d 723f a4d7 753f
00000010: 5cd6 833f f0fa 7b3f ee58 7b3f 8539 7b3f
00000020: 4ed6 723f 6226 763f 37cc 6f3f 0b6e 793f
00000030: e2bf 773f be42 7b3f 9243 793f 29c8 7f3f
00000040: e3e6 723f a272 773f 5961 783f 9956 803f
00000050: 5028 733f 54fe 783f e538 753f 5f3a 6e3f
00000060: ba05 833f 213b 733f 7659 753f 9312 7b3f
00000070: 135b 6c3f e29a 6f3f 9e25 723f b1c6 7a3f
00000080: 7755 733f 6637 793f 66ed 7a3f 79e7 773f
00000090: eae4 713f c8b1 743f 5798 803f 2f50 753f
000000a0: 2a22 763f 6a37 793f 3d94 773f dd6a 813f
000000b0: 33b9 763f 8c9c 6b3f a97a 6d3f 274f 7b3f
000000c0: 8fce 803f e34a 733f 6b9d 703f 30a2 763f
000000d0: 57e2 783f 8208 7d3f 1336 743f a163 823f
000000e0: 57cf 733f 9b31 7b3f 25cc 7f3f 87e9 733f
000000f0: 3566 7d3f d286 7c3f 42ff 733f 5b3c 743f
00000100: a865 673f e22c 763f 28b0 763f 27f8 793f
00000110: 8cc8 803f 44f0 763f db1b 7c3f 3a35 7c3f
00000120: c88b 763f ae42 7e3f 9397 7d3f 7162 703f
00000130: ad73 763f 8807 743f 0766 723f 799c 7d3f
00000140: 51d5 713f d0fe 7a3f 809e 783f ce6c 7a3f
00000150: a563 713f 201d 7a3f f292 7b3f 5c4b 7a3f
00000160: 8a4b 7b3f 0aa9 793f bfd3 7d3f 86a9 713f
00000170: 5d18 743f 8b80 723f a35b 773f cbd9 733f
00000180: 1013 7a3f e6bd 723f bf92 6c3f 8bda 6c3f
00000190: 0cb4 743f 9982 6d3f 4eb3 713f 42d9 793f
000001a0: 896a 733f a743 713f ed6d 733f 7756 743f
000001b0: f8b9 773f bec7 793f aafc 7d3f 19f5 813f
000001c0: e9ba 753f 8c36 763f d643 763f dbbe 733f
000001d0: 6591 793f 5ad2 793f 4130 7b3f 17a6 753f
000001e0: f56c 743f 6da8 803f bac5 773f 6ec7 733f
000001f0: 73bb 773f 3928 773f b141 753f 5781 7a3f
00000200: b469 713f f4ca 7b3f 3b47 7c3f 586f 773f
00000210: 9814 7e3f 98ba 7f3f c338 773f 7ac4 763f
00000220: 0f1f 7b3f 77e0 7c3f 289f 753f a4dc 693f
00000230: e352 743f 9618 6f3f 2d06 7d3f 0cdd 6c3f
00000240: c1b0 6f3f 5940 7d3f 6de9 713f a9f4 733f
00000250: c32b 733f 6687 6d3f be5f 763f b923 763f
00000260: 7710 793f 8774 753f ef9b 773f a173 6e3f
00000270: 2d46 793f c75b 733f 093c 763f 646d 813f
00000280: f523 793f 97bb 7c3f 3bd8 783f a8ae 7e3f
00000290: e3b4 793f d627 763f 5f01 7a3f 3582 7a3f
000002a0: 3dbb 7a3f 3d27 733f 81b4 6a3f 446b 7a3f
000002b0: 2758 6f3f 6278 703f 8737 773f 6bab 7e3f
000002c0: 54ee 713f 50cc 793f 43c4 753f 4092 783f
000002d0: fa8f 793f 86fe 713f 62df 793f 1664 743f
000002e0: e5fc 7f3f c2d5 713f cc9d 6e3f 4d62 793f
000002f0: 5065 783f f2ef 703f e075 7a3f 660a 753f
00000300: abd8 713f 3a42 6f3f e75c 773f 9c84 7a3f
00000310: 9636 7e3f af28 7f3f 0666 753f 9cf1 7a3f
00000320: 4962 6b3f 71cb 743f c99c 7e3f 4e58 7c3f
00000330: bc77 783f 0891 793f 0fcf 753f 0682 743f
00000340: 8ac8 6b3f ca3d 6c3f 57d8 7e3f 1fba 683f
00000350: 6383 763f 87dc 7d3f 6022 6d3f 8e96 823f
00000360: ce41 7a3f b705 813f 96c8 763f 2efe 813f
00000370: 1a64 7a3f 33c9 7b3f 31a4 813f 13c4 773f
00000380: 58e8 7e3f 3175 793f 0aba 743f 4bf1 7c3f
00000390: 640e 703f a19d 803f 5554 763f 2fbc 793f
000003a0: 6c19 703f 7d57 6d3f eec6 7e3f b8c1 7c3f
000003b0: 184c 7d3f 18e3 713f 20c4 6a3f 9aea 6e3f
000003c0: 2efe 7b3f 1d61 7c3f 7c71 763f 0f26 773f
000003d0: 3618 823f 719e 783f 2551 783f 026b 743f
000003e0: ff37 7a3f a0e3 733f c13c 763f 0992 753f
000003f0: ec34 7b3f ada6 733f 9ef4 6e3f 267f 6e3f

block.1.bias f4 [256]
-0.21448393 -0.29335704 -0.38624224 -0.26578653 -0.2591106 -0.2291874 -0.34883726 -0.19420747
-0.32261848 -0.2871191 -0.3370994 -0.3376777 -0.25069067 -0.20035002 -0.2789419 -0.23178624
-0.31351262 -0.36480737 -0.311177 -0.23695683 -0.33962974 -0.2781172 -0.29273123 -0.3613423
-0.26108077 -0.34943834 -0.24449024 -0.34861413 -0.37991434 -0.23371829 -0.33919203 -0.2549187
-0.31630686 -0.23515871 -0.23832294 -0.26534116 -0.24179088 -0.27704298 -0.24366662 -0.29803637
-0.30428797 -0.34002876 -0.3272101 -0.3396361 -0.24845253 -0.3016309 -0.28689724 -0.2591387
-0.32626235 -0.29804975 -0.39475706 -0.25419915 -0.30385426 -0.23242311 -0.3472518 -0.3189656
-0.29152155 -0.28382024 -0.23211075 -0.28047782 -0.30205104 -0.2414452 -0.30631924 -0.21138829
-0.21409333 -0.28271303 -0.36764467 -0.31403986 -0.1882785 -0.2723952 -0.2272051 -0.28084758
-0.27898324 -0.2813074 -0.2774303 -0.30134207 -0.33653337 -0.26879543 -0.17752016 -0.24144307
-0.31313896 -0.32265922 -0.1819064 -0.2684001 -0.27598152 -0.2486263 -0.27127048 -0.26661366
-0.2858461 -0.32120648 -0.23230949 -0.29504952 -0.30105036 -0.24301998 -0.23926002 -0.28149334
-0.30274394 -0.32102704 -0.3907717 -0.27147785 -0.2938697 -0.33385694 -0.32306352 -0.33290726
-0.2586556 -0.20711128 -0.27227992 -0.3375372 -0.3093966 -0.29270035 -0.30372617 -0.12762077
-0.28965214 -0.2923305 -0.18650976 -0.38644373 -0.25764433 -0.23815398 -0.36383754 -0.32110035
-0.36579123 -0.26812914 -0.25826833 -0.31773332 -0.18906705 -0.2561588 -0.24555296 -0.29809836
-0.23016359 -0.25988576 -0.31029755 -0.32213724 -0.24291787 -0.2543126 -0.3531958 -0.22086117
-0.37687835 -0.20363443 -0.2457164 -0.32308012 -0.24198385 -0.387546 -0.28429514 -0.30552718
-0.3713151 -0.27405187 -0.29271987 -0.3000492 -0.31629828 -0.20970409 -0.3095573 -0.2646316
-0.24043193 -0.25174242 -0.22552888 -0.3546146 -0.29210964 -0.30925408 -0.28859273 -0.29279554
-0.30504578 -0.28711653 -0.3278244 -0.25802904 -0.40599105 -0.36633894 -0.27858084 -0.1751244
-0.28962305 -0.25376278 -0.32262993 -0.39111272 -0.40022832 -0.29122028 -0.2625807 -0.2616217
-0.32624993 -0.26525214 -0.26982895 -0.31923017 -0.3039234 -0.16880268 -0.33319163 -0.24526535
-0.29752883 -0.3418165 -0.28598043 -0.34029394 -0.2837339 -0.30449364 -0.25389022 -0.1824964
-0.36543086 -0.364927 -0.31520906 -0.3208201 -0.26291305 -0.33999962 -0.2505572 -0.18317695
-0.3084771 -0.3459584 -0.27379155 -0.22969563 -0.24123637 -0.22735956 -0.33176363 -0.27965128
-0.31198892 -0.18008561 -0.2453954 -0.34857893 -0.2856854 -0.27265313 -0.35694396 -0.21732076
-0.2331875 -0.2800067 -0.24538597 -0.2504533 -0.22128712 -0.32058752 -0.27991137 -0.26139513
-0.24839732 -0.26590744 -0.22254802 -0.26267043 -0.28895968 -0.31052628 -0.20825633 -0.2214404
-0.32698545 -0.34453285 -0.33109683 -0.20053543 -0.3057316 -0.13232294 -0.35276702 -0.25902227
-0.23487666 -0.2559974 -0.38339138 -0.17114681 -0.30015472 -0.32117018 -0.26718116 -0.2687932
-0.37454098 -0.38742307 -0.33316314 -0.18866502 -0.30238464 -0.29334334 -0.42708454 -0.2921263
00000000: ada1 5bbe e532 96be 8bc1 c5be 2c15 88be
00000010: 25aa 84be 1ab0 6abe cc9a b2be 53de 46be
00000020: 402e a5be 4601 93be 4b98 acbe 17e4 acbe
00000030: 875a 80be 8e28 4dbe 79d1 8ebe 5f59 6dbe
00000040: ba84 a0be 08c8 babe 9752 9fbe d0a4 72be
00000050: f3e3 adbe 6165 8ebe dee0 95be dc01 b9be
00000060: 61ac 85be 95e9 b2be a65b 7abe 8d7d b2be
00000070: 2284 c2be d953 6fbe 94aa adbe b484 82be
00000080: f9f2 a1be 72cd 70be ee0a 74be ccda 87be
00000090: 0798 77be 94d8 8dbe be83 79be 3998 98be
000000a0: a2cb 9bbe 4018 aebe 1588 a7be c8e4 adbe
000000b0: 576a 7ebe 5e6f 9abe 32e4 92be d4ad 84be
000000c0: dc0b a7be fa99 98be 991d cabe 6426 82be
000000d0: c992 9bbe 5300 6ebe fdca b1be 764f a3be
000000e0: 5042 95be e350 91be 71ae 6dbe ca9a 8fbe
000000f0: 6fa6 9abe 693d 77be e0d5 9cbe 2c76 58be
00000100: 483b 5bbe c3bf 90be ec3b bcbe d5c9 a0be
00000110: 14cc 40be 6277 8bbe 74a8 68be 41cb 8fbe
00000120: e4d6 8ebe 8607 90be 580b 8ebe 8249 9abe
00000130: 1a4e acbe 8e9f 89be d8c7 35be da3c 77be
00000140: c053 a0be 9733 a5be ac45 3abe bd6b 89be
00000150: 734d 8dbe e597 7ebe f7e3 8abe 9681 88be
00000160: 6c5a 92be 2d75 a4be 8ae2 6dbe bb10 97be
00000170: 4623 9abe 3bda 78be 9400 75be e51f 90be
00000180: 4101 9bbe a85d a4be 3a13 c8be 25ff 8abe
00000190: 1776 96be 4cef aabe 9568 a5be d272 aabe
000001a0: 826e 84be fb14 54be 4668 8bbe add1 acbe
000001b0: 3b69 9ebe d2dc 95be ff81 9bbe 05af 02be
000001c0: 494d 94be 58ac 95be 6afc 3ebe f4db c5be
000001d0: f5e9 83be a3de 73be ea48 babe 4467 a4be
000001e0: fd48 bbbe 3948 89be bf3b 84be f1ad a2be
000001f0: cb9a 41be 3f27 83be 3c72 7bbe 59a0 98be
00000200: 01b0 6bbe bf0f 85be 52df 9ebe 2cef a4be
00000210: 76bf 78be 4335 82be 14d6 b4be 6e29 62be
00000220: 33f6 c0be 8b85 50be 149d 7bbe c26a a5be
00000230: 9dca 77be 6e6c c6be 228f 91be 0f6e 9cbe
00000240: 031d bebe 8750 8cbe 61df 95be 0ca0 99be
00000250: d9f1 a1be abbc 56be 4b7e 9ebe cb7d 87be
00000260: ca33 76be 62e4 80be 0bf1 66be 0b90 b5be
00000270: 658f 95be 8d56 9ebe 6dc2 93be 4ce9 95be
00000280: f62e 9cbe f000 93be 9ad8 a7be 621c 84be
00000290: 0fde cfbe c790 bbbe 26a2 8ebe d053 33be
000002a0: 7949 94be 32ed 81be c02f a5be ed3f c8be
000002b0: baea ccbe d31a 95be fa70 86be 48f3 85be
000002c0: 3b0a a7be 21cf 87be 0527 8abe 2372 a3be
000002d0: d99b 9bbe 9cda 2cbe 1898 aabe d726 7bbe
000002e0: b355 98be 9302 afbe 076c 92be 023b aebe
000002f0: 9245 91be 97e6 9bbe e6fd 81be 56e0 3abe
00000300: c119 bbbe b6d7 babe 1563 a1be 8842 a4be
00000310: 8a9c 86be 6e14 aebe 0949 80be bd92 3bbe
00000320: b6f0 9dbe 7621 b1be 682e 8cbe 5535 6bbe
00000330: ab06 77be f2d0 68be ecdc a9be 742e 8fbe
00000340: 03bd 9fbe 5d68 38be ef48 7bbe f078 b2be
00000350: 5b45 92be 3199 8bbe 5cc1 b6be 5589 5ebe
00000360: b4c8 6ebe 0a5d 8fbe 7646 7bbe 6a3b 80be
00000370: 1799 62be 0c24 a4be 8b50 8fbe 95d5 85be
00000380: de5b 7ebe 0525 88be a1e3 63be bd7c 86be
00000390: 86f2 93be 4dfd 9ebe 2641 55be 46c1 62be
000003a0: a36a a7be 9c66 b0be 8685 a9be 2959 4dbe
000003b0: da88 9cbe aa7f 07be e19d b4be 919e 84be
000003c0: 8283 70be 1712 83be e04b c4be 1c41 2fbe
000003d0: e1ad 99be 6b70 a4be f8cb 88be 439f 89be
000003e0: d6c3 bfbe 515c c6be 5c94 aabe 6731 41be
000003f0: 29d2 9abe 1931 96be d3aa dabe 9491 95be

block.1.running_mean f4 [256]
-0.058927752 0.009133474 0.034693606 0.09149365 -0.13794807 -0.0018163008 0.023084128 -0.08683691
0.061181452 -0.03144041 0.007237288 0.027934019 0.043939114 0.025379924 0.03440855 0.009627859
-0.04862552 -0.010986329 0.010500512 -0.033919036 0.07480808 -0.028034879 -0.024854178 0.047065992
0.053786866 0.0033879713 0.06946732 -0.019899227 0.0145248575 -0.032482564 0.055226147 0.0449064
0.018993236 -0.06455869 -0.06591577 -0.056105517 0.08615827 0.058555324 0.05312145 -0.042055912
-0.023751138 0.09163832 -0.030218372 0.05345462 0.09002221 -0.079695165 0.052185934 0.059395026
0.061815463 0.0822668 -0.0013771957 0.011275411 -0.08271147 -0.051328827 -0.0061674197 0.12630437
-0.115451746 -0.10057102 -0.0063909898 -0.032934118 -0.12186992 0.029279174 0.050564017 -0.035185397
-0.055213947 0.03463242 0.016949264 -0.09719329 0.010249323 0.066568874 -0.10666502 0.03476849
0.048079655 -0.07333707 0.04669867 0.01932291 0.0372927 -0.091470666 -0.051056717 -0.06797293
0.09259713 -0.019524964 0.0033508525 0.04667772 0.024196161 0.047641832 -0.0067706048 -0.05365559
-0.053588804 0.06460459 0.05892216 0.021663452 -0.030678146 0.0063273297 -0.023741037 0.01646333
-0.012002156 -0.07487403 -0.11358515 -0.042796507 -0.027550653 -0.042362068 0.038510423 0.05525091
-0.03354466 0.001556511 0.0553443 -0.021134295 0.015172731 0.047313966 0.05281427 0.055325933
-0.01965876 -0.029205166 0.075109035 0.13146834 0.0054504545 0.011979841 0.098104194 0.043480817
0.0060895775 0.11839159 0.008973789 0.005045725 -0.025797512 0.038283486 -0.049052097 -0.013643554
0.029433966 -0.08316832 0.060314637 -0.048119623 0.07901802 0.0417236 0.07882565 -0.020636024
0.0074458346 0.029345926 0.03713585 0.007574019 -0.057291463 0.014016 0.07329262 -0.014892778
0.10314385 -0.008923785 0.051889066 -0.052614678 -0.022982907 -0.019641588 -0.0281032 0.041694485
-0.040824734 0.07699904 -0.066965334 -0.069562025 -0.091248825 -0.01438666 -0.08126686 -0.014350766
-0.0014838376 -0.024058603 0.09978931 -0.12715538 0.049551766 0.06906391 -0.028305283 0.047490302
0.0014079029 0.018437458 0.023613228 0.019172117 0.01481559 0.035102177 -0.021461517 0.00845476
-0.029813444 -0.024319926 -0.0235502 0.06926488 0.029460099 -0.04033472 -0.011891017 -0.09730122
0.01985797 -0.025407145 -0.008878493 -0.034127884 -0.005027347 0.008058493 -0.035260256 -0.052183546
0.061976284 0.068633355 0.036053922 -0.121176794 -0.035821166 -0.07431548 0.059004124 0.11406389
0.03811875 0.08981076 -0.043440223 0.0233951 0.09082152 0.0060746265 -0.035236105 0.067028195
0.028287672 0.04458072 0.018503523 0.04782203 0.05645939 -0.07024274 -0.060619097 -0.07135566
-0.031661753 0.076284595 0.02054582 -0.025524484 -0.0796752 0.09484565 0.09670003 -0.009733299
0.019197963 0.117973275 0.08269553 0.043143485 0.0758353 -0.004876686 -0.080323435 -0.048974536
0.049772393 0.094765924 0.018283786 0.029006654 -0.050208487 -0.06441786 -0.020463644 -0.0011711688
0.012996739 -0.057698037 -0.017040161 0.0046474673 0.09962717 0.040704485 0.06071734 0.0431894
0.08105192 -0.06567239 -0.011526583 0.089664206 -0.0804814 -0.046131115 -0.14092304 0.14527702
00000000: 3a5e 71bd 91a4 153c e21a 0e3d 0661 bb3d
00000010: 4242 0dbe f110 eeba ed1a bd3c 8dd7 b1bd
00000020: 6799 7a3d a9c7 00bd c626 ed3b e2d5 e43c
00000030: 80f9 333d 8fe9 cf3c fbef 0c3d 2bbe 1d3c
00000040: 8e2b 47bd 0100 34bc 570a 2c3c b0ee 0abd
00000050: fb34 993d 67a9 e5bc fd9a cbbc 45c8 403d
00000060: 9e4f 5c3d ba08 5e3b e244 8e3d b403 a3bc
00000070: abf9 6d3c 700c 05bd d034 623d c6ef 373d
00000080: b497 9b3c 5937 84bd d9fe 86bd e6ce 65bd
00000090: bf73 b03d b5d7 6f3d e195 593d d242 2cbd
000000a0: bf91 c2bc dfac bb3d 858c f7bc 3bf3 5a3d
000000b0: 905d b83d 3837 a3bd ebc0 553d 3348 733d
000000c0: 3632 7d3d 7f7b a83d 0583 b4ba 80bc 383c
000000d0: a264 a9bd 2d3e 52bd 1118 cabb ef55 013e
000000e0: f771 ecbd 2ef8 cdbd 826b d1bb ede5 06bd
000000f0: f096 f9bd e1da ef3c 371c 4f3d 901e 10bd
00000100: 0528 62bd b9da 0d3d 2fd9 8a3c 470d c7bd
00000110: c7ec 273c 4355 883d 3173 dabd 6769 0e3d
00000120: 2cef 443d bf31 96bd 1b47 3f3d 144b 9e3c
00000130: 3bc0 183d f954 bbbd d920 51bd 6435 8bbd
00000140: 90a3 bd3d d1f2 9fbc fa99 5b3b 2331 3f3d
00000150: 0737 c63c 1524 433d f3db ddbb f7c5 5bbd
00000160: ef7f 5bbd 694f 843d 5d58 713d 8d77 b13c
00000170: bc50 fbbc 7d55 cf3b 907c c2bc 1bde 863c
00000180: b1a4 44bc 8e57 99bd 559f e8bd 644b 2fbd
00000190: e8b1 e1bc d983 2dbd 1bbd 1d3d c74e 623d
000001a0: 2066 09bd d803 cc3a b4b0 623d d421 adbc
000001b0: 0c97 783c 4acc 413d c753 583d 729d 623d
000001c0: 680b a1bc ac3f efbc c4d2 993d a39f 063e
000001d0: ba99 b23b 1847 443c daea c83d f118 323d
000001e0: 148b c73b 4a77 f23d cd06 133c 9c56 a53b
000001f0: 4e55 d3bc 25cf 1c3d daea 48bd 3789 5fbc
00000200: 801f f13c 2754 aabd 7b0c 773d 1519 45bd
00000210: 33d4 a13d 5ee6 2a3d 586f a13d e10c a9bc
00000220: 30fc f33b de66 f03c c31b 183d 7a2f f83b
00000230: 74aa 6abd 5da3 653c 711a 963d d700 74bc
00000240: 153d d33d 1135 12bc a189 543d 7d82 57bd
00000250: a646 bcbc 65e7 a0bc af38 e6bc d6c7 2a3d
00000260: d637 27bd acb1 9d3d 1f25 89bd 8976 8ebd
00000270: aae0 babd 07b6 6bbc 3d6f a6bd 7a1f 6bbc
00000280: 547d c2ba 8c16 c5bc 565e cc3d 0535 02be
00000290: cbf6 4a3d 6171 8d3d 7be0 e7bc 3185 423d
000002a0: 6289 b83a 270a 973c 8770 c13c d80e 9d3c
000002b0: 17bd 723c 4dc7 0f3d 10d0 afbc d585 0a3c
000002c0: 533b f4bc 953a c7bc 59ec c0bc bfda 8d3d
000002d0: 4e56 f13c 0536 25bd 8ad2 42bc dd45 c7bd
000002e0: 2ead a23c a522 d0bc 1977 11bc aec9 0bbd
000002f0: 71bc a4bb c507 043c 0f6d 10bd 6abe 55bd
00000300: d8da 7d3d a58f 8c3d 47ad 133d 8a2b f8bd
00000310: 37b9 12bd b732 98bd 4fae 713d 549a e93d
00000320: 6822 1c3d b4ee b73d 60ee 31bd 15a7 bf3c
00000330: a200 ba3d a90d c73b bc53 10bd 1446 893d
00000340: 8cbb e73c 469a 363d b394 973c 08e1 433d
00000350: f641 673d 6ddb 8fbd bb4b 78bd eb22 92bd
00000360: c1af 01bd 193b 9c3d b54f a83c b918 d1bc
00000370: c02c a3bd 703e c23d aa0a c63d 6a78 1fbc
00000380: 0c45 9d3c f99b f13d 465c a93d 39b7 303d
00000390: 8a4f 9b3d 9bcc 9fbb 9d80 a4bd 8699 48bd
000003a0: 23de 4b3d a314 c23d e1c7 953c 5d9f ed3c
000003b0: 6aa7 4dbd 83ed 83bd 5fa3 a7bc e781 99ba
000003c0: 46f0 543c c754 6cbd cf97 8bbc c849 983b
000003d0: 5409 cc3d bfb9 263d bfb2 783d 5ee7 303d
000003e0: 8dfe a53d 3f7f 86bd fed9 3cbc dea1 b73d
000003f0: 6fd3 a4bd fbf3 3cbd 214e 10be 80c3 143e

block.1.running_var f4 [256]
0.0021109318 0.002134295 0.0018121313 0.0017384588 0.0022110278 0.001951401 0.001900568 0.002107591
0.0019277231 0.001978538 0.00177914 0.0017725639 0.002361213 0.002398791 0.0022768027 0.0020569384
0.001992961 0.0019670196 0.0021692093 0.002202449 0.0022135642 0.0021482902 0.002016323 0.0017788655
0.0022652731 0.001891273 0.001977263 0.0019543883 0.0021100135 0.0021564446 0.0019774965 0.0020967203
0.0020855179 0.0022921942 0.0023321256 0.0016049785 0.0020216429 0.0027439734 0.00212016 0.0017869727
0.0020087876 0.0020568785 0.0020085482 0.0020707482 0.0023879944 0.002149426 0.0019529089 0.0021836546
0.0018893084 0.002054877 0.0019096698 0.0020961298 0.00209283 0.0021944107 0.0023564426 0.0021120848
0.0020782761 0.001955845 0.0023765042 0.0019398145 0.0018616769 0.0023152924 0.001935092 0.0021753246
0.002244247 0.0018957686 0.002122986 0.0020251898 0.001964618 0.0025483659 0.0024407434 0.001814521
0.0018369441 0.0021068852 0.002154513 0.0016306539 0.0023841758 0.001990004 0.0024355955 0.0020092004
0.0024217889 0.0015419378 0.001957728 0.0015438603 0.001983992 0.002109008 0.00198515 0.0017909934
0.0025852502 0.001799799 0.0020890227 0.0017425894 0.0018606901 0.001902809 0.0024804838 0.0018652574
0.0017599132 0.002127038 0.002216676 0.0019877206 0.0019820535 0.0021037916 0.0019144242 0.0021273964
0.0022622736 0.0016612655 0.0018891223 0.0018978434 0.0019535334 0.0021615012 0.002252077 0.002241814
0.0017866647 0.0019438287 0.0022384513 0.0018631964 0.0025622598 0.0022308605 0.0017377908 0.0021673776
0.0018959076 0.0018832769 0.0018548445 0.0020884068 0.0022363835 0.0018924647 0.0027392763 0.0018653345
0.002492018 0.0019631512 0.0019122645 0.0017524749 0.002448775 0.0019142827 0.0021385218 0.0019092163
0.0021877717 0.001806225 0.00206752 0.0018953445 0.0021183197 0.0018705478 0.0025700086 0.001979891
0.001895226 0.0021106773 0.0023553704 0.0018325888 0.0020147848 0.0021071208 0.002201719 0.0020612353
0.0021984829 0.0020785378 0.0019277319 0.0016380422 0.0020340579 0.0017096477 0.0019407094 0.0022370885
0.0017780426 0.0022227603 0.001979121 0.0019904461 0.0023316906 0.00220643 0.00248069 0.0023252037
0.002272484 0.0023396828 0.0022699265 0.0019642513 0.0018601748 0.002082855 0.0019771322 0.0022932806
0.0019475695 0.0023711964 0.0018720997 0.0017661647 0.0018137536 0.0021264663 0.002623463 0.0024149253
0.0026107116 0.0020306697 0.0020845325 0.0020299868 0.0021376382 0.0020870925 0.0020917228 0.002268749
0.0018799327 0.0019768097 0.0019664036 0.0020035452 0.0023301663 0.0020280431 0.0017513647 0.0021589065
0.0021069543 0.0022263748 0.002072089 0.0019087234 0.0028950304 0.0020591416 0.0019699463 0.0020799078
0.002249113 0.0024605507 0.0020115862 0.0021741535 0.0024206724 0.0017277454 0.0016026153 0.0021178236
0.0024872117 0.0018447615 0.0019282772 0.0020160484 0.0023000413 0.0019584305 0.0021033345 0.0018506146
0.0021463789 0.0024935983 0.0025813954 0.0022830768 0.00210176 0.0020103697 0.002125281 0.0020352274
0.0021469297 0.0020023594 0.0018131053 0.0020604455 0.0022406927 0.0022852018 0.0022146981 0.002150948
0.0019380497 0.0020011668 0.0021301142 0.0024493511 0.002148335 0.0019320878 0.002039235 0.002305555
0.0017133913 0.0018901847 0.0018840969 0.0023654369 0.0019906044 0.0022112217 0.0016667274 0.0019890873
00000000: 8f57 0a3b 87df 0b3b 0985 ed3a ffdc e33a
00000010: e4e6 103b 27c6 ff3a 7b1c f93a 821f 0a3b
00000020: a7ab fc3a 5caa 013b 0832 e93a 6055 e83a
00000030: 95be 1a3b 0935 1d3b 6936 153b b3cd 063b
00000040: 569c 023b 1de9 003b 4b29 0e3b f656 103b
00000050: 7211 113b 54ca 0c3b 4924 043b d228 e93a
00000060: fa74 143b 97e4 f73a f894 013b 3215 003b
00000070: 2748 0a3b 2353 0d3b e398 013b 2169 093b
00000080: 2fad 083b a338 163b 93d6 183b 245e d23a
00000090: 8a7d 043b 3cd4 333b 62f2 0a3b db38 ea3a
000000a0: dda5 033b b2cc 063b d9a1 033b 64b5 073b
000000b0: e67f 1c3b 62dd 0c3b c0f8 ff3a a51b 0f3b
000000c0: aca2 f73a 1eab 063b e34d fa3a 395f 093b
000000d0: dc27 093b 1ad0 0f3b 8c6e 1a3b e76a 0a3b
000000e0: b033 083b a22d 003b 20bf 1b3b 6041 fe3a
000000f0: 8303 f43a 29bc 173b eaa2 fd3a e48f 0e3b
00000100: 3714 133b 707b f83a cb21 0b3b 0cb9 043b
00000110: d2c0 003b 7c02 273b e1f4 1f3b 39d5 ed3a
00000120: 9ec5 f03a ab13 0a3b bb32 0d3b aabb d53a
00000130: d53f 1c3b ba6a 023b 839e 1f3b caac 033b
00000140: e0b6 1e3b d91a ca3a 3a4d 003b 5b5b ca3a
00000150: dd05 023b 4837 0a3b 4a19 023b c4bf ea3a
00000160: 4d6d 293b 3ce7 eb3a fce7 083b 9967 e43a
00000170: 66e2 f33a ad67 f93a 9d8f 223b a77b f43a
00000180: e3ac e63a c765 0b3b a745 113b 6b44 023b
00000190: 57e5 013b c4df 093b 6bed fa3a ca6b 0b3b
000001a0: a742 143b d2be d93a 6d9c f73a 0fc1 f83a
000001b0: da06 003b f9a7 0d3b 9597 133b 66eb 123b
000001c0: 852e ea3a 11c8 fe3a fbb2 123b 7f36 f43a
000001d0: 96eb 273b a133 123b 95c6 e33a 900a 0e3b
000001e0: 1a80 f83a 49d8 f63a 411e f33a a7dd 083b
000001f0: 4a90 123b 940c f83a 6e85 333b 3d7e f43a
00000200: 2051 233b 36a8 003b f3a4 fa3a 4db3 e53a
00000210: a17b 203b abe8 fa3a 7126 0c3b ab3e fa3a
00000220: b860 0f3b dbbe ec3a 3b7f 073b 356d f83a
00000230: 82d3 0a3b 2b2d f53a 976d 283b 0fc1 013b
00000240: 3b69 f83a 4a53 0a3b 8f5c 1a3b 7a33 f03a
00000250: 7b0a 043b 9f17 0a3b b74a 103b ca15 073b
00000260: 6c14 103b 1438 083b f3ab fc3a 93b3 d63a
00000270: d44d 053b 4216 e03a 675f fe3a 1e9c 123b
00000280: 360d e93a bbab 113b 24b4 013b 2572 023b
00000290: 47cf 183b c199 103b 1293 223b 7262 183b
000002a0: f4ed 143b 5d55 193b 0cc3 143b abba 003b
000002b0: 1cd1 f33a 8280 083b c692 013b dd4a 163b
000002c0: 9745 ff3a 1366 1b3b 3e61 f53a a77e e73a
000002d0: 79bb ed3a 2f5c 0b3b 68ee 2b3b b943 1e3b
000002e0: 7918 2b3b fc14 053b a79c 083b 8709 053b
000002f0: 9e17 0c3b 9ac7 083b 4915 093b 4baf 143b
00000300: 1368 f63a 5d8d 013b c7de 003b e94d 033b
00000310: b4b5 183b ebe8 043b 0c8e e53a 717c 0d3b
00000320: d414 0a3b 5fe8 113b e2cb 073b 212e fa3a
00000330: 8dba 3d3b aaf2 063b 371a 013b 104f 083b
00000340: db65 133b 3141 213b d1d4 033b 3e7c 0e3b
00000350: 25a4 1e3b 8475 e23a d90e d23a 2fcb 0a3b
00000360: 7d00 233b edcb f13a 3fbe fc3a ae1f 043b
00000370: 4abc 163b 0359 003b 19d8 093b 5290 f23a
00000380: 43aa 0c3b a36b 233b a12c 293b ac9f 153b
00000390: aebd 093b 68c0 033b 4c48 0b3b 7361 053b
000003a0: 81b3 0c3b 043a 033b b8a5 ed3a 8a08 073b
000003b0: 96d8 123b 53c3 153b 7824 113b ebf6 0c3b
000003c0: 2806 fe3a 0226 033b 6399 0b3b 4b85 203b
000003d0: 15cb 0c3b 1c3e fd3a b0a4 053b cb18 173b
000003e0: df93 e03a 13c0 f73a cdf3 f63a 7205 1b3b
000003f0: cd74 023b 25ea 103b 1776 da3a 595b 023b

block.4.weight f4 [128, 256]
0.019032674 -0.08786744 0.0138316965 -0.04254404 0.015686205 0.09443016 0.059215788 0.022875173
-0.012313322 -0.0059074243 0.11713628 -0.032017093 0.037984367 0.057286773 -0.1023833 0.017184
0.008316308 -0.06700383 0.07263745 0.014454309 -0.024729881 0.08088883 -0.037938863 -0.0498433
-0.012098807 -0.013812519 0.09342856 0.017160997 -0.028115686 -0.027353624 0.074003264 0.022998268
-0.072466664 0.030678796 0.0753314 -0.004729931 -0.078888126 -0.012580264 0.07570148 -0.0209631
-0.08964037 -0.08348503 -0.018706175 0.028351644 0.08466368 0.061955344 0.029748933 0.00862096
0.047440384 0.10585119 -0.072475255 -0.006502342 0.05224678 0.09489557 -0.040368646 0.033534072
0.027302332 -0.07443691 0.14366415 0.011321943 0.0061718267 -0.113883734 -0.0097624445 0.069602005
-0.00074927264 0.033799447 -0.07659187 -0.083570816 0.094081074 -0.03162831 0.031891 0.009964974
0.048188522 -0.036865123 0.061236866 -0.026676113 -0.018826472 0.020153949 -0.07643853 0.046503637
0.07117082 0.08377809 -0.030682912 -0.014656891 0.026932333 0.0032829586 0.058226407 0.06845412
0.003603342 0.0022879748 0.023236753 -0.013704139 -0.10706863 -0.009924401 0.026234819 0.012413391
0.09685122 -0.028731333 0.102033086 0.056673937 -0.02414564 0.011061842 0.017960027 -0.0830515
0.0015855283 0.018704241 0.009457314 0.053305548 0.096033655 -0.0665105 0.022093423 0.006065631
-0.009854209 0.025733823 0.05672806 -0.09809194 -0.030072125 0.021322327 0.10854009 -0.076050125
0.0076106563 -0.043220486 0.054374494 -0.015704567 0.049332358 -0.07732003 -0.069455 0.00021416851
0.06291437 0.022954175 -0.06834991 -0.058529682 -0.08900487 0.046941567 0.0102153495 0.025600974
-0.01211748 -0.030296424 -0.01661085 -0.0025343094 0.042079374 0.017196877 0.0066047055 -0.059656758
0.017197689 0.10050909 -0.034349114 -0.05671928 -0.012406584 -0.019915082 0.054541796 -0.06155753
0.08422738 0.01035459 0.06677324 -0.0695746 -0.056439087 0.023690388 -0.07593359 -0.014879808
0.018514805 0.045414593 -0.040028512 -0.057956286 0.010667484 0.004437991 0.002085994 0.042074725
-0.00060470065 0.030994777 -0.06043223 0.022210075 0.031740222 -0.007155339 0.027327415 0.08422028
-0.05607545 -0.045265008 0.019142946 0.12896837 -0.020955957 -0.06394984 -0.11546623 -0.011119095
0.11631504 0.015314125 0.027604125 -0.03936235 -0.030699514 -0.021282785 0.08939312 0.0010963577
-0.024355035 -0.073263235 -0.06568453 0.08894422 -0.047148272 0.06752066 -0.035553135 0.021884367
-0.035979982 -0.04848857 0.023156336 0.030858181 0.08044194 -0.103550315 0.026665788 0.024243848
-0.035260823 0.0162151 -0.07097038 -0.02100686 0.021915322 -0.005699256 -0.015523729 -0.040717628
0.0678546 0.009389859 -0.05821885 -0.046960376 -0.1017754 -0.114419445 0.11325159 -0.04680059
0.08545456 0.019902961 -0.054986067 -0.1395603 0.06988163 0.034428142 0.083871566 -0.0025386838
0.052455366 -0.15887512 0.10560784 0.11334974 0.042526037 -0.02447947 0.036412667 0.12979941
-0.031756967 0.08377576 -0.026891777 0.068074726 0.0062091826 -0.038190242 0.06347955 0.08322967
0.04453668 0.009914828 0.017950911 -0.024693685 -0.020223882 0.07960476 0.01833751 -0.018249286
00000000: 69ea 9b3c d8f3 b3bd 579e 623c a942 2ebd
00000010: 5b80 803c 9a64 c13d 418c 723d b764 bb3c
00000020: d1bd 49bc 1193 c1bb 25e5 ef3d 5b24 03bd
00000030: 7f95 1b3d 89a5 6a3d 56ae d1bd 76c5 8c3c
00000040: 2041 083c 4e39 89bd f2c2 943d c4d1 6c3c
00000050: 5296 cabc 0ba9 a53d c865 1bbd 7d28 4cbd
00000060: 133a 46bc e74d 62bc 7957 bf3d 3895 8c3c
00000070: de52 e6bc b514 e0bc 068f 973d dd66 bc3c
00000080: 6769 94bd 1952 fb3c 5947 9a3d 89fd 9abb
00000090: 1990 a1bd 741d 4ebc 6109 9b3d cfba abbc
000000a0: 5f95 b7bd 33fa aabd b13d 99bc b541 e83c
000000b0: 2764 ad3d e3c4 7d3d 09b4 f33c ed3e 0d3c
000000c0: d950 423d 82c8 d83d e86d 94bd 9911 d5bb
000000d0: b800 563d 9c58 c23d 9859 25bd 065b 093d
000000e0: 24a9 df3c 6172 98bd b21c 133e ac7f 393c
000000f0: 093d ca3b e03b e9bd a9f2 1fbc 7f8b 8e3d
00000100: d66a 44ba 4a71 0a3d 33dc 9cbd 2d27 abbd
00000110: 94ad c03d b08c 01bd 23a0 023d 2144 233c
00000120: 5461 453d e2ff 16bd 82d3 7a3d dd87 dabc
00000130: f939 9abc e519 a53c ce8b 9cbd 997a 3e3d
00000140: 02c2 913d d993 ab3d bb5a fbbc 7523 70bc
00000150: 32a1 dc3c e826 573b d07e 6e3d ac31 8c3d
00000160: 0c26 6c3b d9f1 153b 015b be3c 5387 60bc
00000170: cc46 dbbd f499 22bc 67ea d63c 8961 4b3c
00000180: ef59 c63d f95d ebbc b9f6 d03d ee22 683d
00000190: 14cd c5bc ba3c 353c e820 933c e816 aabd
000001a0: 80d1 cf3a a339 993c daf2 1a3c eb56 5a3d
000001b0: 4bad c43d a836 88bd 44fd b43c 33c2 c63b
000001c0: 8c73 21bc bdcf d23c af5b 683d 6de4 c8bd
000001d0: d159 f6bc 29ac ae3c 444a de3d 2bc0 9bbd
000001e0: d062 f93b f707 31bd cab7 5e3d dda6 80bc
000001f0: ba10 4a3d f759 9ebd 6c3e 8ebd 6c92 6039
00000200: 40d9 803d 650a bc3c 0afb 8bbd d2bc 6fbd
00000210: 2f48 b6bd cd45 403d 485e 273c 22b9 d13c
00000220: 6588 46bc 3530 f8bc 7a13 88bc a816 26bb
00000230: 6c5b 2c3d 77e0 8c3c 496c d83b a55a 74bd
00000240: 2be2 8c3c b6d7 cd3d a8b1 0cbd 7a52 68bd
00000250: fc44 4bbc f424 a3bc 3867 5f3d c023 7cbd
00000260: 687f ac3d 4ca6 293c 69c0 883d 217d 8ebd
00000270: ac2c 67bd 5812 c23c 1283 9bbd 70ca 73bc
00000280: 5cac 973c a704 3a3d f0f4 23bd 9263 6dbd
00000290: acc6 2e3c 916c 913b 2cb5 083b 8c56 2c3d
000002a0: c684 1eba c2e8 fd3c c987 77bd e7f1 b53c
000002b0: 0902 023d 5577 eabb bedd df3c af7b ac3d
000002c0: 5faf 65bd cd67 39bd abd1 9c3c 4910 043e
000002d0: d4ab abbc 22f8 82bd 8f79 ecbd dd2c 36bc
000002e0: 9436 ee3d 19e8 7a3c 0c22 e23c 6a3a 21bd
000002f0: 8c7d fbbc 3c59 aebc bd13 b73d a9b3 8f3a
00000300: 3684 c7bc 090b 96bd 9c85 86bd 6328 b63d
00000310: 8c1e 41bd 4648 8a3d 2aa0 11bd d846 b33c
00000320: bf5f 13bd f39b 46bd 5bb2 bd3c 4cca fc3c
00000330: bebe a43d 3012 d4bd 3672 da3c 099b c63c
00000340: a76d 10bd 88d5 843c eb58 91bd 9416 acbc
00000350: c387 b33c d3c0 babb 3d57 7ebc 87c7 26bd
00000360: 5af7 8a3d ecd7 193c e476 6ebd 8659 40bd
00000370: 9f6f d0bd be54 eabd 73f0 e73d fab1 3fbd
00000380: cd02 af3d 890b a33c 1239 61bd e5e8 0ebe
00000390: 1a1e 8f3d 8604 0d3d dbc4 ab3d 0c60 26bb
000003a0: 70db 563d 29b0 22be ec48 d83d e923 e83d
000003b0: c82f 2e3d 2b89 c8bc 7325 153d 23ea 043e
000003c0: 9813 02bd a092 ab3d 254c dcbc c36a 8b3d
000003d0: 6676 cb3b 5f6d 1cbd 9101 823d 5174 aa3d
000003e0: 186c 363d ce71 223c ca0d 933c 694a cabc
000003f0: 8eac a5bc d207 a33d 8c38 963c 877f 95bc

block.4.bias f4 [128]
-0.017271966 -0.03448064 0.0017081457 -0.026121942 -0.0020261465 -0.012862192 -0.03563096 -0.054406304
0.030595472 -0.002342205 0.022122776 0.007260902 -0.03928162 0.04097185 -0.037949413 -0.01958406
-0.026881391 -0.05458189 0.0061683976 -0.047925476 0.024119675 -0.033271097 -0.013347657 -0.059726406
-0.022141993 0.0066158734 -0.039623648 0.012948495 -0.04174248 0.02281216 0.053090032 -0.027983382
0.03863748 0.010637456 0.0036984244 -0.0045846454 -0.046211734 -0.043379836 0.010443438 0.0038468312
0.010901761 0.009973755 -0.018723488 -0.0033453424 -0.056971125 -0.0033207615 -0.007840715 0.014164644
-0.053906552 0.03163425 0.0056400015 0.05708899 0.013907836 -0.0024335543 0.026133785 -0.048069574
-0.008277483 -0.046307344 -0.05156407 -0.00847165 -0.05934145 0.048640464 0.012185439 0.02650357
-0.010986939 -0.045109462 0.05444795 0.028295001 -0.035934824 -0.031012014 0.03465075 0.05836831
0.0369298 -0.03938792 -0.0529062 0.055156175 -0.058066104 -0.0058031925 0.04161437 -0.050684564
0.018945826 -0.0032109644 -0.05631304 -0.029324284 0.0281391 0.057024527 0.0051656165 -0.047747836
-0.0029947027 -0.039715365 0.02590513 0.0320867 -0.056841154 0.056760293 0.0076253535 0.055837825
0.032214794 -0.058886442 0.02733929 -0.06326207 0.020723512 0.006215831 0.021126186 -0.039939746
0.000692999 0.00020139008 -0.028227206 0.047552288 0.036239304 0.0028371387 -0.050420932 -0.034038313
0.011548907 0.019724887 -0.025714051 -0.049816705 -0.0008357247 0.030444372 -0.011970348 -0.03993752
-0.042236708 -0.04070196 -0.043258518 -0.031095887 -0.013415425 0.042130906 -0.0003568931 -0.051559795
00000000: f07d 8dbc 923b 0dbd dce3 df3a affd d5bc
00000010: 19c9 04bb f1bb 52bc c5f1 11bd 25d9 5ebd
00000020: 5ba3 fa3c ae7f 19bb d33a b53c dcec ed3b
00000030: c4e5 20bd 19d2 273d d870 1bbd c06e a0bc
00000040: 5d36 dcbc 4391 5fbd 4520 ca3b 814d 44bd
00000050: a096 c53c 4647 08bd 22b0 5abc ada3 74bd
00000060: 2063 b5bc f8c9 d83b 684c 22bd ed25 543c
00000070: 2afa 2abd 91e0 ba3c ef74 593d 683d e5bc
00000080: 5642 1e3d b948 2e3c 4461 723b cb3a 96bb
00000090: 8448 3dbd 0eaf 31bd f41a 2b3c 1e1b 7c3b
000000a0: 4d9d 323c f668 233c 0062 99bc 883d 5bbb
000000b0: 8e5a 69bd 22a1 59bb 5876 00bc d312 683c
000000c0: 1ecd 5cbd ea92 013d c3cf b83b 25d6 693d
000000d0: b1dd 633c 447c 1fbb 8516 d63c 9ae4 44bd
000000e0: 489e 07bc c5ac 3dbd d934 53bd adcc 0abc
000000f0: 0510 73bd 393b 473d 6fa5 473c 041e d93c
00000100: 9002 34bc b3c4 38bd d004 5f3d ebca e73c
00000110: 6530 13bd e80c febc f2ed 0d3d 9c13 6f3d
00000120: b443 173d 3a55 21bd 2cb4 58bd 71eb 613d
00000130: b9d6 6dbd b528 bebb d473 2a3d 9e9a 4fbd
00000140: 4734 9b3c 0b6f 52bb 81a8 66bd 7b39 f0bc
00000150: f883 e63c 8d92 693d 5544 a93b 3c93 43bd
00000160: c642 44bb 94ac 22bd ff36 d43c 586d 033d
00000170: 45d2 68bd 7b7d 683d 1ade f93b 34b6 643d
00000180: a9f3 033d e932 71bd a6f6 df3c 8b8f 81bd
00000190: 5bc4 a93c 2bae cb3b d310 ad3c dc97 23bd
000001a0: 60aa 353a 3d2c 5339 be3c e7bc 30c6 423d
000001b0: aa6f 143d 4aef 393b 2e86 4ebd c26b 0bbd
000001c0: a037 3d3c 1696 a13c 46a6 d2bc 9a0c 4cbd
000001d0: 8914 5bba 7a66 f93c 471f 44bc 8695 23bd
000001e0: 6600 2dbd 19b7 26bd d82f 31bd cdbc febc
000001f0: 5fcc 5bbc 7591 2c3d 621d bbb9 5d30 53bd

block.5.weight f4 [128]
1.0726975 0.96886915 1.0633453 1.0251738 1.0014561 0.93120915 1.0511323 1.0726157
0.97645414 1.043026 0.96963876 1.0470991 0.96438205 1.0246034 0.96481884 0.9585918
0.9258895 1.0179249 0.89337635 1.0729421 0.9397043 0.9980576 1.0464714 0.9442975
0.9335013 0.9938587 1.0253468 1.0605415 1.0528588 1.0055423 0.96165705 1.0201209
1.0229479 0.99939764 1.0438806 0.9641797 0.97099054 0.97269994 1.0337541 0.99837095
0.9796717 1.0651203 1.0468932 1.0358088 0.92684036 0.9892056 1.0553553 0.9920634
0.89337105 0.91046375 0.96197045 1.0790222 1.0125087 0.96758413 0.94087756 0.985214
1.026212 0.9934125 1.0085862 1.0534117 1.0638454 1.0519116 1.0576054 0.98014885
0.9658857 0.96495986 1.0833771 1.0755129 0.99020857 0.9879599 0.96467066 0.9472504
0.9999634 0.95640093 0.97172976 0.9494858 1.0498908 0.97567403 0.9989797 1.0010723
0.9626437 1.067791 0.9989669 0.98073995 0.9391281 0.99620235 1.016953 0.99207157
1.0325818 1.0444951 0.9371137 1.0120952 0.9946203 0.93417114 0.93227166 0.9013401
0.94336885 0.996277 1.1085827 0.9117698 0.9515064 0.9477728 1.0031011 0.9914728
1.049235 0.9753092 1.014931 0.9789355 0.96597034 0.98796314 1.0177218 0.985269
0.9303052 0.96325445 1.1161464 1.0432825 1.0764794 0.95630765 1.0314343 1.0793257
0.93386126 0.93925494 0.99801797 1.0253581 1.0129292 1.0042918 1.0398676 1.0076029
00000000: 274e 893f cf07 783f b31b 883f e538 833f
00000010: b72f 803f b963 6e3f 818b 863f 794b 893f
00000020: e6f8 793f e081 853f 3f3a 783f 5807 863f
00000030: bee1 763f 3426 833f 5efe 763f 4666 753f
00000040: 1807 6d3f 5d4b 823f 50b4 643f 2b56 893f
00000050: 7690 703f b480 7f3f c6f2 853f 7bbd 713f
00000060: f1f9 6e3f 866d 7e3f 903e 833f d3bf 873f
00000070: 14c4 863f 9cb5 803f 282f 763f 5293 823f
00000080: f5ef 823f 86d8 7f3f e19d 853f 7bd4 763f
00000090: d692 783f dd02 793f 0e52 843f 3d95 7f3f
000000a0: c4cb 7a3f dd55 883f 9900 863f 6295 843f
000000b0: 6945 6d3f 943c 7d3f e215 873f def7 7d3f
000000c0: f7b3 643f 2714 693f b243 763f 661d 8a3f
000000d0: e399 813f 98b3 773f 5add 703f fc36 7c3f
000000e0: ea5a 833f 4850 7e3f 5a19 813f 32d6 863f
000000f0: 162c 883f 0aa5 863f 9d5f 873f 09eb 7a3f
00000100: 4944 773f 9c07 773f 1aac 8a3f 68aa 893f
00000110: 4f7e 7d3f f1ea 7c3f a8f4 763f 017f 723f
00000120: 9afd 7f3f b1d6 743f 48c3 783f 8011 733f
00000130: d262 863f c6c5 793f 22bd 7f3f 2323 803f
00000140: d16f 763f 60ad 883f 4bbc 7f3f c611 7b3f
00000150: b36a 703f 1e07 7f3f 842b 823f 67f8 7d3f
00000160: a42b 843f 04b2 853f afe6 6f3f 568c 813f
00000170: 709f 7e3f d725 6f3f 5ba9 6e3f 3abe 663f
00000180: 9f80 713f 020c 7f3f 0ae6 8d3f bf69 693f
00000190: ec95 733f 3da1 723f 9e65 803f 29d1 7d3f
000001a0: 554d 863f ddad 793f 42e9 813f 849b 7a3f
000001b0: d549 773f 27eb 7c3f b544 823f 973a 7c3f
000001c0: 7b28 6e3f d897 763f e3dd 8e3f 488a 853f
000001d0: 14ca 893f 94d0 743f 0a06 843f 5827 8a3f
000001e0: 8811 6f3f 0373 703f 1b7e 7f3f ef3e 833f
000001f0: aaa7 813f a28c 803f 621a 853f 22f9 803f
