model/des_w2_rc75.pth (torch, 739487 bytes, 19 tensors)

block.0.weight f4 [256, 512]
00000000: c2a7 a0bc d0da a2bc 7483 9dbc 1a17 ac3d
00000010: 10ac 743d ac9d 7dbd c1d9 ab3c ab4a 8e3d
00000020: 5908 a53a f770 b5ba 6dbf 82bc d9e9 d23b
00000030: 61a7 303d f14d 6bbc 4783 abbd 8571 0e3d
00000040: 463b f6bc 6498 3cbb 6389 76bc 0067 3dbd
00000050: d80e fc3c a5b2 3b3d bd78 05bc 9152 893c
00000060: 3683 573c 3dcc cc3b 3d4e 58bd 24cf 563d
00000070: eb0b 413c 65a2 4f3d f56b d0bb bbed d5bd
00000080: a97b 143d b8df 963d f1a4 973c 49f5 9cbc
00000090: 71e5 853d 1aad 2fbd 805d 6d3c ce5d 003e
000000a0: 7573 46bc 4568 043b 7bcf a03c b79e 913d
000000b0: 1b37 713d a087 2cbd 4b2a 803d e17e 6dbd
000000c0: 3d49 ccbc 69dd 36bd 9fe0 b83c 11c4 0bbd
000000d0: 92e1 babb 98b9 963d 0574 183c f4a1 20bd
000000e0: aa87 413d 1839 0a3d 053c 9bbc d069 b03d
000000f0: bd92 873d 59d5 773d 24ef 813d 7f2c 253c
00000100: 67a9 543d 1f71 e3bb 6709 08bd e989 86bd
00000110: afc8 b9bc 37ea d63c 5cc9 043d 67c6 21bd
00000120: 651c 913d 394a 21bd 09f2 4e3c 3376 a3bd
00000130: c166 803b 303e 5e3c 4ccf 31bd 222d 14bd
00000140: a7a0 873b 0d26 f03c bffe 943d 8a7c 2f3d
00000150: 11ab 423d c21c 9d3c 5b3e 8e3c dacd b83d
00000160: 3b68 aa3d 8ecb 883c 47a4 83bc 57db 0b3d
00000170: 7242 8abb a428 efb9 6262 2b3d caeb 0b3d
00000180: 512a 8e3c 7368 533d e65a 8abd 2e44 15bd
00000190: 3304 953d 32a9 17bb 59c5 16bc c84f 5fba
000001a0: 46bb bdbc 2ed6 343d 3020 0abd c3a6 1abb
000001b0: f907 79bd 48f4 46bd 5142 143c eaa9 493c
000001c0: ea1e 313d 1ede 73bd 7e13 be3b 27ab c8bc
000001d0: e801 17bc bd9f 06bd 7199 1b3c 04bd 24bc
000001e0: 185b 63bd 41f7 493d 52da 97ba 4481 11bd
000001f0: a281 75bc f981 8bbc a7e4 a7bd d25a 4b3d
00000200: 47fb cd3c 4009 8fbb c679 ebbc 7596 3abd
00000210: dad7 5dbd 6859 6fbb 340f a33c 5474 e1bb
00000220: 5c65 923d c29d 043d d1b1 8abc 70d6 11bd
00000230: abcd 8e3d 758c febc f294 903b 70da afbc
00000240: 1710 483c 2b6d ccbc 2bce 4bbc 8be1 093e
00000250: 0d50 f63c 100c 6f3d 94cd 39bc b145 83bc
00000260: 6573 303d 1366 68bc b64c 3bbc f456 863c
00000270: 168d 86bd 97d1 3e3c 2b4d be3d 0e47 03bd
00000280: 0b4b 823d 826b 273d ee75 d6bc 2209 b63d
00000290: a41a 003c f397 843c 55bc dd3c caea edbc
000002a0: a3b5 9b3d d344 4ebd bd0d 2cbc 3042 e8bc
000002b0: a7e8 c03a d65f 03bd 0866 aabc 82ab 84bd
000002c0: 3940 c33c 3d03 1d3d 220e dcbc df9c 473c
000002d0: bc04 cfbc 82e1 873d 1740 7d3d 8ec1 26bd
000002e0: 37a6 ae3c 52f1 9cbd 53f5 78bd 755b 37bd
000002f0: 897a e43c 2d62 9ebd a996 39bc 4ac7 7abd
00000300: 660a d2bc 3903 51bb 38ae 513d b261 2dbd
00000310: 1479 0cbc 2811 993c 22b2 2ebd c50a 163c
00000320: 3cf4 323c aaa9 923c 6861 13bd 8bf0 993c
00000330: 1e84 3e3c ffd4 b93b cf55 1a3d 8191 a23c
00000340: 5676 d4bc b767 17bd 0f71 063d d831 29bd
00000350: 0980 c73c b8d1 983d 5860 793c 1f96 6abc
00000360: bd58 423d ae09 43bb afb5 34bd ea52 03bd
00000370: a681 11bd dea0 b23b d31f bbbd 8911 aa3c
00000380: 067f 1e3d ee90 80bd e4c5 353d 2455 883c
00000390: 0547 8b3b db15 cc3c 88a2 833c d5ea b8bb
000003a0: 2d48 6cbd 67aa 673d e434 0e3c 9a1e a7bc
000003b0: 82a4 10bd 56e0 aabc eca0 3abd 71a2 3cbd
000003c0: 7d6d 5bbc 9f6e 013d 022d be3c ae3f dabb
000003d0: ca0a a5b9 5c68 423d 839e 223d af04 e33c
000003e0: 029f a1bd 5638 6d3c 643c d0bb 7a35 40bb
000003f0: 0b9a 0f3d 15c3 2a3c 758f dabc f668 78bc
-0.019611243 -0.019879729 -0.01922772 0.08402844 0.059734404 -0.061917946 0.020977857 0.069478355
0.0012590989 -0.001384287 -0.01596042 0.006436568 0.043128375 -0.014361844 -0.083746485 0.03477623
-0.03005756 -0.0028777355 -0.015047404 -0.046240807 0.030768797 0.045824666 -0.008146462 0.016763004
0.013153842 0.006249933 -0.05280899 0.05244364 0.011782627 0.05069198 -0.0063605257 -0.10445734
0.036250744 0.0736689 0.018511267 -0.01915993 0.06537903 -0.042889692 0.014487624 0.12535784
-0.012112488 0.002020375 0.019630184 0.071103506 0.058890443 -0.04212153 0.06258067 -0.05798233
-0.024937266 -0.044644747 0.022568045 -0.03412253 -0.0057031596 0.07359618 0.009305005 -0.03921695
0.04724852 0.033745855 -0.018949518 0.08613932 0.06619785 0.0605062 0.063444406 0.0100814095
0.051919367 -0.0069409753 -0.03321209 -0.06569273 -0.022678701 0.02623473 0.032418594 -0.03949585
0.07085494 -0.039377425 0.012630948 -0.07981529 0.003918499 0.013564631 -0.043410584 -0.036175855
0.0041390243 0.029315019 0.072751515 0.04284338 0.047526423 0.019178752 0.017363718 0.09023638
0.08320662 0.016698625 -0.016069544 0.034144726 -0.0042193467 -0.00045615912 0.041841872 0.034160413
0.017354162 0.051613282 -0.06755619 -0.036441974 0.072761916 -0.002314162 -0.009202325 -0.0008518663
-0.023160588 0.04414957 -0.033722103 -0.0023597933 -0.06079862 -0.04857281 0.009049014 0.012308577
0.043242373 -0.059538 0.0058006635 -0.024495674 -0.009216763 -0.032867182 0.0094970325 -0.01005483
-0.055506796 0.049308065 -0.001158545 -0.035523668 -0.01498452 -0.01702975 -0.08197909 0.04964716
0.025144232 -0.0043651164 -0.02874459 -0.045553643 -0.05416093 -0.0036521796 0.01990471 -0.0068803225
0.07148239 0.032377012 -0.016930493 -0.035604894 0.06972822 -0.031072835 0.004412287 -0.021466464
0.012210867 -0.0249544 -0.012439291 0.13464944 0.030067468 0.058361113 -0.011340518 -0.016024442
0.0430788 -0.014184493 -0.0114318635 0.016398884 -0.06569879 0.01164665 0.09292062 -0.032050185
0.063619696 0.04087401 -0.02617928 0.08888461 0.007818852 0.016185736 0.027067343 -0.02904262
0.07603004 -0.050358605 -0.010501322 -0.028351873 0.0014717773 -0.03207382 -0.020800605 -0.06478025
0.023834335 0.038333166 -0.026862208 0.012183397 -0.025270812 0.06634809 0.0618287 -0.040711932
0.021319492 -0.07663216 -0.060780834 -0.044764955 0.02789046 -0.07733569 -0.011327424 -0.061225213
-0.025639724 -0.003189279 0.05119154 -0.042329498 -0.008573789 0.018684939 -0.04265035 0.009157841
0.010922488 0.017903168 -0.035981566 0.018791458 0.011628179 0.005671143 0.03767949 0.019844772
-0.025935333 -0.036964145 0.032822665 -0.0413073 0.024353044 0.07461876 0.015220724 -0.014318018
0.04744791 -0.0029760408 -0.04411858 -0.032061495 -0.035524033 0.005451306 -0.09136929 0.020760315
0.038695358 -0.06277643 0.044378176 0.01664216 0.0042504095 0.024912765 0.016068712 -0.0056432285
-0.05768602 0.056558993 0.008679602 -0.020400334 -0.035313137 -0.020858925 -0.045563623 -0.046053354
-0.013392803 0.031599637 0.02321482 -0.0066604232 -0.0003147929 0.047462806 0.03970195 0.027712194
-0.078916565 0.014478764 -0.0063548554 -0.002932875 0.035059016 0.010422488 -0.026679734 -0.015161743

block.0.bias f4 [256]
00000000: 604b 5c3c d7c9 ed3c 3e59 e1bb bee4 1e3d
00000010: 9def 4ebd 5f47 0b3d 00b5 c9bb f931 873c
00000020: 5644 a6bb 0773 b5bc b4d3 c33c ec16 bc3c
00000030: b4ce a6bc 65c2 4a3d 0a49 c2bc 3a95 66bc
00000040: e172 7abd 8f70 413d 6a80 f6bc f6e4 1b3d
00000050: 0683 e9bc 1f99 8d3d 2be1 ec3c aae9 65bc
00000060: fd27 843c 3050 9cbc 6e5a 833b aa77 09bd
00000070: 2ff1 44bc 2c49 efbb 219b 043c c28e 9b3c
00000080: 9b6e 3fbd d4bb 2b3d b6d1 513c 3ede 40ba
00000090: 0923 d63c 6768 37bc 3116 2f3d 7feb 55bd
000000a0: 4697 9fbc 4531 ac3c fc78 dd3c b812 edbb
000000b0: a4b6 d43c bee4 e83c e4ef 1e3d 9121 613d
000000c0: 0429 ea3a 9744 f2bc 918a 9a3c 5de8 023d
000000d0: 4a03 883c 8621 943c 4dc8 81bb d33d ce3c
000000e0: 8f4d 92bc 88a7 22bd e96d c6bc 68be d63c
000000f0: 0b2c 373d 8049 eb3c 3e0d 923c 86d8 ae3c
00000100: 3991 473c b9c6 15bd 3982 c6bc 5a56 4c3d
00000110: dfe5 4bbd c4f7 2dbd b729 9dbc 45fb ea3c
00000120: d1ad ed3c f502 d2bc 288c 983c 6e14 69b9
00000130: 98a6 8c3c 4d44 7fba 4d83 53bc 3739 233d
00000140: c917 f0bb 5d2b 1c3c a663 493d 7d3c 6e3c
00000150: 28e7 38bd f351 f1bc b02e 3fbd 0cd2 d7bb
00000160: 0171 9a3c ffa8 853d 73fb d63c 9ec2 8fbc
00000170: d640 c0bc d00b 843c 07a8 95bc 6e23 02bc
00000180: ab68 07bc a0bf e93c cfd0 1a3d d83a 243d
00000190: 93ef 33bc 3729 703c 2014 cbbc 71f8 acbc
000001a0: 7cc1 b9bc 2b0f 093c 123d da3c d71d e1bc
000001b0: 0f2c fb3c b15e 5fbd 3d44 2dbc 2d21 8d3c
000001c0: c364 013d d0f0 1f3d 3a98 35bb d14a 323d
000001d0: 7d67 143d e843 4ebd c856 5bbc c3fb c53b
000001e0: cd23 22bd a166 b83c 9e79 00bd 3ae7 dabc
000001f0: a509 28bd 3801 ed3c c0ca cb3c 4640 013d
00000200: acec 123d 2d7c d8bc b63c 4f3d 9d59 263c
00000210: e075 023d 627a 20bd de87 fcbc 4cc2 5fbc
00000220: 4485 b63c bcd7 86bd 5a2d f4bc e44d 35bc
00000230: ed01 e7bc 870d fd3a 6ef9 a7bb b881 f33c
00000240: 825a 8a3c d020 853b 765c 203d f157 99bd
00000250: 7261 4e3d 8b6f d03b e30a 293d 6ff4 8cbc
00000260: 3fbf fe3c 0c7f 933c 28c8 f43c 38c8 c5bc
00000270: d1ea 123b 33d0 1abd c833 943c fb16 51bc
00000280: 4580 cb3c 06b8 7e3c 90ae 68ba 7f1f 0b3d
00000290: 77fb 113d 0c22 1f3d 0bdb a63c 0a9f 94bb
000002a0: 8978 10bc 4237 863c b380 8cbc 6c92 003b
000002b0: b826 aebc 0266 3a3c bb67 003d 1794 fa3c
000002c0: c9a9 603d e6f4 fdbb 7ef4 6cbc 091b 413c
000002d0: 52c9 3ebd 8d22 063c d8e5 ff3c ae08 29bd
000002e0: 61ba 92bc a376 213c caf8 dd3c ddc8 9abb
000002f0: 2ca9 0e3d d833 bc3c 45bc 14bd f105 e03c
00000300: 807f cbbc 0646 bbbb 15a7 96bc ea1c 2fbd
00000310: be09 423d b2bb 973c f0ab aebc fbc6 553d
00000320: f530 873c 5a47 43bd d577 69bd f51d 5f3d
00000330: 0a6f e73c cda7 ebbb 8cac 53bc fc8f 363d
00000340: d85f 62bb c047 7cbd 7938 abbc 7846 3abc
00000350: fd0b 10bc 7dd7 ad3d 6463 02bc 21ab 023d
00000360: c78c 4a3d 4e09 4cbc d95a 6abc 1510 c23c
00000370: 088a 63bd f8c8 0ebd c63a 393d 431b 01bc
00000380: 2781 7d3c c654 213d bcc4 24bc d17c 9a3a
00000390: fb41 0dbd 68d0 433d 1915 933b 64d3 02bd
000003a0: 295a 5b3c 3d32 51bd 8e72 68bd 6a37 bf3a
000003b0: c52e 903c b748 0d3a 81c1 efbc a387 51bd
000003c0: fc89 20bd f6ed 1a3d 82d7 b43c 7435 dabc
000003d0: cc13 22bd 2f34 17bd 886f 02bd c686 bfbc
000003e0: 4b21 fbbc f973 303d 91d0 ef3c bf14 4f3d
000003f0: 69ad 1e3d 5d80 d2bc 543c 413c ae46 34bc
0.013445705 0.029026909 -0.0068770936 0.038792364 -0.05052148 0.03400361 -0.00615561 0.016503321
-0.0050740642 -0.022149576 0.023904659 0.022960149 -0.020362236 0.049501795 -0.023716468 -0.014073664
-0.061144713 0.047226485 -0.03009053 0.03806015 -0.02850486 0.06913971 0.028915962 -0.014032761
0.01613235 -0.019081205 0.004008583 -0.033561386 -0.012020393 -0.007302424 0.008093626 0.01898897
-0.04673634 0.041927174 0.012806347 -0.00073573354 0.026139753 -0.011194325 0.042745773 -0.05222654
-0.019481312 0.021019587 0.027035229 -0.0072348975 0.025965996 0.028429385 0.038802996 0.054963652
0.0017865007 -0.029573722 0.018864902 0.03195988 0.01660313 0.018082391 -0.0039606453 0.025175964
-0.017859248 -0.03971055 -0.024222331 0.02621384 0.044719737 0.028721571 0.01782858 0.02134348
0.01218062 -0.03656647 -0.024232017 0.04988704 -0.04977977 -0.042472616 -0.01918493 0.028684268
0.029013546 -0.025636176 0.01862152 -0.00022228222 0.017169282 -0.00097376556 -0.0129097225 0.039849486
-0.007327054 0.009531823 0.049167298 0.014540789 -0.045142323 -0.029458022 -0.046675384 -0.006586319
0.018852713 0.06526374 0.026242947 -0.017548855 -0.023468416 0.016118914 -0.018268598 -0.007943017
-0.008264701 0.028533757 0.03779679 0.04009518 -0.010982412 0.014658264 -0.02478987 -0.02111456
-0.022675268 0.008365433 0.026640449 -0.027480049 0.030660657 -0.054533664 -0.010575351 0.017227734
0.031590234 0.039048016 -0.0027709142 0.04352838 0.036231507 -0.05035773 -0.0133873895 0.006041975
-0.039584924 0.022509875 -0.031365983 -0.026721586 -0.041024823 0.028931245 0.024876952 0.031555437
0.03587024 -0.0264264 0.050595008 0.010153201 0.031850696 -0.039179213 -0.030826505 -0.013657164
0.022280343 -0.06584117 -0.029806782 -0.011065934 -0.02819916 0.00193064 -0.00512617 0.02972494
0.01688886 0.0040627494 0.039150678 -0.074874766 0.0503859 0.006360953 0.041270148 -0.017206399
0.031097053 0.018004917 0.029880598 -0.024143323 0.0022417794 -0.03779621 0.018091097 -0.012761827
0.024841437 0.015546804 -0.00088761095 0.033965584 0.035640206 0.03885083 0.02036812 -0.0045355605
-0.0088178 0.01638377 -0.017151212 0.0019618524 -0.021258697 0.01137686 0.031348925 0.030588193
0.05484942 -0.0077501414 -0.014462588 0.011786231 -0.046578713 0.0081869485 0.031237528 -0.041268043
-0.017911138 0.009854945 0.027096171 -0.004723652 0.034829304 0.02297394 -0.03631236 0.027346583
-0.02484107 -0.0057151346 -0.018390218 -0.042752184 0.047372572 0.018522117 -0.02132222 0.052191716
0.016502837 -0.047675468 -0.056999046 0.05447193 0.02825119 -0.0071916343 -0.012919556 0.044570908
-0.003454199 -0.061591864 -0.020900952 -0.01136934 -0.008791921 0.08488367 -0.007958267 0.031901482
0.049450662 -0.01245339 -0.014303886 0.02368931 -0.05555156 -0.034859627 0.045222066 -0.007880035
0.015472687 0.039387487 -0.010056671 0.0011786466 -0.034486752 0.047806174 0.004488599 -0.03193988
0.013388195 -0.0510733 -0.056749873 0.0014588658 0.017600426 0.00053895585 -0.029267075 -0.051154744
-0.039194092 0.037824593 0.022075418 -0.026636817 -0.03956966 -0.036915 -0.031844646 -0.023379695
-0.030655524 0.04307935 0.029274257 0.050556894 0.038739596 -0.025695974 0.0117941685 -0.0110031795

block.1.weight f4 [256]
00000000: 8950 763f 689b 873f 6049 713f 762c 793f
00000010: 1c7e 873f 2c24 753f 8ce8 7f3f 4775 723f
00000020: 72ad 813f ff8c 783f 0afb 713f cb53 823f
00000030: af47 7c3f 7e01 833f b3a6 813f ab2a 793f
00000040: 5d6e 803f 401a 833f 14ac 6e3f aed8 7e3f
00000050: 4ad7 6c3f 7349 823f ac02 813f 86b4 803f
00000060: 5f85 823f 8681 7d3f f379 773f 90d4 833f
00000070: 7b35 803f 9276 743f 81b5 683f fc05 7f3f
00000080: a2ed 773f 45df 7e3f 7ff6 783f ce38 823f
00000090: ac31 7e3f 4913 773f 0bdd 7b3f 5be6 813f
000000a0: da21 7d3f d286 803f f6c2 803f 6e18 7d3f
000000b0: 836d 833f f616 7b3f a246 853f 6e40 833f
000000c0: cdab 853f 59f8 783f 3289 813f 05a0 7c3f
000000d0: b532 713f efd2 843f 0bbd 803f 8cca 773f
000000e0: e914 783f 06dd 753f e866 823f 44ee 793f
000000f0: 329a 6e3f 1955 843f c710 7f3f b30e 793f
00000100: d4c4 833f aa41 7e3f 591a 7e3f f85a 803f
00000110: 129e 7c3f d0b6 723f 04a7 863f 3d09 7e3f
00000120: 4b17 7f3f 6ea4 803f 0eb5 763f 3136 873f
00000130: edd9 803f 2d09 713f ad56 823f e65c 843f
00000140: ed97 833f 9c80 853f fe50 863f 1860 813f
00000150: ea1c 753f 96d4 833f 1e50 7e3f e732 853f
00000160: 5c01 7d3f 72bd 763f 5e23 813f 9c93 7d3f
00000170: 8089 7e3f 4d4e 733f 032b 883f 7611 763f
00000180: a8b3 743f 7488 863f ec03 813f e467 7e3f
00000190: ab29 7f3f ca3c 833f 9cb7 7f3f da55 7b3f
000001a0: 7836 7b3f da9d 7b3f 4a6a 803f 6ab4 793f
000001b0: e892 803f 2a14 8d3f 0f96 7f3f c9d7 803f
000001c0: dd84 813f 4056 823f 197c 863f ef21 873f
000001d0: 3a66 813f de24 803f bcf6 7d3f e13c 7d3f
000001e0: 0c9e 6f3f 8fa2 763f 6617 813f ddc6 7b3f
000001f0: bfce 7d3f 4f68 793f 7862 793f 2f15 7c3f
00000200: 1e8d 813f 5aca 7f3f 9bac 7e3f fc88 823f
00000210: b8ca 7e3f b833 823f de8c 853f cff1 7c3f
00000220: af54 743f 509b 7e3f a26d 7a3f 8034 823f
00000230: 6195 7b3f 3ce9 803f edaa 763f 9d63 6c3f
00000240: 4b3b 873f 71b1 833f 8836 803f c6ab 823f
00000250: a3b4 7c3f 6053 813f b088 833f 7f2a 773f
00000260: a62f 793f 1e75 793f 39ab 693f 2d41 723f
00000270: 0a03 7d3f 06b8 6c3f c826 7c3f e1e3 7b3f
00000280: 21ad 7d3f c1ae 843f 22df 813f 1e15 7e3f
00000290: 290d 803f ac0c 7c3f 10da 7d3f 78da 843f
000002a0: 405e 873f 294a 7b3f 48b3 853f e78a 7e3f
000002b0: a3a4 7f3f a655 803f c148 753f 1883 823f
000002c0: 0b9f 853f 5303 803f 196e 783f c9fa 823f
000002d0: 6780 813f 281e 803f 33ea 813f 259d 813f
000002e0: 5c86 833f a768 783f b098 833f 0331 783f
000002f0: c5b7 803f b5f1 683f 6610 7f3f 9bf6 823f
00000300: e18f 773f 852a 803f e997 7a3f 0455 813f
00000310: 0a47 823f 44fc 813f ea8b 7d3f 59d0 863f
00000320: b4ec 883f fa19 803f 3898 833f cdd5 833f
00000330: 8420 823f cbea 7b3f b094 893f 0fd5 813f
00000340: 603e 753f ce3d 7a3f 7603 713f 7135 753f
00000350: 8dca 843f b130 763f 0a46 7a3f 6c68 843f
00000360: 8f14 833f 7094 6f3f 60c2 833f 5b44 883f
00000370: 77b9 7c3f b85b 753f d06a 8a3f 9c2e 853f
00000380: c63c 833f 9a75 843f e731 793f bbeb 763f
00000390: 5c1c 833f 2475 7c3f 2aca 743f 051d 863f
000003a0: d460 753f 07d1 803f 5298 843f 663c 7c3f
000003b0: e3c3 833f 3425 803f f715 853f b0eb 7f3f
000003c0: bf9c 7d3f dc67 7b3f 701b 7f3f 4028 793f
000003d0: c692 813f d6f2 7a3f 64ae 853f 1f6e 823f
000003e0: 7bbc 773f 000d 793f e488 833f cc99 813f
000003f0: 65e7 7e3f b2e4 753f 588c 713f 3a0f 843f
0.96216637 1.0594301 0.94252586 0.97333467 1.058536 0.9575832 0.99964213 0.947102
1.0131056 0.9709014 0.9452368 1.0181822 0.9854688 1.023483 1.0128998 0.9733073
1.003368 1.0242386 0.9323132 0.99549377 0.92516005 1.0178665 1.007894 1.0055091
1.0196952 0.9902576 0.96670455 1.0299244 1.0016321 0.95493424 0.90901953 0.99618506
0.96846974 0.9955943 0.97251123 1.0173585 0.99294543 0.965138 0.9838416 1.0148424
0.9887978 1.0041144 1.0059497 0.988654 1.0267795 0.9808191 1.041218 1.0254037
1.0443054 0.9725395 1.0119994 0.9868167 0.94218 1.0376872 1.0057691 0.96793437
0.96906906 0.9604038 1.0187654 0.9762919 0.93204033 1.033847 0.99634975 0.97288054
1.0294442 0.99318945 0.99258953 1.0027761 0.98678696 0.948102 1.0519719 0.99232846
0.9964492 1.005018 0.9637002 1.0563413 1.0066506 0.94154626 1.0182701 1.034085
1.0280739 1.0429873 1.0493467 1.010745 0.95747244 1.0299251 0.99341 1.0406159
0.988302 0.9638282 1.0088918 0.9905336 0.9942856 0.9504135 1.0638126 0.96120393
0.95586634 1.0510392 1.0079322 0.99377275 0.99672955 1.0252926 0.9988954 0.98177874
0.9812999 0.9828774 1.0032437 0.97540915 1.0044832 1.1021779 0.99838346 1.0065852
1.0118672 1.0182571 1.0506622 1.0557231 1.0109322 1.0011251 0.9920461 0.9892102
0.93600535 0.96341795 1.0085266 0.98350316 0.99143595 0.9742479 0.97415876 0.98469824
1.012119 0.9991814 0.99482125 1.0198054 0.99528074 1.0172033 1.0433614 0.9880647
0.95441717 0.9945574 0.97823536 1.0172272 0.9827481 1.0071177 0.9635456 0.923395
1.056497 1.0288526 1.0016642 1.0208671 0.9871313 1.0103569 1.0276089 0.9654922
0.9733833 0.9744433 0.9127689 0.946307 0.9883276 0.924683 0.98496675 0.9839459
0.990923 1.0365831 1.014622 0.9925097 1.0004016 0.98456836 0.9916086 1.0379171
1.0575638 0.98160034 1.0445337 0.994307 0.9986059 1.0026138 0.9581414 1.0196257
1.0439161 1.0001014 0.97042996 1.0232784 1.011731 1.0009203 1.0149597 1.0126082
1.0275378 0.97034687 1.0280972 0.96949786 1.0056082 0.90993816 0.996344 1.0231508
0.96703917 1.0012976 0.97888047 1.010407 1.0177929 1.015511 0.99041617 1.0532333
1.0697236 1.0007927 1.0280828 1.0299622 1.0166173 0.9840514 1.0748501 1.0143145
0.957983 0.97750556 0.94145906 0.9578467 1.0374314 0.9616805 0.9776312 1.0344367
1.0240649 0.9358587 1.0293694 1.064586 0.98720497 0.95843077 1.0813847 1.0404849
1.0252922 1.0348389 0.9734177 0.96453446 1.024303 0.9861624 0.9562098 1.0477606
0.95850873 1.006379 1.0358984 0.9852966 1.0294155 1.0011353 1.0397328 0.99969006
0.990673 0.9820535 0.9965124 0.9732704 1.0122917 0.9802679 1.0443845 1.0189856
0.96771973 0.9728546 1.0276151 1.012506 0.9957183 0.96052086 0.9435477 1.0317147

block.1.bias f4 [256]
00000000: 6f14 02bd 1338 9ebc f66b c3bd 9a5b a9bc
00000010: d02f 91bd 46ff 8dbd 7a67 0ebe 5eb5 bbbd
00000020: a588 92bc 9b9e 92bd ba42 e5bd 70e6 c8bd
00000030: 8b51 f73c 7b4d 45be 746d 7cbd b1ba bfbd
00000040: 9d01 ccbc 0055 d1bd 8227 64bd ab80 99bd
00000050: f397 00bd 0c08 90bd a188 e4bd 9716 a0bd
00000060: f6ea 6fbd 7899 cfbd f164 bdbd 3c27 e0bd
00000070: ef29 38be c262 e8bd 717b e1bd 1fca 8bbd
00000080: 036a d6bd b96f bebd c4a1 98bd 213d aabb
00000090: 72ae afbd d05f e4bd c0a0 9ebd 9c80 7ebd
000000a0: a725 44bd d2f7 96bd 29c0 81bd 0767 02be
000000b0: 3d0a 29bd f929 44bd b3ae cbbd 8268 b0bc
000000c0: 56e6 44bd 513f 10bd 8401 efbc 34dd a9bd
000000d0: 7cd1 56bc 82c7 13bd 6c7e b5bd 895c 83bd
000000e0: 98fb 92bd c5a3 8cbd bad5 42bd 5b48 36bd
000000f0: 644e d8bd cfe3 c0bd 1331 11bd 7b07 0cbe
00000100: 02ab afbd 3ae4 7dbd cf58 aebd 4ccb a7bd
00000110: 756c cebd f5e8 c3bb a3f4 5bbb ae67 e0bd
00000120: cfb7 1ebd 7140 9dbd 32a5 a0bd f03b cabd
00000130: c07c fabd d592 97bd 3748 c3bd 573d 97bd
00000140: 34e1 d0bd ca1e 6abd bc0b 013a 007f 8cbd
00000150: dee8 88bd 371b b5bd 231f c8bd fa03 72bd
00000160: 3ad9 0abe 04bc 05be 3039 b4bd d6eb 91bd
00000170: eb98 9cbd 75aa 9dbd 95a5 88bd a684 00be
00000180: 358a 95bd ec7f 2abc c77e a9bd 5c26 d4bd
00000190: 73fc 89bd 9095 4cbd 43ac d6bd a7b7 5bbd
000001a0: e7ef acbc c3e9 f2bd 27e9 95bd ce04 39bd
000001b0: 8c40 0dbe e014 b5bc 5295 b5bd 0ab1 87bd
000001c0: d607 adbd 12ee afbd afe0 69bd 44ca 77bd
000001d0: 6e84 99bd 6397 dabd 6052 8ebd 0625 cdbd
000001e0: 49ac 73bd c6ab 82bd 48b7 9bbb d475 e6bd
000001f0: 9e53 95bd 6427 32bd 692e 1cbe 59ee 63bd
00000200: 58c7 0abe e17d b8bd 72fd bdbd 9229 0bbe
00000210: 6edf 8ebd 755f cabd 8db7 94bd 2279 01be
00000220: ac06 9bbd dae5 aabd c794 58bd 0772 a3bd
00000230: 054d d2bd a47d 57bd 770b aebd 577d debd
00000240: 4c70 0bbd b4e3 19be 5902 8fbd c161 43bd
00000250: df8f 0abe 55c7 6abd ef82 2bbe d016 07be
00000260: 47b4 b0bd 1569 04bd e4e2 bfbd ea59 13be
00000270: a6ec 82bd 15a4 0abe 7152 8fbc 4193 d2bd
00000280: 6de6 d1bd 1afd 27bd b6d6 98bd ac16 debd
00000290: a565 a9bd 8045 adbd da9e abbd ef6f 333a
000002a0: 6eaf 99bd 9a3b cebd e107 86bd 0f25 f2bd
000002b0: 77c6 88bd 7812 a9bd 0724 d8bd 7c16 93bd
000002c0: 552d f5bc 3a90 cbbd 0ec8 82bd c150 d7bd
000002d0: eb81 d5bc e2bd edbd 3354 f9bd 1232 d2bd
000002e0: e809 c9bc e8a6 ecbd d883 ffbc a873 c2bd
000002f0: 4572 99bd e675 f4bd 468c e0bd 0dc9 b5bd
00000300: c500 d9bc 24b3 9dbd a75d 3dbe 1c1b e5bb
00000310: 23aa 0dbe 810c 8ebd 389c c8bd 19a8 b9bd
00000320: 60f9 f3bd 16e1 a6bd e471 93bc 355d 5fbd
00000330: eeb2 05be 4a48 c6bc 5d77 97bd 6a4d 8dbd
00000340: f375 74bd c74e 9fbd 5e67 61bd cfe0 00be
00000350: 8f20 9fbd 2de4 2fbe 8025 b0bd b9f1 18bd
00000360: 43ae 7abd c730 bebd b2c3 9fbd fe03 07bd
00000370: 453c 10be a529 debd 34b0 48bd 1f28 febd
00000380: 7fee 02bd 51bc e7bd 9e95 19bd 31c9 06be
00000390: 8b8d 64bd 9ff5 9cbd b81f 01be f40a c8bd
000003a0: 4b8b d4bd cfcf ddbd e343 a6bb 0a9f 91bd
000003b0: b07c 9ebd 1aaa a5bd a35e 0ebe 306f 2dbd
000003c0: 8a30 d9bd 49d1 b6bd 788c 8dbd 751e 82bd
000003d0: 6dcc 683c d362 a3bd 3b64 d0bc 1277 6c3c
000003e0: ab4a debd 52be 2bbe 5837 97bd 9fc0 f1bc
000003f0: f287 b53c aaa0 cbbd a530 04be 584f ab3c
-0.03175777 -0.019313848 -0.09542076 -0.020673562 -0.07089198 -0.06933455 -0.1390666 -0.091654524
-0.017887423 -0.07159158 -0.11194368 -0.098095775 0.03019025 -0.19267838 -0.06162782 -0.093617804
-0.024903113 -0.102212906 -0.05570174 -0.074952446 -0.03139491 -0.07032785 -0.111588724 -0.07816809
-0.058573686 -0.10136694 -0.09247769 -0.10944983 -0.17984746 -0.113469616 -0.11009873 -0.06825661
-0.10469439 -0.09298653 -0.07452729 -0.0051952754 -0.08578195 -0.11151087 -0.077455044 -0.06213437
-0.04788747 -0.07371487 -0.0633548 -0.12734614 -0.04126953 -0.04789159 -0.099454306 -0.021534208
-0.048071228 -0.035216633 -0.029175527 -0.08294144 -0.013111468 -0.036078937 -0.08862004 -0.06414134
-0.07176894 -0.06867174 -0.047567107 -0.044502597 -0.10561827 -0.09418451 -0.03544719 -0.13674729
-0.08577539 -0.061985232 -0.08513033 -0.08193073 -0.1007928 -0.0059786984 -0.0033562563 -0.10957275
-0.038749512 -0.07678307 -0.078440085 -0.098747134 -0.122308254 -0.07401053 -0.09535258 -0.073847465
-0.10199204 -0.05715827 0.0004922708 -0.06860161 -0.06685041 -0.088430814 -0.09771564 -0.059085824
-0.13559428 -0.13060004 -0.0879997 -0.0712506 -0.07646354 -0.07698528 -0.06672207 -0.12550601
-0.073017515 -0.0104064755 -0.08276134 -0.10358879 -0.06737604 -0.04994732 -0.10482075 -0.05364194
-0.021110488 -0.11860993 -0.07319861 -0.045170598 -0.13794154 -0.02210468 -0.08866371 -0.066255644
-0.0844876 -0.0859033 -0.05709904 -0.06049563 -0.07495962 -0.10673406 -0.069493055 -0.10016827
-0.059490476 -0.063804194 -0.0047520734 -0.11252943 -0.07291339 -0.043494597 -0.15252079 -0.055647228
-0.13552606 -0.090083845 -0.092768565 -0.13590077 -0.069762096 -0.09881488 -0.07261572 -0.12643865
-0.07569632 -0.08344622 -0.05287626 -0.07980733 -0.102685966 -0.052610055 -0.084982805 -0.108637504
-0.03404264 -0.15028268 -0.0698287 -0.047700647 -0.13531445 -0.057319004 -0.16749166 -0.13192296
-0.08628135 -0.032326777 -0.09369448 -0.14389768 -0.06392793 -0.13539155 -0.017495366 -0.10281993
-0.10249028 -0.04101286 -0.07462828 -0.10844168 -0.0827134 -0.08460522 -0.08379908 0.00068449875
-0.07504164 -0.10069962 -0.065444715 -0.118234746 -0.06678479 -0.08255476 -0.10553747 -0.07182023
-0.029928843 -0.099396184 -0.06385814 -0.105134495 -0.026062926 -0.11608483 -0.12174263 -0.102634564
-0.024540856 -0.11555272 -0.031190798 -0.09494716 -0.07492498 -0.1193655 -0.10964255 -0.08876238
-0.026489625 -0.07700184 -0.18492757 -0.006991757 -0.13834433 -0.06935979 -0.09795421 -0.09065265
-0.11912799 -0.081484005 -0.017998643 -0.05453225 -0.13056538 -0.024204392 -0.073958136 -0.06899531
-0.059682798 -0.077786975 -0.05503022 -0.12585758 -0.07769882 -0.17176886 -0.086009026 -0.0373399
-0.061201345 -0.09286647 -0.07800998 -0.03296279 -0.14085491 -0.10847787 -0.048996165 -0.12409996
-0.03196573 -0.113152154 -0.0374962 -0.13162686 -0.05579905 -0.07664036 -0.12609756 -0.09767714
-0.103781305 -0.10830652 -0.0050740107 -0.071104124 -0.07738626 -0.08089085 -0.13903289 -0.042342365
-0.10604961 -0.08926637 -0.06911558 -0.063534655 0.014208895 -0.079778336 -0.025438419 0.014432685
-0.108540855 -0.1677182 -0.07383603 -0.029510794 0.02215955 -0.099427536 -0.12909181 0.020911857

block.1.running_mean f4 [256]
00000000: 1eec 8f3c a76d d9bc 84a1 c2bc 9719 493d
00000010: 66d4 16bd c91b eabc 4e0b 283c 55c7 743d
00000020: 7dc3 8bbd ea2d a2bd 6aa0 613d 3106 903c
00000030: 7165 8abc 092b b13d 1d84 f5bc 0f6c 5f3c
00000040: b3cd a1bd fca4 1c3d 7c00 6fbd f31d 9b3d
00000050: aba3 edbc eafe 9f3d dff1 443d ebef 6fbc
00000060: 8cdd 91bc 3528 433c 2316 a33d f4df 06bd
00000070: fc07 4b3c 142d 4e3d d942 f03c 92e6 103d
00000080: 5e2f 01be 1597 9a3d d1af 0e3d 3a56 24bb
00000090: adf0 ba3d 9e24 8ebb e411 843d a11c b4bd
000000a0: 4fe8 5bbd ede9 613d 07ba 993b 1df9 d13c
000000b0: 8887 a63c 6c8d 3b3d da26 17bd a54d f13c
000000c0: b1d5 1fbd 9a5a 783c cfbe 143d 8825 523d
000000d0: ab65 b03c d847 b8bb 8117 dd3c 7e47 b63d
000000e0: 6cd6 68bd c858 c5bd 265c f6bd feb5 9f3d
000000f0: 8a90 f03d d29a 093d 712b 8fbd 6698 953d
00000100: 32cc c0bd 085e afbc ca62 41bd cfa1 c93c
00000110: dd08 aebd c09b 0fbe b3f8 35bd b192 0abc
00000120: 3fb9 723c 62ac 92bd f6f4 65bd 26cb 073d
00000130: e133 683d 1105 303d e1bb 13bd eba6 933c
00000140: 7097 cabc cf5c dfbd 9c80 ae3d 6298 323c
00000150: 8e56 e8ba 1f2d 773c e452 d1bd fd0e 733c
00000160: ba34 163d b06b f53d e8f9 5a3c 0dc4 7f3c
00000170: 9810 f4bc 5837 563c adda 98bc 4b95 e4bc
00000180: 3759 54bd 9ea2 65bb 9385 733d 939c 323d
00000190: a1ee f73b 163f 8a3d e4a7 dcbc 0228 3d3c
000001a0: 676b fa3c b21a 32bd 4d8a 413c 2080 5f3c
000001b0: 96b7 b13d bdf7 a1bd 5f26 c1bc 0457 4b3c
000001c0: 685d 383d 788c cf3d f5da d03c 387a 8fbb
000001d0: 549e 953c 882d 9dbd 8a38 37bc 22fa 21bc
000001e0: 2214 b8bd 11a8 d4bc 8ff6 d93c 0338 8a3c
000001f0: 2c9e c9bc 3c56 ce3c 91e7 243d 153d 3f3d
00000200: 58f0 053d 01d3 b9bd 57b5 7d3d 4caf d63c
00000210: 588b 91bd 220a 6cbd cdfd 7e3c 223b 213d
00000220: 8c28 f53c 7afc 10bd 373e b7bd c700 8f3a
00000230: da97 c8bc 1506 77bd aa74 733c 4228 2b3d
00000240: f56a 063e b81e 813d 8c33 a63d 1dcd 9dbd
00000250: 569e babc 24a8 3dbd d7c6 a03d 86ea 323c
00000260: 5852 2e3d c378 d3bd d3f3 ad3d 0714 34bd
00000270: 78a5 a83d da5c aebd 5b90 7d3d 9303 0bbc
00000280: 0263 2f3d 7e44 d43c e2f0 3ebd 7d69 05bc
00000290: 148c b13b 7783 8bbb 4ec4 f73a 99e9 7dbc
000002a0: 73c7 da3b 6969 493d 14e4 ebbc 6eff 35bd
000002b0: 0b70 28bd d36e 64bb 585b f33c 9c9a 103d
000002c0: 19e1 493d ccb6 97bb 5442 493d aecb cfbb
000002d0: ce58 edbd 463f 163d 9816 c13d 4997 03bd
000002e0: 2dad 9ebb 0c87 bebb 90bf 6cbb 2c49 833c
000002f0: 8d12 af3c 1dc8 7a3b f63a b4bc 77df 353c
00000300: f4c1 79bd 3ed4 3cbd d0aa efbc f9db 36bc
00000310: e2a5 04bc e361 1f3d 6bda 743c 2a20 993d
00000320: 4c42 393c 4d09 e53b fd34 bcbd ef1c 983d
00000330: 399b 29bc 7a99 3c3d a402 89bd 8f88 a23d
00000340: 8bb4 9e3d ebbe 1abe 21bf 0abd 5bf6 be3c
00000350: 0d19 45bd 3129 fc3d 8d87 d03c a6d5 353d
00000360: b013 493d e82f 3f3d 14b5 97bd 285b e13d
00000370: a51c 0cbc 2f43 c7bd 981d de3c 3669 cdbd
00000380: 0385 193d 8161 ffbc 2180 93bd 3e8f 353c
00000390: 022c 503b 8e6c ad3c ba3f 833d 83ca 6abd
000003a0: 12b7 cf3c ae6e 98bd 4374 2dbe dbac ebbc
000003b0: 1318 4f3d 184d ed3c 5f3d 203d c0dc babc
000003c0: 2b3f de3c 9e24 f3bb a6b7 0b3d 6eb8 a6bc
000003d0: fdce 04bc da01 9fbd e021 2bbc 5772 a3bd
000003e0: 4f5f 763d c6cb c23d 420c 683d 4fb8 74bb
000003f0: 8c24 89bc 63a5 b0bb cb8d 26bd 7b08 9ebc
0.017568644 -0.026541544 -0.023758657 0.04909667 -0.036823653 -0.028577702 0.0102566015 0.05976041
-0.06824396 -0.07918914 0.055084623 0.017581077 -0.016894074 0.086507864 -0.029970223 0.013636603
-0.07900562 0.03824328 -0.05835007 0.07574072 -0.029008707 0.07812293 0.04808223 -0.014644603
-0.017805837 0.011911442 0.079632066 -0.032928422 0.01239204 0.05033596 0.02932875 0.03537614
-0.12615725 0.07548348 0.03483564 -0.002507581 0.091279365 -0.004337861 0.06448725 -0.08794523
-0.053688344 0.05515473 0.0046913656 0.025631482 0.020328298 0.045789167 -0.036902286 0.02945597
-0.03902215 0.01515832 0.03631478 0.051305324 0.021532854 -0.005623799 0.026988747 0.08900355
-0.056845114 -0.09636074 -0.12029295 0.07798384 0.11746319 0.033594914 -0.06990708 0.07304458
-0.09413947 -0.021407142 -0.047213353 0.02461329 -0.08497784 -0.14024258 -0.04442663 -0.0084578255
0.014814674 -0.07161786 -0.056141816 0.03315272 0.0566901 0.04297358 -0.036067847 0.018023929
-0.024730414 -0.10906374 0.08520624 0.010900589 -0.0017725991 0.015086441 -0.10220888 0.014835116
0.036671378 0.119834304 0.013365246 0.015610707 -0.029793069 0.013074718 -0.01865896 -0.02790322
-0.051842894 -0.0035039554 0.05945356 0.043606352 0.0075662886 0.06750314 -0.026935525 0.011545183
0.030568792 -0.04348249 0.011812759 0.013641387 0.08677594 -0.079085805 -0.023577867 0.012410883
0.045010954 0.10134214 0.025495032 -0.0043785833 0.018263973 -0.076747 -0.011182914 -0.0098862965
-0.08988215 -0.025959047 0.026606826 0.016872412 -0.024611555 0.025187604 0.0402599 0.04668911
0.032699913 -0.09073449 0.061940517 0.026206635 -0.07106656 -0.05762685 0.0155634405 0.039363034
0.02992656 -0.03539703 -0.089474134 0.0010910266 -0.024486471 -0.060308535 0.014859358 0.04178644
0.13126738 0.06304687 0.081153005 -0.07705138 -0.022780579 -0.04630293 0.07850426 0.010920173
0.042558998 -0.10325768 0.084937714 -0.043964412 0.08234686 -0.08513804 0.061905246 -0.008484739
0.04281903 0.025911566 -0.046616443 -0.008142826 0.00541831 -0.004257615 0.0018903108 -0.015497589
0.006676608 0.049172793 -0.02879528 -0.04443305 -0.041122478 -0.0034856095 0.029706642 0.035303697
0.049286935 -0.0046299454 0.04913552 -0.006341419 -0.11589204 0.036681436 0.094281375 -0.0321267
-0.0048424215 -0.0058144387 -0.0036124922 0.016026102 0.02137115 0.003826625 -0.022000771 0.011100641
-0.060975984 -0.046100847 -0.029256254 -0.011160844 -0.00809619 0.03891171 0.014944653 0.07476838
0.01130731 0.006989634 -0.09189794 0.07427394 -0.010351949 0.046044804 -0.06689957 0.07936203
0.077492796 -0.15111892 -0.03387368 0.02331083 -0.048119593 0.12312544 0.02545526 0.044393204
0.04909104 0.046676546 -0.07407585 0.11003715 -0.008551751 -0.09729611 0.02711372 -0.10029833
0.037480365 -0.031174423 -0.07202173 0.011081515 0.0031764512 0.021169927 0.06408639 -0.057322036
0.02535585 -0.074429855 -0.16938882 -0.028768947 0.05056007 0.028967425 0.039121028 -0.02281034
0.02712973 -0.0074201366 0.034110688 -0.020351615 -0.0081059905 -0.07764025 -0.010445088 -0.07980793
0.060149487 0.09511523 0.056652315 -0.0037341302 -0.01674106 -0.0053908094 -0.040662568 -0.019291153

block.1.running_var f4 [256]
00000000: 3b20 cf3a 7b63 0c3b e727 b73a 1de2 033b
00000010: 1a5e ed3a de8e c63a 5342 f33a 0bdf d73a
00000020: e3af 103b 2afa fd3a 4ee9 d53a e6d4 233b
00000030: ac2e 013b 4dd7 e53a da52 dd3a 1f71 d43a
00000040: 7e94 c83a 2fd2 033b 93de ef3a 47de d93a
00000050: 90d5 b03a 998e 083b 257e e03a 82bb 123b
00000060: d1ce d33a cf7b da3a d1af 023b 64d7 e83a
00000070: dc7f c73a c4e5 0a3b ab39 9e3a 419a e23a
00000080: 9d6d 043b 3854 1b3b 04c9 ec3a 80fe 033b
00000090: d30e e23a b6d1 e83a 05b6 0f3b 9925 d33a
000000a0: bc9b d13a 7542 023b 389f 0a3b 7583 9b3a
000000b0: 31e2 0a3b c1ac e73a 5fe4 ef3a 512e b83a
000000c0: 0b34 1c3b a8d1 d13a 6144 f73a 9d42 cc3a
000000d0: 3c3d c93a 1dd9 043b 7ff4 f73a 3ff9 013b
000000e0: 4eb1 c23a d5ea 113b 1966 0b3b d671 0b3b
000000f0: fbda e73a bbc8 fd3a 90e6 e93a f59b 113b
00000100: 7750 003b 29f3 ec3a 892d be3a dd4e f13a
00000110: c740 f33a e43e c93a 795d 0f3b fc33 063b
00000120: 51c3 ea3a 1a2c 2a3b 1c73 b43a faff 223b
00000130: 09f5 dd3a 2956 a13a 6e63 023b 38e5 bb3a
00000140: f236 083b 15d8 e13a e229 063b 341e de3a
00000150: c587 d13a 2405 d93a 81a1 e73a db97 043b
00000160: b57e a53a 05db 9f3a 0e56 033b 2d06 aa3a
00000170: e751 c63a c8ef f83a 2aea 133b 9b7b d23a
00000180: 7921 cf3a dc77 e43a 8f67 d43a 7747 eb3a
00000190: 08fd 083b d5b6 ea3a cccf 063b 97e1 f13a
000001a0: 94b2 e53a 81f2 e33a ec10 ec3a 7b6d 0e3b
000001b0: 8fe0 083b 45b9 f33a 0998 183b ee57 e83a
000001c0: e913 ee3a 5f2c d03a 3ecc 023b aced 0a3b
000001d0: 3ca9 f33a e326 c63a af87 e63a fffe dd3a
000001e0: 1aff bf3a 0c1a ee3a 59d5 103b 746d f43a
000001f0: 7b7e ec3a 13b8 f23a c49f be3a bd4a cd3a
00000200: 950d c93a 7ab5 fd3a 1879 053b 516f b73a
00000210: 6fec f73a 8da1 dc3a f14f 073b 7c65 da3a
00000220: a972 123b f5a2 c23a 2215 fd3a 4b9d fb3a
00000230: 6e17 e93a fefa c13a c911 ef3a c0b9 ab3a
00000240: e83f 0f3b 6225 ff3a 7efb 0b3b d072 063b
00000250: a106 f23a 4b6e c63a 8d98 cc3a 43e6 f03a
00000260: ee19 cc3a b163 f53a 81d7 e73a c43e eb3a
00000270: 0252 303b 6c9f be3a 3a07 0e3b a2b2 d33a
00000280: b0b8 163b 1d46 fc3a 8faf 013b f65c eb3a
00000290: 5a5f 0f3b 82c1 dc3a 1551 f53a bfac 023b
000002a0: f3ed 073b f99c f93a 949b 043b f0ea f63a
000002b0: f51b e13a c226 d03a 2baa 073b b74b ae3a
000002c0: 4635 dc3a 9584 de3a 0a76 d83a cfee e23a
000002d0: 092a d43a c208 da3a 556a e03a 5b4b 0d3b
000002e0: 710b bd3a ccbc 063b 7266 053b b72c aa3a
000002f0: cc35 d83a f696 963a 94f5 c63a da1b e13a
00000300: 5195 ba3a 7f76 cc3a fa57 f53a d800 e73a
00000310: 400f f23a a0bd e23a 67e7 a53a 1fff 153b
00000320: 3056 ca3a 54fe 9f3a 9351 023b 90eb de3a
00000330: f8d8 f13a e122 f23a aabd fe3a 74bd fa3a
00000340: e4f5 ce3a 5dd2 b83a 6ddb d33a df93 e03a
00000350: 49ce e03a e214 f23a 9dca bb3a 710e fd3a
00000360: eb99 023b 092e a23a 1ad0 153b 9664 273b
00000370: 082a dd3a 319f ee3a 62b2 063b 9d65 ed3a
00000380: ae2a f83a 323b 113b b1ab b83a 7c1c c43a
00000390: a0f3 fc3a 5fca 093b 4fa8 ad3a 30c8 f33a
000003a0: be4b bb3a 41d9 e93a 55f2 f63a 40b0 b33a
000003b0: 7d54 dd3a ecac e53a c877 013b 50f5 f23a
000003c0: 1b7c a53a ced9 083b 795e 053b 3978 dc3a
000003d0: 425f c03a 10bc 053b bd3b 073b bed1 d03a
000003e0: 078e f13a 4d33 c53a 8ce7 183b 4fc3 f03a
000003f0: f516 173b 2545 c03a 1662 d63a 8e75 c43a
0.0015802452 0.00214216 0.0013973684 0.0020123788 0.001810971 0.0015148779 0.0018559195 0.001646967
0.0022077493 0.0019376923 0.001632014 0.0024998724 0.0019711656 0.0017535478 0.0016885654 0.0016208029
0.0015303043 0.0020114293 0.0018300585 0.001662203 0.0013491381 0.0020836948 0.0017127438 0.0022389595
0.0016159659 0.0016668978 0.001994122 0.0017764387 0.00152206 0.002119408 0.001207163 0.0017288403
0.0020206936 0.0023701321 0.0018065278 0.0020140707 0.001724685 0.0017762694 0.002192856 0.0016109227
0.0015991847 0.0019876037 0.002115203 0.0011864739 0.002119195 0.0017675386 0.0018302313 0.0014051889
0.002383473 0.0016007917 0.0018864983 0.0015583817 0.0015353332 0.002027101 0.001891747 0.00198324
0.0014853866 0.0022265215 0.0021270572 0.0021277568 0.0017689163 0.001936219 0.0017845202 0.0022218202
0.001957921 0.0018077838 0.001450942 0.0018410344 0.0018558734 0.0015353826 0.0021875782 0.0020477762
0.0017910992 0.0025966228 0.0013767215 0.0024871812 0.0016933988 0.0012309003 0.001989569 0.001433528
0.0020784703 0.0017230535 0.0020471741 0.0016946257 0.0015985897 0.0016557318 0.0017672033 0.0020232114
0.0012626263 0.001219601 0.0020040306 0.0012971811 0.001513061 0.0018992359 0.0022569993 0.0016058566
0.0015802822 0.001743074 0.0016205179 0.0017950375 0.0020902772 0.0017907271 0.0020570634 0.0018454072
0.0017524534 0.0017390997 0.0018010414 0.0021732736 0.00208858 0.0018594643 0.002328398 0.00177264
0.0018163893 0.0015882364 0.0019958164 0.0021198792 0.0018589864 0.001511779 0.0017588044 0.0016936957
0.001464817 0.0018165722 0.0022099821 0.0018648342 0.0018043065 0.0018517993 0.0014543463 0.0015662533
0.0015339131 0.0019356452 0.0020366367 0.0013994967 0.0018915067 0.0016832814 0.0020647014 0.0016662325
0.0022346175 0.001484959 0.0019308666 0.0019196657 0.0017783472 0.0014799533 0.0018239553 0.0013101622
0.002185816 0.0019466097 0.0021359618 0.002051521 0.001846511 0.0015139071 0.0015609429 0.001837917
0.0015571692 0.0018721727 0.0017688127 0.0017947783 0.002690435 0.0014543361 0.0021671788 0.0016151259
0.0022998266 0.001924697 0.001978848 0.0017956782 0.0021876902 0.0016842338 0.0018716181 0.001993939
0.0020741194 0.0019043974 0.0020234333 0.0018838327 0.001717447 0.0015880691 0.0020700793 0.0013297711
0.0016800545 0.0016976768 0.001651467 0.0017313602 0.0016186844 0.001663469 0.0017121533 0.0021559808
0.0014422965 0.002055931 0.0020355252 0.0012983297 0.0016495525 0.0011489082 0.0015179389 0.0017174438
0.0014235174 0.001559928 0.0018718236 0.0017624153 0.001846768 0.0017298944 0.0012657464 0.002288766
0.0015437063 0.0012206533 0.0019885048 0.0017007459 0.0018451503 0.001847353 0.0019435186 0.0019129948
0.0015789834 0.0014100779 0.0016163416 0.0017133913 0.0017151322 0.0018469358 0.0014327351 0.0019306672
0.0019928168 0.0012373339 0.0022859634 0.0025542132 0.0016873488 0.0018205402 0.0020553102 0.0018111948
0.0018933618 0.0022160527 0.0014089254 0.0014962102 0.001929868 0.0021025164 0.0013249012 0.0018599089
0.0014289541 0.0017841236 0.0018840531 0.0013709143 0.0016886141 0.0017522848 0.0019755233 0.0018536244
0.0012625487 0.0020881775 0.00203505 0.0016820497 0.0014676827 0.0020406283 0.0020634972 0.0015931649
0.0018429168 0.0015045196 0.0023331372 0.0018368753 0.0023054455 0.0014669044 0.0016356136 0.0014988647

block.4.weight f4 [128, 256]
00000000: a602 bdbc 028a dcbc 2304 44bd 655d 743d
00000010: dccc b4bc ae3d c2bc cbb4 c3bd 3527 3ebd
00000020: a361 0abd 6022 9dbc 2abb 1f3d f0cb 44bc
00000030: 4db3 ecbd 355c 2d3b 9d03 963b 0326 613d
00000040: a8ab 1abd 0ede a6ba 8ea3 18ba 1cda bc3c
00000050: e948 953d 31d9 1fbd b883 71bd 79b1 b2bc
00000060: 849c b9bb d0a8 abbd 3705 43bd fd44 94bd
00000070: c4bc 74bc d4d4 9ebc 7fde 1abd 8fae 263d
00000080: b2e1 803c 9170 173d 8430 083d 03cc 74bd
00000090: 1f7c 73bd a8f9 4fbc 82f2 e43c e527 663d
000000a0: 7d53 8c3d 0b6e f2bc 63e5 e4bb 31a9 363c
000000b0: 71b0 87bc fcf0 fcbb c691 593d d798 563b
000000c0: 8d0c 913c 544f a83c 05ef 36bd 730b ae3d
000000d0: 7557 283b ae4c fc3b af30 3bbb 58d1 45bd
000000e0: d77e 113d 1b0b b0bd 8c45 cd3c 50cb cc3c
000000f0: 432f c1bc 5981 5e3d e2fb 6ebd 1f76 9fbc
00000100: f474 0dbd 532a 003d dc4d 11bc 4f3f 31bc
00000110: 050c 553c 57ae febc e97b 543d 6abb 383d
00000120: 0b1e 523d a551 11bc 1d61 ca3c b3e8 dbbd
00000130: a975 d8b8 7054 7abc 1fb7 b2bd 15e1 9d3d
00000140: 3bf9 cfbb 5b48 00bd 8fcb b1bd 86ec 82bd
00000150: 8e3c 85bd 4e4c 663c 04b9 d13c 78ef ccbc
00000160: 885c 19bd db40 c9bc d0e9 e8bd 8ac4 24bd
00000170: 5331 b53a 7539 38bd 1835 7abc 773c 3abd
00000180: 595f 8fbc 1011 af3d b861 b5bc 6a0d 98bc
00000190: 4b58 57bc e2d6 99bd b51e 6e3c c351 d3bd
000001a0: ff21 20bd f0a5 e13c 875d e4b9 4d97 2cbd
000001b0: 1f0a 05bd 61a2 6cbc c47a 8a3a a7b3 febc
000001c0: 6e26 f7bd 9259 7d3d 651f b23d 190c d2bc
000001d0: a8fc c0bc 60bd 52bc 4895 98bd ed65 f4ba
000001e0: bbbe 893c c4ba 53bd 0e27 733d 5a1d 18bd
000001f0: 6f47 343d f88e 6dbc a727 45bd 0d14 753d
00000200: 7b8d e8bc 39ea 033e e4d4 2a3d 9a79 8d3c
00000210: 3460 833d be3c e53c 9e0a b9bd e8cf b9bd
00000220: e59e 573d 71c4 bebc 5e83 e9bb 2762 ab3d
00000230: fc2a dd3c d3d0 f0bb 885f 403c eeeb f5bc
00000240: 80e4 033d 1000 693d e3f3 053d be49 e1bc
00000250: b133 f6bb abbc d03c a7b5 4ebd e322 45bb
00000260: cb98 f0bb 9c52 713d dbe6 12bd fb15 4f3c
00000270: 6d63 49bd ab31 673c 1f33 8abc 8434 a8bc
00000280: 6ce7 0f3d 6978 0abd 4b32 4cbd 97b6 83bd
00000290: 79b4 193d 0273 88bd cfc5 51bc ef89 3ebc
000002a0: 66ec a3bb 6e2f 5f3d 2615 e93b a37b 09bd
000002b0: 1855 b1bc e6ca 6b3c 23a5 e03c dc1d 833d
000002c0: 66a6 173d e6e2 ec3c 0999 1bbd 6bb6 6ebd
000002d0: 048e 813c 6e08 b2bd bc30 acbc 0cab 85bd
000002e0: 1201 dc3c 0f2c fabc 1347 903d 938a 8abd
000002f0: 0a7a 2c3d 6bc5 1f3c 36f2 9bbd 3e25 27bd
00000300: 811a 1a3c 42da 71bc 357a ff3c 9308 9ebd
00000310: 448e 81bc 61ce d1bc 7147 d2bc 4e0c 85bb
00000320: 5796 20bb fbc6 3abd fdad 893c ed1f 953d
00000330: c533 dd3b c990 3f3a 668b a93d b2de 3bbd
00000340: acb5 e9bc 9819 b43d 6b94 65bd 353f cc3c
00000350: 2038 9dbc 4f2a 2abd 8850 ccbb 6a43 ef3c
00000360: 0905 37bd e5af 6fbd 5663 a03b 71a1 30bd
00000370: d71b 03bd e539 383d ffb5 b9bd 6def 113d
00000380: e0b3 65bb da40 febb 32db ffbb 759f bc3d
00000390: 7ebe 663c 92b8 d23d 8416 b4bc b243 93bd
000003a0: a39f 963c 3bc0 3e3d 2c6d 1c3d 3ddd 9abc
000003b0: f02f 4a3d 4d39 753b a637 11bd fde7 ebbc
000003c0: 5c49 d5bc 44d8 e0bb 44ac 903d c999 a2bd
000003d0: 44dd a9bd 7268 c7bc 32b0 583d 4450 9f3d
000003e0: 3974 e5bc f023 4e3c 7ae9 90bd aead 8ebd
000003f0: d0e7 69bd 61c4 b7bd 8de4 ab3c ac63 ed3c
-0.023072552 -0.026921276 -0.047855508 0.05965938 -0.02207034 -0.023711052 -0.09555968 -0.04642411
-0.03378452 -0.01918143 0.038996853 -0.012011513 -0.115576364 0.0026452665 0.0045780675 0.05496789
-0.03776136 -0.0012730972 -0.00058227114 0.023053221 0.07289297 -0.03902549 -0.058963507 -0.021813141
-0.00566441 -0.08381808 -0.047612395 -0.07239721 -0.014937583 -0.019388594 -0.037809845 0.040693816
0.01573262 0.036972586 0.033249393 -0.059764873 -0.059444543 -0.0126938 0.027947668 0.05619039
0.068518616 -0.029593488 -0.006985353 0.011148737 -0.016563626 -0.0077191573 0.053117536 0.0032744908
0.01770618 0.02054564 -0.04466154 0.084982775 0.0025686894 0.0076995706 -0.0028562953 -0.04829535
0.035521355 -0.08595868 0.025057577 0.02499929 -0.023582106 0.054322574 -0.058345683 -0.019465504
-0.034535363 0.031290364 -0.008868661 -0.010818317 0.013003354 -0.031088991 0.051875982 0.045100607
0.051298182 -0.008869563 0.02470451 -0.10737743 -0.000103215985 -0.0152789205 -0.08726334 0.077089466
-0.0063468493 -0.031319004 -0.08681404 -0.063927695 -0.065056905 0.014056278 0.025600918 -0.025016531
-0.03744176 -0.024567058 -0.11372721 -0.040226497 0.0013823904 -0.04497667 -0.015271448 -0.04546782
-0.01750152 0.08548176 -0.022141322 -0.018561084 -0.013143609 -0.07511689 0.014533688 -0.10318329
-0.03909492 0.027544945 -0.00043557232 -0.04213648 -0.032480355 -0.014443011 0.0010565151 -0.031091524
-0.12067877 0.061853 0.08697394 -0.025640534 -0.023557976 -0.012862533 -0.07450348 -0.0018646099
0.01681458 -0.051691785 0.059363417 -0.037137367 0.044013437 -0.014499418 -0.04813352 0.059833575
-0.028387776 0.12882318 0.041706935 0.017269898 0.06414834 0.027983066 -0.09035228 -0.09072858
0.052641768 -0.02328703 -0.007126256 0.083683304 0.026998036 -0.0073491125 0.011741526 -0.030019727
0.032200336 0.056884825 0.03270329 -0.027500983 -0.0075134863 0.025480589 -0.050466206 -0.0030080609
-0.007342433 0.058916673 -0.035864692 0.012639518 -0.049167085 0.014110963 -0.01687008 -0.020532854
0.03513281 -0.03380624 -0.04985265 -0.064313106 0.037525628 -0.06662561 -0.012803509 -0.011629566
-0.005002546 0.05448859 0.007113117 -0.033565175 -0.021647021 0.0143916365 0.027422493 0.064021796
0.037023924 0.028916787 -0.037987743 -0.058279436 0.015814789 -0.08693014 -0.021019332 -0.06526765
0.02685598 -0.030538587 0.07044806 -0.06764712 0.042108573 0.009751658 -0.076145574 -0.040807
0.009405733 -0.014761509 0.031186203 -0.07716479 -0.015814908 -0.025611104 -0.025668832 -0.0040603047
-0.0024503672 -0.04559992 0.016806597 0.0728148 0.006750556 0.00073076464 0.08278541 -0.045866676
-0.02852901 0.08793944 -0.056049746 0.024932483 -0.019191802 -0.041544255 -0.006235186 0.02920695
-0.044682536 -0.058517355 0.0048946543 -0.043122713 -0.032008972 0.044977088 -0.09067916 0.035628725
-0.003504984 -0.0077591958 -0.0078081125 0.092101015 0.014083503 0.1028911 -0.021983393 -0.07190646
0.018386668 0.046570044 0.038190052 -0.018904323 0.049362123 0.0037418187 -0.03545346 -0.028797144
-0.026035957 -0.0068617184 0.07064107 -0.079394884 -0.08294156 -0.024341796 0.052902408 0.07778981
-0.02800952 0.01258181 -0.07075782 -0.069667205 -0.05710584 -0.08973003 0.020983005 0.028978191

block.4.bias f4 [128]
00000000: a7de d23c 2053 fb3c ab89 643d 6525 24bd
00000010: 69c3 17bc b2ec fdbc 56f6 cfbb 7633 6d3c
00000020: b763 a5ba 62ed 4f3d 6f28 08bb 34f3 fc39
00000030: 01cd 01bd 9f23 73bc 5511 913c f6a4 c63b
00000040: ca0a 6e3d a8e9 5e3d b88f 8bba df0b 243d
00000050: f207 4cbd 9aa0 44bd 3e31 353b 00f3 ddbc
00000060: 4b94 76bd 14f8 47bd 09c3 c838 b4f2 e2bc
00000070: 1e66 8dbc 9251 0b3c b948 76bd 5ea5 47bd
00000080: ade9 e0bc 06f3 1d3d 8261 67bd 7f24 7f3d
00000090: 8913 c9bc 584c 673c 2b56 bc3c e343 0ebc
000000a0: 5daf b43b 7645 b8bc 233c 153d cf95 e8ba
000000b0: e40c 6b3d 0879 9f3c 1d42 1ebb 74ff 683d
000000c0: 38ac b53c 6476 8ebc ec44 1e3d d2c4 803c
000000d0: 980f 673d 6215 48bd d01f 22bc 2aff 6cbc
000000e0: e301 3d3c 8946 04bc c961 453c 7edb 6b3d
000000f0: 5a91 773d c3fa 413d eb6d 553c 5da0 0c3d
00000100: bb3e 38bd 7bab 0f3d 4c89 68bd 2f89 a73b
00000110: 9c06 b63c 60f1 91bb f7d1 7b3d 899e 23bd
00000120: 68d6 f0bc a7b2 fe3c d8b8 0d3d 548c 90bc
00000130: 6a60 253d 6e73 7f3d 88c7 103d 3a4b 31bd
00000140: 3be7 edbc 321f 473d cf58 7c3d 7032 113d
00000150: a9d6 0e3c 9dcd c4bc 37aa ab3c f8ae 48bc
00000160: 6315 11bd a492 003d 89cb 973c d321 133d
00000170: 0f09 623d 9fc0 a43c a9a6 603d c7f0 3d3d
00000180: b8d5 e23b 837a a7bc 3c21 703d 9c79 713d
00000190: 022f 07bd c9c0 953c a37b 103c 76b3 60bd
000001a0: f62d a93c 4044 9b3b edeb d63c 67c1 eebc
000001b0: 5df7 1a3d 2c15 923c 218d 763d 0eef 1abd
000001c0: 3023 1c3d 55b5 5dbd 8dbc bb3c 373b 573d
000001d0: 35e9 083d b1bd 22bd 7751 4ebd ab83 643d
000001e0: 8b55 2c3d 884c fabc a7f8 7a3d 3998 84bb
000001f0: f71c 6b3d 4246 533d eb5b 243d 54b7 3a3d
0.025740935 0.030679286 0.055795353 -0.040074725 -0.009262898 -0.030996654 -0.006346504 0.014477601
-0.0012618218 0.050763495 -0.0020776053 0.00048246386 -0.031689648 -0.014840036 0.01770846 0.0060621453
0.058115758 0.05442205 -0.001064769 0.040050384 -0.049812265 -0.048004724 0.0027647759 -0.02709341
-0.060200017 -0.04882057 9.573071e-05 -0.02770362 -0.017260607 0.008503335 -0.060127947 -0.04874169
-0.027455175 0.038561843 -0.056489475 0.062290665 -0.024545448 0.014117323 0.022990307 -0.008683178
0.005514069 -0.022494059 0.036434304 -0.0017744842 0.05738534 0.019466892 -0.0024148293 0.056884244
0.022176847 -0.017390437 0.038639948 0.015718851 0.056411356 -0.048848517 -0.00989528 -0.014465133
0.011536094 -0.0080734575 0.01204724 0.05758237 0.060441352 0.047358286 0.013026695 0.03433262
-0.0449817 0.035075646 -0.05677156 0.005112789 0.022219948 -0.004453823 0.061479535 -0.039946113
-0.029399112 0.031091047 0.03460011 -0.017645039 0.04037515 0.06236594 0.035346538 -0.043284632
-0.029040923 0.048613735 0.061608132 0.03544849 0.008718171 -0.024023825 0.020955188 -0.012248747
-0.035420787 0.031389847 0.01852967 0.03592093 0.05518442 0.02011138 0.05484644 0.0463722
0.00692245 -0.02044416 0.058625445 0.058953866 -0.033003815 0.018280404 0.00881854 -0.054858647
0.020651799 0.0047383606 0.026235545 -0.029144956 0.03783356 0.017832361 0.060193185 -0.037825637
0.038119495 -0.05412801 0.022917056 0.052546706 0.03342553 -0.039731685 -0.05037066 0.05578963
0.042073768 -0.030554071 0.06127229 -0.0040464667 0.05740067 0.051580675 0.040126722 0.04558499
