model/section_discriminate_model.pth (torch, 669358 bytes, 13 tensors)

block.0.weight f4 [256, 512]
000000 1d 50 0f 3d 98 18 e7 3c be a5 01 bd 95 5a 06 bd
       0.03498851 0.02820997 -0.031652205 -0.03280123
000010 32 17 86 bc 6d 6d 81 3c 11 6c 92 3d 47 d6 48 bd
       -0.016368482 0.015799249 0.07149518 -0.049032476
000020 e7 1f 43 bd b0 db bf 3c 34 24 1c bb b0 9f a5 3b
       -0.047637846 0.023420185 -0.002382529 0.0050544366
000030 fd a9 d6 3c c6 96 31 bd e7 fa 6e bc c2 be 31 3d
       0.026204104 -0.04335668 -0.014586187 0.04339481
000040 7b f4 bf 3c 90 9f b8 bc 91 44 d7 3c 32 f5 d1 3d
       0.023432007 -0.022537023 0.026277812 0.102518454
000050 33 e8 6f bc 36 fd bc bd aa 1c 48 3c 1d 29 a5 bd
       -0.014642763 -0.09227984 0.012213865 -0.08064482
000060 b9 92 e6 3d 2e ca e1 ba 0e 8e ec 3b 38 d1 44 3d
       0.11258454 -0.0017226392 0.0072190827 0.04805109
000070 4a f2 50 3c 6b 23 0e bd 20 79 ca 3c c4 64 da 3c
       0.012753079 -0.034701746 0.02471596 0.026659377
000080 d1 26 02 3d 42 30 15 bc 45 20 e7 bc df 40 1e bb
       0.0317753 -0.009105744 -0.02821363 -0.0024147553
000090 56 c9 34 3c 33 c8 ec bc 0a 4b 08 bd dd 7c 1b 3d
       0.01103433 -0.028904056 -0.033274688 0.037960876
0000a0 50 a6 08 bd b1 7a b6 bb f7 07 48 b9 3e f1 58 3b
       -0.033361733 -0.005568825 -0.00019076453 0.0033102776
0000b0 7f 44 1e bd 8a ba e7 bc 0c 13 81 bd 8e cc 37 bc
       -0.03863954 -0.028287191 -0.06302461 -0.011218203
0000c0 6e 12 8f 3d 53 2f 16 3d d4 e1 1a 3c 1e e1 bb bc
       0.06985937 0.036666226 0.009453256 -0.022934493
0000d0 5e 62 2b 3d 5b 56 ae bc ad 76 7c bd 86 d6 6c bd
       0.041841857 -0.021281412 -0.061636616 -0.057821773
0000e0 cf 18 4c 3d 28 73 a1 3d ee 1a 18 bc 8c b6 75 bc
       0.049828347 0.078832924 -0.009283764 -0.014997136
0000f0 f6 27 99 bc 06 98 89 3d e3 67 c5 bc c3 33 0e bc
       -0.018695813 0.06718449 -0.024097389 -0.008679333
000100 98 2b 34 3d bf 0d 7f 3d 5f 2e c6 3b 54 2f 0b 3d
       0.043986887 0.06226897 0.0060480083 0.033980682
000110 39 4a f8 bc 55 6d 80 3c d8 66 84 bb 75 cd 05 3c
       -0.03030883 0.015677134 -0.0040405802 0.008166661
000120 b1 81 19 bc f0 c9 0c 3d de 63 2f 3b d3 55 1e 3d
       -0.0093693 0.03437227 0.0026762406 0.038656067
000130 2f 37 38 3a 70 4f 17 3d 1d 63 ac ba b6 cb 89 3d
       0.0007027266 0.036940992 -0.0013152097 0.06728308
000140 f8 c1 ab 3c 1f d3 1d 3d c0 f5 90 3d 86 e9 80 3c
       0.020966515 0.03853142 0.07078123 0.015736353
000150 b4 83 a3 bd 72 9c 69 bb 34 47 5d bd ff 97 1a bd
       -0.07984105 -0.0035646227 -0.054022983 -0.03774261
000160 f3 c7 62 bd 5b 06 0c 3c c5 06 74 3d 77 62 e5 3c
       -0.055366468 0.008546437 0.05957677 0.028001053
000170 ee 6a 2a 3d 3f b8 ee bc b1 03 3c 3c 58 d9 3f 3c
       0.041605882 -0.02914059 0.0114754895 0.011709534
000180 bc ab a9 bc 7f a7 2b bd 39 7a ab bc 3a 96 ae 3d
       -0.020711772 -0.041907784 -0.020932304 0.08524747
000190 f5 13 26 3c ea 46 9d bd 2f ec fc bc 5e ab 24 3d
       0.010136594 -0.076795414 -0.03087434 0.04020249
0001a0 a9 06 1d 3d b1 c5 b8 3c a3 d3 93 bd af 71 97 3c
       0.03833643 0.022555204 -0.07218101 0.018486826
0001b0 ea 6b 21 3c 8b 92 20 3c 98 1b 95 bc f8 92 0a 3c
       0.009852389 0.009800564 -0.018201634 0.008457892
0001c0 f9 a1 48 3d 03 56 5e 3d c2 9d 30 bd d3 21 25 bd
       0.048982594 0.054281246 -0.0431192 -0.04031546
0001d0 81 ad 8f bd f7 ed 98 3d 32 b8 c4 3c 16 60 b6 bc
       -0.07015515 0.07467263 0.024013612 -0.022262614
0001e0 9b 1a c1 3c 15 4d ab 3d fa 78 54 3d 16 5e d1 bc
       0.023572257 0.083643116 0.051873185 -0.025557559
0001f0 9a cd e8 3c 55 17 26 bd 09 29 1f bc 79 5b a6 3c
       0.028418351 -0.040549595 -0.009714373 0.02030729
000200 1e 1b 71 3d 82 4d 95 3d 3d 35 a7 bc 97 5b 5e bd
       0.05886375 0.07290174 -0.020411128 -0.054286566
000210 4c b5 70 bd 60 58 3f bd 58 a6 83 bb 86 a8 23 3d
       -0.05876665 -0.04671514 -0.0040176325 0.03995564
000220 33 7a 30 bd a5 ae 26 bd 0e 1e 8b 3d 4c 8b 6a 3d
       -0.04308529 -0.040693898 0.06792842 0.05726175
000230 97 3d 87 3d 90 45 48 bd 0b 0e 58 3d 7c 01 0b 3c
       0.06603544 -0.048894465 0.052747767 0.008484241
000240 7b ba 35 3c 1c ba 97 bc c8 b8 37 3d a2 08 09 bd
       0.011091824 -0.018521361 0.044853956 -0.0334555
000250 a8 32 74 3d 95 0d 8c bc f5 0e 2b 3d 56 c8 fd bb
       0.059618622 -0.01709632 0.04176231 -0.007744829
000260 b7 1f 37 3b d3 7b e5 b8 90 a9 32 3d 25 5e 1f 3b
       0.0027942488 -0.00010942635 0.04361874 0.002431759
000270 20 40 27 bb 0d 42 f9 3c a7 87 c6 bb 21 3a 96 bc
       -0.00255204 0.030427003 -0.0060586515 -0.018338265
000280 1c 65 e7 3c 38 d2 39 3d f9 02 40 3b 1a 19 44 bc
       0.028246455 0.045366496 0.0029298647 -0.011968875
000290 91 cc da bc 3f 8e 53 3d 92 9a 08 3d 8a 64 26 3d
       -0.026708873 0.05164933 0.033350535 0.040623225
0002a0 83 27 4a 3c 28 69 da bb c4 45 bc bc 17 00 01 bd
       0.012338522 -0.0066653676 -0.022982486 -0.031494226
0002b0 8f fd a8 bc 20 73 17 3c 1e 0d 59 3c 07 fd 5a bd
       -0.020628719 0.0092437565 0.013247756 -0.053463962
0002c0 9c 94 09 3d 0f 92 02 bd b5 75 09 bd 7d e1 b7 3c
       0.03358899 -0.031877574 -0.03355952 0.022446388
0002d0 0f 01 8e bc df 54 cc 3b 5c 69 90 bd 1d 76 bf b9
       -0.01733449 0.0062357034 -0.07051346 -0.0003651836
0002e0 f3 6b cc bd 61 94 9f 3d 60 22 ca bc 2e eb 62 3c
       -0.09981527 0.07791973 -0.024674594 0.0138500165
0002f0 2c ac c2 3c c3 16 8b bc 5e da 96 3d 8a 3f b3 bb
       0.023763739 -0.016978627 0.07365869 -0.005470221
000300 8d 60 d9 3c 5f c9 bc 3d d6 93 fe bc 74 a6 f0 3b
       0.026535297 0.09218096 -0.031076353 0.0073440615
000310 23 9c 3f 3d e3 d5 07 3d 51 a3 01 3d b7 4c 08 bd
       0.046779763 0.033162963 0.03164989 -0.033276286
000320 3e a5 4e 3c d4 0c f6 bc 3a 94 97 3d fc 60 4c 3c
       0.012612639 -0.030035414 0.07401319 0.012474295
000330 2c 92 7a bc 4d 6f b3 bb 6f f6 30 3c 6a 4a 96 3c
       -0.015293639 -0.0054759146 0.010800942 0.01834603
000340 ab b3 af bd 9f 02 b6 bc 83 e9 4b bd f7 f1 57 bd
       -0.08579191 -0.022218047 -0.04978324 -0.05272099
000350 fb 87 ff 3c 67 8c c2 bb aa 3f ac bc 43 4f e1 3c
       0.03119277 -0.0059371474 -0.021026451 0.027503615
000360 f1 53 3b bd 80 7a 37 3d 09 c4 fd bc 6e 5f 15 3d
       -0.04573435 0.04479456 -0.030977266 0.036467962
000370 de 10 f0 bb 71 0b 30 bd e8 f2 b0 bc dd 7d 36 bd
       -0.0073262295 -0.04297966 -0.021600202 -0.044553626
000380 06 6b 3a bd f8 c3 3f bc 60 32 1e bd 58 2d 7a bb
       -0.04551222 -0.011704437 -0.03862226 -0.0038174
000390 05 35 96 3d e6 e4 87 3c bc 05 dc 3c b2 56 ae 3c
       0.073343314 0.01658864 0.026858203 0.021281574
0003a0 c2 c1 de 3a 01 29 b6 bc c5 a1 29 bc 44 28 92 bd
       0.0016995 -0.022236349 -0.01035351 -0.07136586
0003b0 c6 6d 91 bc 9b c9 02 bd f4 e9 82 bd f5 a8 c2 3d
       -0.01775254 -0.031930547 -0.06392279 0.09504882
0003c0 75 bc 5e 3d a0 5b 07 bd 49 67 a0 bc 79 33 9f bd
       0.054378945 -0.033046365 -0.0195805 -0.077734895
0003d0 d0 f9 da bd a8 0e 06 3c b1 e6 a0 bd eb 88 4e 3d
       -0.10692179 0.008182205 -0.07856501 0.050423544
0003e0 4e 34 07 3c 97 fa 73 bc f2 28 8e bd 32 45 82 3d
       0.0082522165 -0.014891288 -0.069414034 0.06360854
0003f0 89 7d 31 3b 77 d2 a7 bb 3c 6a 81 bc e6 8c 5d bd
       0.0027082881 -0.005121525 -0.015797727 -0.05408945

block.0.bias f4 [256]
000000 7d 10 16 3d 3a 3d ae 3c 6f 2e 16 3c fc 82 c3 bc
       0.03663682 0.02126943 0.009166344 -0.02386617
000010 41 e6 4b bd d5 02 3c 3d a9 53 a7 3c b8 3f 2d bc
       -0.049780134 0.04590114 0.020425634 -0.010574274
000020 3c 6b 47 3d e4 a9 a2 bc b3 56 d7 bb 68 52 fa bc
       0.04868625 -0.0198564 -0.0065716146 -0.030556872
000030 5a 06 23 bd 29 50 16 bd bc f8 68 3d 9c 74 36 3c
       -0.03980098 -0.03669754 0.056877837 0.0111362
000040 7d 67 e6 bc 6e 44 96 3c c6 20 11 3c 26 1c 79 bc
       -0.028125519 0.018343177 0.008857911 -0.015204465
000050 55 02 e0 bc 17 d3 83 bc f5 36 27 bd 76 7f 00 bb
       -0.027344862 -0.016091866 -0.040823895 -0.0019607223
000060 14 43 0d 3d a3 96 65 3d 28 5e 4e b8 e2 78 03 3d
       0.0344878 0.05605186 -4.9201917e-05 0.032097705
000070 a9 05 71 bc 13 4c 80 bd aa f6 81 3c ef a6 0a 3c
       -0.014710822 -0.0626451 0.015864689 0.008462652
000080 27 71 21 3c 55 26 61 3c ef a3 96 3c 14 cb a4 3c
       0.009853638 0.013742049 0.018388717 0.020116366
000090 f9 3b af 3c 35 3e 40 3a dc 7f 0a 3d e4 5b bf 3c
       0.021390902 0.00073334883 0.033813342 0.023359247
0000a0 e6 18 6f 3d ba 1f 59 bd eb ce af 3b f4 02 8c bc
       0.058373354 -0.053008772 0.0053652427 -0.017091252
0000b0 f3 5d 61 bc 21 bf ac bc 0e 1d 83 3c 34 41 0e bd
       -0.013755309 -0.021087231 0.016005065 -0.03473015
0000c0 c0 8d 2e 3c 79 71 32 bd 32 62 57 bd de 1b 97 3c
       0.010653913 -0.043565247 -0.05258388 0.018445905
0000d0 bc c2 03 3d 8f 8e ec 3c 3f a0 27 bc b7 af 2b bd
       0.032168135 0.028876571 -0.010231077 -0.04191562
0000e0 3e a7 17 bc e9 22 2f 39 c2 d2 bf 3b 3b 22 94 3c
       -0.009256182 0.00016702306 0.0058539817 0.018082729
0000f0 87 0e cd bc 0a 6a cc bc 85 0e ab bb 06 a1 d9 bb
       -0.025031341 -0.024952907 -0.0052202367 -0.00664151
000100 bd cd 10 3d ba f2 8b bc 51 e2 b0 3b a5 47 88 3c
       0.035352457 -0.017083514 0.005398073 0.016635725
000110 ac 5e 0d 3c d5 1f 56 bd 80 f5 c7 3c 0e 38 4b bc
       0.008628529 -0.05227645 0.024409056 -0.012403501
000120 5a 35 8e 3c ed 6e cc bc 26 b8 d1 3b 3e e6 47 3d
       0.017359424 -0.024955237 0.006400126 0.04880356
000130 5c ae d8 3c 3f b3 df ba aa 2c b2 bc 63 a9 79 3d
       0.026450329 -0.0017066969 -0.021749813 0.060952555
000140 1e df 19 bc 2f 37 23 3d 17 dd 74 bc 22 9e 36 bd
       -0.009391574 0.03984755 -0.01494529 -0.0445844
000150 78 f1 9a bd 34 10 f0 3c 5f bb 07 bc ab 91 33 bc
       -0.07565588 0.029304601 -0.008284419 -0.010960023
000160 f4 2c f2 bc 3c 37 ef 3b fc 1b cd 3c c0 8d 1c bc
       -0.029562451 0.0073002856 0.025037758 -0.00955528
000170 8b 47 c3 bb 79 e7 15 bd 9d 2c e8 bc c2 16 45 3d
       -0.0059594563 -0.036597703 -0.028341586 0.048117407
000180 bb 63 96 bc ca 33 da bc 74 7f bc bc 1c 5b 6b bc
       -0.018358102 -0.026636023 -0.023009993 -0.014364984
000190 f8 e0 0d 3d a4 d7 14 bd 77 e1 03 bd c3 a3 15 bd
       0.034638375 -0.036338463 -0.032197442 -0.03653313
0001a0 d9 6f 4c 3b 95 a4 bb ba b5 d8 e0 3c c9 5a 3e 3d
       0.0031194596 -0.0014316017 0.027447084 0.0464733
0001b0 ef 74 c2 bc 29 a7 f0 bc b0 68 eb 3c b0 56 0c bd
       -0.023737399 -0.029376583 0.028736442 -0.03426236
0001c0 fc 5d a2 bc 0c 20 30 bd 06 f1 a7 bc 73 1d 89 bc
       -0.019820206 -0.042999312 -0.020500671 -0.016737675
0001d0 56 8b 4e bc 1c 65 9d bb 63 96 bb 3b f7 38 9a bc
       -0.012606462 -0.004803313 0.0057247146 -0.018825991
0001e0 aa bc 09 3c 24 e5 b7 3b 8f ff c0 bb a4 54 9f 3a
       0.008406797 0.0056120325 -0.00588984 0.0012155962
0001f0 dc 80 3b 3d 40 8f ae 3c b9 7e 20 3d fd 23 8f 3a
       0.045777187 0.021308541 0.039183352 0.001092076
000200 36 e8 53 3d 5a c3 28 bd e1 23 2b 3d dd f6 8d 3b
       0.051735125 -0.041201927 0.041782264 0.004332407
000210 ae 9d a6 bb 36 9f 86 3c 3f 02 25 3d 3f 05 58 3a
       -0.005084715 0.01643334 0.040285345 0.0008240528
000220 3b 07 3c bd bf ea 1e bd ff ed a8 bb cf c5 0d bd
       -0.045905333 -0.03879809 -0.0051553245 -0.034612473
000230 e4 b3 a1 bb 45 b2 3c 3c a9 dc 43 bd 0a c1 1d bd
       -0.0049347747 0.011517112 -0.04781786 -0.038514175
000240 b8 84 80 ba 5d f5 68 3b 01 4a 3f bd d6 49 29 bd
       -0.0009805178 0.0035546639 -0.046701435 -0.04133018
000250 39 a6 c4 3c 68 9c 97 3b c0 f4 26 bd 55 5c e9 ba
       0.024005042 0.0046267994 -0.040760756 -0.0017804006
000260 bc e9 a2 bc e7 d6 ae bc e3 4f d5 3c 6c b4 38 bd
       -0.019886844 -0.021342708 0.02603907 -0.04509394
000270 69 49 8a 3c a0 30 8c 3c 65 c2 9e bb 6a 55 14 3d
       0.016880708 0.01711303 -0.004844951 0.03621427
000280 2a 12 84 3c 39 e9 fd 3b 2b 98 33 3d fa f7 78 3c
       0.016121943 0.0077487496 0.04384629 0.015195841
000290 d9 a4 14 bd 7c 66 26 ba 69 ba b0 bc 1f 58 b1 3c
       -0.036290023 -0.0006347669 -0.021573262 0.021648465
0002a0 75 10 60 bd 82 81 0b 3d c6 e0 76 bd 93 44 e1 3c
       -0.054703195 0.034059055 -0.060272954 0.027498519
0002b0 02 29 1c 3d 59 13 c6 3b 67 8d bd 3b d6 8f 5e bd
       0.038125046 0.006044787 0.0057846787 -0.05433639
0002c0 e5 0e 41 3c a5 13 ee 3b 4a 22 09 bd c9 7e 98 3c
       0.011783336 0.0072655254 -0.033479966 0.018615143
0002d0 83 77 c3 3a b6 98 00 3d 01 ba b0 bc 88 8b 6f bc
       0.0014912937 0.031395636 -0.021573069 -0.014620669
0002e0 d7 af 13 bd 65 9a 04 3c 10 7f ea bc 54 ac 39 3d
       -0.036056366 0.008093451 -0.028625041 0.04533036
0002f0 b6 c2 16 bd 09 97 af bb 60 92 21 3d 38 a8 19 bd
       -0.036806785 -0.005358581 0.039446235 -0.03751394
000300 e3 d2 4d bd 6e 2f af 3c 26 e8 9d 3c 2c 89 e4 bc
       -0.050249945 0.02138492 0.019275736 -0.02789744
000310 8b 9c f0 3c b9 c4 70 3c 4a 81 ef bc 10 88 dd bc
       0.02937152 0.01469534 -0.029236455 -0.027042419
000320 18 f4 05 3d c2 46 2e 3c 18 7a d5 3c f9 cd 86 3b
       0.03270349 0.010636987 0.026059195 0.0041139093
000330 0f f9 85 bb 75 77 21 3c d9 5e 36 bd fb fa c0 bc
       -0.004088528 0.009855141 -0.044524048 -0.023557177
000340 e3 9a 21 bd 6c e1 1e 3d 6e 28 5b bc c9 9d 59 ba
       -0.039454352 0.038789198 -0.013376338 -0.0008301405
000350 70 40 f7 bc ec b8 31 bd 2e 7a de 3c 8d 96 78 bd
       -0.030182093 -0.043389246 0.02715787 -0.06069045
000360 b2 da 6d bc ef 85 eb bc 21 a9 e2 bc 56 ea db bc
       -0.014517473 -0.028750388 -0.027668538 -0.026845139
000370 d3 03 4d bc 23 35 a4 ba be a0 64 bc 10 c6 9d bc
       -0.012513119 -0.0012528043 -0.01395434 -0.019259483
000380 e7 9a e2 3c 4c 05 74 bc ff 2c 0e bd 18 1f 40 3c
       0.027661754 -0.014893841 -0.03471088 0.011726163
000390 d8 d9 5a bb d3 0a 87 3d 56 7e 20 bc 70 e3 14 bc
       -0.0033394005 0.065938614 -0.009795746 -0.009087428
0003a0 f9 5f 4a bc 49 eb 80 bb d3 bc 42 bd 18 b5 29 3d
       -0.012351983 -0.003934298 -0.047543358 0.04143247
0003b0 45 78 13 bd 9f b6 a9 3c 81 8a 55 3d 5d a8 45 bd
       -0.03600337 0.020716963 0.05213404 -0.048256267
0003c0 1f 7a 29 3c 4a 7c ef bc 1b 05 9d bc 45 f8 b7 bc
       0.010344057 -0.02923407 -0.019167474 -0.022457251
0003d0 e4 a7 0a 3d 16 1b 04 3d 22 e2 ad bc 93 e3 71 bc
       0.03385152 0.032252394 -0.021225993 -0.014763731
0003e0 6e 9f ae bc ba 9c ad 3c c8 eb 55 3c e6 49 d7 bc
       -0.021316256 0.021192897 0.013056703 -0.026280355
0003f0 56 85 05 bd a1 25 bb bc 36 7b 79 3a fd b3 a7 3c
       -0.032597862 -0.022845091 0.0009516956 0.020471567

block.1.weight f4 [256]
000000 6d 5f 7a 3f e7 dc 75 3f a2 61 7c 3f ed 3e 77 3f
       0.9780186 0.96040195 0.98586476 0.9658039
000010 be 19 7e 3f 44 65 7c 3f 4a 5f 81 3f 65 77 7f 3f
       0.9925803 0.9859202 1.0107205 0.99791557
000020 1d 73 80 3f 95 f7 79 3f 4c de 7f 3f 22 08 83 3f
       1.003513 0.97643405 0.99948573 1.0236857
000030 f2 3f 81 3f 95 1a 81 3f 82 06 82 3f 05 a2 82 3f
       1.009764 1.0086237 1.0158236 1.0205694
000040 bb 6f 80 3f c0 83 80 3f d6 f2 7d 3f 46 4b 7c 3f
       1.0034097 1.0040207 0.99198663 0.9855236
000050 51 d6 7e 3f 9f f6 86 3f 58 83 85 3f 7f 91 7f 3f
       0.9954577 1.0544013 1.0430708 0.99831384
000060 71 09 7a 3f 8b 6f 81 3f 64 b8 7b 3f 5a 9f 7d 3f
       0.97670656 1.0112165 0.9832823 0.99071276
000070 62 c3 7f 3f 05 88 80 3f 48 f4 80 3f 2e 55 7c 3f
       0.99907506 1.004151 1.0074549 0.98567474
000080 d1 b8 77 3f 92 71 81 3f ee 4c 78 3f 04 5b 83 3f
       0.9676638 1.0112784 0.96992385 1.0262151
000090 7e cd 82 3f ae fd 79 3f 89 c7 7d 3f 8f c1 82 3f
       1.0218961 0.9765271 0.9913259 1.0215319
0000a0 f0 d1 7b 3f bd 34 7e 3f 16 c7 71 3f 65 41 7b 3f
       0.98367214 0.9929922 0.94444406 0.9814666
0000b0 d1 51 6b 3f cb 88 81 3f 34 af 76 3f 58 ab 7c 3f
       0.91921717 1.0119871 0.9636109 0.9869895
0000c0 7f c5 7d 3f 70 81 80 3f ee bd 81 3f 24 f2 78 3f
       0.9912948 1.0039501 1.0136087 0.9724448
0000d0 f1 42 82 3f 52 28 81 3f b7 76 81 3f ca 73 7f 3f
       1.0176679 1.009043 1.0114354 0.99786055
0000e0 aa 1a 7c 3f 5f ab 83 3f b5 b3 69 3f 64 c8 7d 3f
       0.98478186 1.0286673 0.91289836 0.99133897
0000f0 29 df 7e 3f 8a 87 6e 3f 85 e2 78 3f cb 34 81 3f
       0.99559265 0.93175566 0.9722064 1.0094236
000100 d9 4c 70 3f 80 0d 85 3f 23 9a 80 3f e1 3b 7d 3f
       0.9386726 1.0394745 1.0047039 0.9891949
000110 b0 5f 80 3f 14 af 81 3f ee 3f 80 3f 2a f5 76 3f
       1.0029202 1.0131555 1.001951 0.9646784
000120 77 21 88 3f 9c ae 81 3f 6c 12 7b 3f 5e 6d 7e 3f
       1.0635213 1.0131412 0.98074985 0.9938563
000130 21 01 74 3f 5a d2 79 3f 91 e7 80 3f a7 75 80 3f
       0.9531422 0.97586596 1.0070668 1.0035905
000140 7b 83 75 3f f0 2a 7f 3f 5f 14 81 3f ca 67 86 3f
       0.9590375 0.9967489 1.0084342 1.0500424
000150 90 20 7c 3f 85 8e 81 3f 08 cd 78 3f 1c 46 74 3f
       0.98487186 1.0121619 0.9718785 0.9541948
000160 6b a5 81 3f 8c 72 70 3f b8 76 7e 3f 3b 2d 77 3f
       1.0128607 0.93924785 0.993999 0.9655339
000170 e0 1f 7d 3f 4c 07 7a 3f e5 63 80 3f 5d 22 80 3f
       0.9887676 0.97667384 1.0030485 1.0010487
000180 09 3b 83 3f ea 4a 85 3f 76 64 81 3f c8 b4 7d 3f
       1.0252391 1.0413487 1.0108783 0.99103975
000190 ab 6b 7f 3f 53 93 76 3f 7e 04 80 3f 26 08 7e 3f
       0.99773663 0.9631855 1.0001371 0.99231184
0001a0 db 98 82 3f 1f 9c 80 3f 99 4b 76 3f f6 c2 80 3f
       1.0202898 1.0047644 0.962091 1.0059497
0001b0 ef 2d 73 3f a7 37 7b 3f e9 dc 81 3f cb 64 81 3f
       0.94991964 0.98131794 1.0145541 1.0108885
0001c0 42 3c 76 3f fb 59 81 3f 6d 80 7b 3f 64 8c 7f 3f
       0.96185696 1.0105585 0.9824284 0.99823594
0001d0 1c 5d 7e 3f d5 ca 83 3f 62 ca 79 3f 17 7b 81 3f
       0.99360824 1.0296274 0.97574437 1.0115689
0001e0 16 fc 7d 3f 33 4a 77 3f 39 38 82 3f 81 72 7a 3f
       0.9921278 0.96597594 1.0173408 0.9783097
0001f0 98 42 81 3f 91 c7 76 3f 31 5b 80 3f 70 f6 79 3f
       1.0098448 0.96398264 1.002783 0.9764166
000200 22 95 81 3f 3e 0d 81 3f 70 3a 78 3f 9a 6c 7e 3f
       1.0123637 1.0082166 0.9696417 0.9938446
000210 1c 3f 76 3f ab 58 81 3f 70 15 7c 3f 98 f7 7e 3f
       0.9619005 1.0105184 0.9847021 0.9959655
000220 79 3b 82 3f 46 24 82 3f 1b 91 82 3f 47 13 76 3f
       1.01744 1.016732 1.0200533 0.96123165
000230 f2 39 7f 3f b1 ec 7c 3f fc cb 85 3f 2e 05 7c 3f
       0.9969779 0.9879866 1.0452876 0.98445404
000240 59 8b 80 3f 5f ed 7f 3f 63 de 82 3f a3 2d 82 3f
       1.0042526 0.99971575 1.0224117 1.0170177
000250 f9 11 81 3f 07 4b 80 3f 2e 7c 84 3f 37 6f 7e 3f
       1.008361 1.0022897 1.0350397 0.9938845
000260 7e ae 79 3f c3 21 80 3f 14 87 81 3f 7e e5 77 3f
       0.9753188 1.0010303 1.0119348 0.9683455
000270 f2 32 79 3f 7b e5 79 3f d0 ae 82 3f 98 d4 7a 3f
       0.9734336 0.97615784 1.0209599 0.9798064
000280 2f 3f 7d 3f 90 3e 7c 3f d5 63 79 3f 4f e3 79 3f
       0.98924536 0.9853296 0.97417957 0.9761247
000290 bc bb 7a 3f a6 4f 81 3f 4b 21 81 3f 49 53 82 3f
       0.9794271 1.0102432 1.0088285 1.0181667
0002a0 43 92 81 3f bc 4b 82 3f b9 95 83 3f 6f b9 7b 3f
       1.012276 1.0179362 1.0280067 0.98329824
0002b0 0b 2e 84 3f 00 b7 84 3f e8 e8 7e 3f 90 b6 82 3f
       1.0326551 1.0368347 0.99574137 1.0211964
0002c0 d0 c8 7c 3f 47 d3 7e 3f a8 e6 7a 3f 00 cb 80 3f
       0.98743916 0.99541134 0.98008204 1.0061951
0002d0 f7 15 73 3f 32 f7 7d 3f 86 69 7d 3f 9d 57 7a 3f
       0.9495539 0.99205315 0.9898914 0.9778994
0002e0 ea ab 7f 3f 01 2f 7b 3f ae c4 6c 3f d2 1b 81 3f
       0.99871695 0.981186 0.9248761 1.0086615
0002f0 26 c3 80 3f df 52 7f 3f 25 03 75 3f 5e e8 82 3f
       1.0059555 0.99735826 0.95707923 1.0227163
000300 56 9a 82 3f 4d 91 7a 3f 25 a8 81 3f a6 77 82 3f
       1.020335 0.9787796 1.0129439 1.0192764
000310 83 3b 7e 3f 9d 4c 80 3f 83 8e 80 3f 53 16 7d 3f
       0.9930956 1.002338 1.0043491 0.9886219
000320 e9 1a 85 3f 7a 70 7a 3f 28 16 7a 3f 16 e9 73 3f
       1.0398837 0.97827876 0.9769006 0.95277536
000330 32 8b 79 3f f2 7b 7b 3f e3 01 79 3f f0 b3 82 3f
       0.9747802 0.98236 0.97268504 1.0211163
000340 46 c1 7e 3f 85 86 7b 3f 73 b5 7a 3f 99 19 81 3f
       0.9951366 0.98252136 0.9793312 1.0085937
000350 45 d6 81 3f c9 a8 79 3f 28 3a 81 3f ba 15 7f 3f
       1.0143515 0.9752317 1.0095873 0.9964253
000360 a7 55 7f 3f a8 f5 80 3f d2 04 82 3f bd 8e 83 3f
       0.9974007 1.0074968 1.0157721 1.0277935
000370 18 ec 82 3f 5f 58 7b 3f d2 73 85 3f 7d d7 81 3f
       1.02283 0.9818172 1.042597 1.0143887
000380 0d da 77 3f e9 71 81 3f 6f a9 7a 3f c8 14 82 3f
       0.96817094 1.0112888 0.97914785 1.0162592
000390 4b 6a 81 3f 72 fe 83 3f 0d 83 81 3f fe a7 79 3f
       1.0110563 1.0312026 1.0118119 0.9752196
0003a0 83 d2 78 3f ca ea 7d 3f 9f b6 7c 3f 3f ee 81 3f
       0.97196215 0.99186385 0.9871616 1.0150832
0003b0 53 88 84 3f a3 ab 7f 3f 4f 53 7c 3f 57 1e 82 3f
       1.0354103 0.9987127 0.9856462 1.0165509
0003c0 20 83 77 3f 1e 4e 62 3f 68 bc 7d 3f cb e0 7e 3f
       0.96684456 0.8840045 0.9911561 0.99561757
0003d0 bc 5a 81 3f 37 a8 83 3f ba 6e 77 3f e2 47 83 3f
       1.0105815 1.028571 0.9665333 1.0256312
0003e0 5b 35 80 3f 0e 33 7f 3f d4 ad 78 3f 4f 8c 82 3f
       1.0016283 0.9968728 0.9714024 1.0199069
0003f0 49 f6 77 3f 6b 35 79 3f bd 9c 7f 3f c5 0d 81 3f
       0.96860176 0.97347134 0.9984854 1.0082327

block.1.bias f4 [256]
000000 87 96 fc bd e3 d0 ca bd b6 b2 8e bd 8c 41 85 bd
       -0.12333398 -0.09903123 -0.0696768 -0.06506643
000010 db 6b dd bd c8 c5 c4 bd 59 2f cd bd 61 8f 86 bd
       -0.108115874 -0.09608036 -0.100187965 -0.06570316
000020 d3 48 f9 bd 2a 16 50 bd af 45 cb bd 19 38 f9 bd
       -0.12172093 -0.050802387 -0.099254005 -0.12168903
000030 66 13 83 bd cf 1d 85 bd 0b 28 a6 bd 07 6e 9b bd
       -0.06400184 -0.06499826 -0.08113106 -0.075893454
000040 a3 52 88 bd ff b9 a5 bd 01 d2 a4 bd e8 0b ed bd
       -0.06656387 -0.080921166 -0.080478676 -0.115745366
000050 cc 49 cb bd 6d 04 ba bd d3 3a ea bd b3 b4 dd bd
       -0.09926185 -0.090828754 -0.11437001 -0.10825481
000060 8c 1c 10 be 6b 26 d3 bd a9 06 ff bd db 41 d6 bd
       -0.1407339 -0.10310062 -0.12452442 -0.1046178
000070 d2 97 07 be 80 e3 ef bd 2f 18 9a bd e2 3b 76 bd
       -0.13241509 -0.11713314 -0.07524144 -0.060115702
000080 42 3e 08 bd 1f a8 d5 bd e9 d2 04 be ad c4 c3 bd
       -0.0332625 -0.10432457 -0.12971081 -0.09558997
000090 a8 be ca bd 98 bb e6 bd 80 e0 ca bd ba 0a bf bd
       -0.09899646 -0.112662494 -0.09906101 -0.09328218
0000a0 86 77 98 bd e7 4e 42 bd db 39 c8 bd 19 d2 9d bd
       -0.07444672 -0.04743853 -0.0977666 -0.077060886
0000b0 b7 64 c8 bd ac c1 f7 bd 37 f6 49 bd 5b e8 ec bd
       -0.09784835 -0.12097487 -0.049307074 -0.11567756
0000c0 04 64 e6 bd 7d 94 c4 bd 98 e6 73 bd df a0 9e bd
       -0.11249545 -0.095986344 -0.059546083 -0.077455275
0000d0 f7 74 be bd 96 9a e0 bd f2 95 ac bd 7e d3 de bd
       -0.09299653 -0.10966985 -0.08427037 -0.10880183
0000e0 37 1e 03 be 6a 8f fb bd dd 32 9c bd 3c 72 ed bd
       -0.12804495 -0.122832134 -0.07626889 -0.11594054
0000f0 e5 d0 05 be b3 40 2c bd bf 3b b2 bd 38 22 84 bd
       -0.13067968 -0.04205389 -0.08702802 -0.06451839
000100 62 2b 9b bd fa 92 8d bd df 7d f5 bd 1e f8 9c bd
       -0.07576634 -0.06912799 -0.11986899 -0.07664512
000110 7e 82 b2 bd 5a ad c7 bd 89 04 c6 3b 44 22 08 be
       -0.08716296 -0.09749861 0.006043021 -0.13294321
000120 29 61 9a bd ca 8a 9c bd b7 ec bf bd 95 5b 0f be
       -0.07538063 -0.076436594 -0.09371322 -0.1399978
000130 0f 77 15 bd 50 8b 69 bd 45 ad ab bd a8 58 dd bd
       -0.036490496 -0.057017624 -0.08382658 -0.108079255
000140 65 7c 9f bd 1a 74 bd bd 72 99 c6 bd 45 1d e0 bd
       -0.07787398 -0.0925066 -0.09697236 -0.10943083
000150 be 4b df bd 36 49 7e bd 37 a1 3e bd f2 fa 38 bd
       -0.109031186 -0.06208154 -0.046540465 -0.045161195
000160 f1 4e 95 bd 4d a6 fd bd 3e c8 d1 bd 0f c7 bb bd
       -0.072904475 -0.12385235 -0.10243271 -0.09168827
000170 b1 02 e0 bd 32 ca 9f bd 8b 59 c2 bd 2f 7b b0 bd
       -0.10938013 -0.078022376 -0.09489735 -0.086172454
000180 74 5a fb bc 2a 86 c5 bd c6 af 4e bd a8 7e 1a be
       -0.03068278 -0.096447304 -0.0504606 -0.15087378
000190 44 74 2c be 53 88 d7 bd 2f 6c 6d bd aa 10 a0 bd
       -0.16841227 -0.10524049 -0.0579645 -0.078156784
0001a0 24 3e cb bd 7a 6d c3 bd 38 0b 9b bd 23 ee 9c bd
       -0.09923962 -0.09542365 -0.07570499 -0.076626085
0001b0 f4 76 c3 bd 9e b1 84 bd 45 60 a4 bd 9a 6a a9 bd
       -0.09544173 -0.0647919 -0.080261745 -0.08272286
0001c0 ae ef 13 be e5 da b6 bd f2 38 01 be aa ed ac bd
       -0.144469 -0.089284696 -0.12619379 -0.08443768
0001d0 98 72 dc bd b0 63 f0 bd c6 8a 6b bd d2 11 a7 bd
       -0.107640445 -0.11737764 -0.05750539 -0.08157696
0001e0 9a 34 b3 bd 2a e6 10 bd ca 3a ab bd e0 64 0e be
       -0.08750267 -0.03537575 -0.083608225 -0.13905668
0001f0 62 44 b3 bd 82 6c 29 be 85 94 fd bd 43 ba 68 bd
       -0.08753277 -0.16545299 -0.123818435 -0.056818258
000200 cc 69 33 be fb 71 1e be 58 59 ac bd b5 3a d7 bd
       -0.17520827 -0.15473168 -0.084154785 -0.10509244
000210 c8 3b 1d be 9b 0d 38 bd ca 8c 8d bd 67 b1 b3 bd
       -0.15354836 -0.04493485 -0.06911619 -0.08774071
000220 4b 3e c2 bd fe 5e ba bd f2 5a 0c be 7d 8c b9 bd
       -0.09484538 -0.091001496 -0.13706568 -0.09059999
000230 b1 88 90 bd a1 2b 60 bd ad aa 85 bd 9b d9 36 bd
       -0.07057322 -0.054729108 -0.065266944 -0.04464112
000240 32 65 94 bd 12 13 49 bd a8 dc ab bd d4 86 04 be
       -0.07245864 -0.049090452 -0.08391696 -0.12942058
000250 f0 09 b9 bc f5 47 2d bd dd 5f 40 bd 4d 5f a0 bd
       -0.022587746 -0.04230495 -0.046966422 -0.07830677
000260 21 9f e5 bd 65 b1 fe bd 7d 78 33 bd 82 ed f4 bd
       -0.11211992 -0.12436179 -0.04381608 -0.119593635
000270 c2 f2 95 bd 46 cc 0d be 33 09 a0 bd 50 94 14 be
       -0.07321693 -0.13847455 -0.078142546 -0.14509702
000280 27 02 85 bd 44 e1 e1 bd a1 39 e0 bd e8 08 4f bd
       -0.06494551 -0.11029294 -0.10948492 -0.050545603
000290 ca d0 c8 bd 1d 86 b2 bd 4f bd c4 bd 05 9b a0 bd
       -0.09805448 -0.08716986 -0.0960642 -0.07842068
0002a0 6f 5b 9a bd b8 07 bb bd d3 39 c5 bd ba 61 da bd
       -0.07536971 -0.091323316 -0.0963017 -0.10663171
0002b0 01 8c c2 bd 50 c1 9c bd b0 ce de bd 6c 70 cd bd
       -0.0949936 -0.07654059 -0.10879266 -0.100312084
0002c0 7e b7 c9 bc 77 06 4b bd fe 4c 8e bd 75 94 ac bd
       -0.024623629 -0.049566712 -0.06948279 -0.084267534
0002d0 94 b4 e5 bd 70 6d 02 be cc 65 03 bd 1d 24 aa bd
       -0.11216083 -0.1273706 -0.032079503 -0.08307669
0002e0 ef b6 10 be 01 4e 94 bd 8b fd 98 bd 2d 94 b3 bd
       -0.14132284 -0.072414406 -0.074702345 -0.08768497
0002f0 0c f8 08 be aa 98 ba bd d2 b6 cf bd 0f b6 8c bd
       -0.13375872 -0.091111496 -0.10142292 -0.068706624
000300 5a d8 93 bd 4e 3d c3 bd 08 5b ec bd 49 83 7b bd
       -0.07219 -0.09533177 -0.115408 -0.0614045
000310 78 df 87 bd f5 78 e9 bd cd ec 9c bd 5e 41 86 bc
       -0.0663442 -0.11400024 -0.07662354 -0.016388591
000320 f7 32 04 be a3 10 be bd 88 96 c5 bd 6f 6d ff bd
       -0.12910067 -0.09280517 -0.09647852 -0.12472045
000330 f8 4b a0 bd 0f 35 07 be ab c3 03 be c4 82 16 be
       -0.0782699 -0.13203834 -0.1286761 -0.1469832
000340 ca 34 07 be a5 32 f4 bd 12 00 8d bd b7 bd 20 be
       -0.13203731 -0.11923722 -0.06884779 -0.1569737
000350 0b 61 db bd b8 bc 61 bd 6d 8b de bd 61 2d d1 bd
       -0.10711869 -0.055111617 -0.10866437 -0.102137335
000360 56 cc bb bd 37 fd 3d bd c8 1f 09 be 64 28 f1 bd
       -0.09169833 -0.046384063 -0.1339103 -0.11775282
000370 e0 2d 9b bd 9c 06 db bd 13 f0 8a bd 4b 0d 97 bd
       -0.07577109 -0.1069462 -0.06784072 -0.07375582
000380 d4 c1 e4 bd a4 41 c0 bd d9 d5 bb bd 46 f6 a9 bd
       -0.11169782 -0.0938752 -0.091716476 -0.08298926
000390 24 82 90 bd ae 91 52 bd e0 d1 b7 bd 1d d6 f5 bd
       -0.07056072 -0.051408462 -0.08975577 -0.120037295
0003a0 47 1f d7 bd 00 f0 c2 bd f2 63 2b bd 46 c5 29 be
       -0.105040126 -0.095184326 -0.041843362 -0.1657916
0003b0 52 ba ea bd 61 60 e2 bd 41 91 59 bd 6f 7d ce bd
       -0.11461319 -0.11053539 -0.05311704 -0.10082518
0003c0 c9 f5 06 be 77 ee e6 bd 36 90 aa bc 81 d9 c3 bd
       -0.13179697 -0.11275952 -0.020820718 -0.0956297
0003d0 89 6d c8 bd ca f1 f3 bd 5f da cd bd 47 b8 ba bd
       -0.09786517 -0.11911352 -0.100514166 -0.09117179
0003e0 2c 6f 9e bd 6d 61 bf bd ea 7b e1 bd 44 80 6f bd
       -0.07736048 -0.09344754 -0.11009963 -0.058471933
0003f0 db a9 fa bd f0 d2 ab bd 41 e0 e1 bd d2 e0 b8 bc
       -0.122394286 -0.083898425 -0.11029101 -0.02256814

block.1.running_mean f4 [256]
000000 8d c8 9b 3d 51 6b 61 bd 0e 86 21 3d bb ee cb bc
       0.076066114 -0.055033986 0.039434485 -0.024894109
000010 10 d5 15 bd 30 3c ae 3d 99 5e 20 3d 88 7c 67 3c
       -0.036580145 0.085075736 0.039152715 0.014128812
000020 19 c0 c1 3c d2 8c 0d 3c 38 6d 98 bd 93 d8 40 bc
       0.02365117 0.008639531 -0.07442707 -0.011770385
000030 79 cb ae bd b3 26 10 bd 6c 90 98 3c 82 32 52 3d
       -0.08534903 -0.035193156 0.018623553 0.0513177
000040 80 1e fd bc 20 f1 51 bc b2 15 f0 3c 41 ef 6b bd
       -0.030898333 -0.012813836 0.02930722 -0.057601217
000050 f8 7c 08 bc 0d 1e 4e 3b 39 f7 04 bd 99 90 4b bc
       -0.008330576 0.0031451017 -0.032462332 -0.0124246115
000060 1f 4d 5c 3d 28 0e b0 3d 73 85 ba 3c d0 6b 8c 3d
       0.053784486 0.0859645 0.022768712 0.06856501
000070 fe c9 d8 ba c3 b6 fb bc c8 c2 2f 3b 7d 9b 3d bb
       -0.001653969 -0.030726796 0.002681898 -0.002893179
000080 0a e6 ba 3c 01 13 25 3a 5b 77 8d bc 22 df b2 3d
       0.02281477 0.0006297082 -0.017268827 0.087339655
000090 b4 e0 49 3d a5 0c 2f 3d da 5b 11 3e 77 fa 5e 3d
       0.04928656 0.04273667 0.14195195 0.05443808
0000a0 aa c1 af 3d bc 56 12 bd 5a be 06 3d f3 70 2b bd
       0.0858186 -0.035727248 0.032896377 -0.041855764
0000b0 23 8a 75 bc 62 ae 06 bc 7b 69 33 3d 5b 07 ec bb
       -0.014986548 -0.008220287 0.043801766 -0.0072030253
0000c0 6f 8e 67 3d 89 22 73 bd 55 52 42 bb c7 11 ac 3a
       0.05653232 -0.059359107 -0.0029651124 0.0013127857
0000d0 7f a5 94 3d d3 01 69 bb 4b eb 92 ba d7 f2 bb bd
       0.072581284 -0.0035554066 -0.0011209039 -0.091771774
0000e0 f2 fb 1d bd f9 ea 40 3c fe 26 1b 3b a2 b0 88 3d
       -0.038570352 0.011774772 0.0023674364 0.06674315
0000f0 34 2a 7d bc 2a 70 4d bd ca 00 2b 3d fa c2 62 3c
       -0.015451957 -0.050155796 0.0417488 0.013840431
000100 e7 25 4a 3d 42 02 32 3c c6 6d 97 bc 9b 64 08 3d
       0.049352553 0.010864796 -0.018484961 0.03329907
000110 f9 d2 2c bb 05 6e 3d bd c1 d4 c9 3b e4 82 0f bc
       -0.0026370867 -0.0462475 0.0061593954 -0.008759234
000120 63 7a 95 ba 5f c8 18 bd 75 2d 01 3d f4 4b ea 3c
       -0.0011404272 -0.037300464 0.03153749 0.02860067
000130 ed 2e 35 3d fb 05 48 3a 97 e2 b7 bc bb db ed 3d
       0.044234205 0.00076302857 -0.022446914 0.11614176
000140 cf f8 8d 3d 27 8a 88 3d c7 67 14 3d cd 74 8c bd
       0.06932222 0.066669755 0.036231782 -0.068582155
000150 6d c5 9f bd e5 a0 99 3b 8c a0 8d 3c 90 d6 69 3c
       -0.07801328 0.0046883696 0.017288469 0.014272347
000160 86 65 ab bd 31 2f c2 3b e5 4a 81 3d b7 2a 28 bd
       -0.083689734 0.005926036 0.06313113 -0.04105636
000170 d5 58 2e 3d 1f f2 96 bd bd 32 09 bd 58 59 d9 3d
       0.042565186 -0.073704 -0.033495653 0.10612744
000180 01 5a 8c bd 82 10 85 ba 50 b3 de ba 41 e8 dd b9
       -0.068531044 -0.0010152014 -0.0016990695 -0.00042325447
000190 4b 09 bb 3d 7a 8d 4d bd f1 cb 61 bd c1 9d 1a bd
       0.09132632 -0.05018375 -0.055126134 -0.037748102
0001a0 b7 e5 8a 3b da d7 10 3d f1 04 73 3d e1 f0 2b 3d
       0.00423881 0.035362102 0.059330884 0.041977767
0001b0 8b 26 85 3c 77 c6 6e bd b0 1a f5 3c 67 9b 93 bd
       0.01625373 -0.05829474 0.029919952 -0.07207375
0001c0 fa ba 05 bd 58 8b 90 b9 25 70 08 3c 8b 64 00 bd
       -0.032649018 -0.0002756964 0.008327519 -0.031345885
0001d0 fe 22 dd bc 29 42 4f bc 38 94 71 3c 2e d5 99 bc
       -0.026994225 -0.012650051 0.014744811 -0.01877841
0001e0 84 88 8d 3d c0 e3 0a bd 19 cc 17 3b 3f 4a 6b bd
       0.06910804 -0.033908606 0.0023162423 -0.057443853
0001f0 b5 53 89 3d 6a 5e df 3c c1 50 03 3b d8 db 73 bc
       0.06705419 0.0272667 0.0020037147 -0.014883958
000200 2a 93 28 3c 83 6d f7 bc 59 9e 39 3d de d0 45 bd
       0.010288993 -0.030203586 0.045317028 -0.048294894
000210 8b 16 9b 3c f2 f1 2f 3d 61 83 3f 3d 2d 92 25 bb
       0.018931648 0.042955346 0.046756152 -0.002526413
000220 ee 42 e4 bc 7e 55 e0 bc 27 8f 96 bc d3 a9 2f bd
       -0.027863946 -0.027384516 -0.018378807 -0.042886566
000230 cb 2a b0 38 e4 f7 b8 3c 3f a3 87 bd ad 6a ad bd
       8.400305e-05 0.022579141 -0.066229336 -0.084676124
000240 84 ac 81 3c 56 6e fb bc 26 fd 82 bd 70 0a 91 bd
       0.015829332 -0.03069226 -0.063959405 -0.07082069
000250 2b a4 95 3c 1f 6f 2b 3d 00 31 6e 3c aa b0 26 bc
       0.018266758 0.04185402 0.01453805 -0.010173956
000260 93 5e 32 bd 73 c1 78 bd 6e 9e 9c 3c fc 67 06 3d
       -0.043547224 -0.060731363 0.019118514 0.03281401
000270 4a 39 a5 3c 6f c9 68 3d e2 18 19 bd 0a 48 24 3c
       0.02016892 0.056832727 -0.037377246 0.010026941
000280 df 9a 93 3b 4e 7f 4d 3d 18 63 c5 3d 3f 1f 1e 3d
       0.004504546 0.050170235 0.09638041 0.038604017
000290 f2 1f 82 bd ac ec 3c bd a1 65 35 bb 90 f4 8f 3c
       -0.06353749 -0.046124145 -0.0027678984 0.017572671
0002a0 83 dd 00 bd f9 dc fa bb a7 ea 29 bc d4 44 5a 3d
       -0.03146125 -0.0076557365 -0.010370887 0.053288296
0002b0 5f a8 ff 3c 89 01 8a bc b5 4b d0 bc 10 b9 0c bd
       0.031208215 -0.016846435 -0.025426725 -0.034356177
0002c0 a5 c7 32 3d 1a c8 02 3d 19 53 2a bd db 1e b6 3c
       0.043647427 0.031929113 -0.041583154 0.02223151
0002d0 a4 3c 20 3d 12 78 42 3d be 09 95 bc d0 52 07 bd
       0.03912033 0.04747779 -0.018193122 -0.03303796
0002e0 77 95 37 bd ef fc 3f 3d 8b 59 17 bd 62 f4 0b 3c
       -0.044820275 0.046872076 -0.03695063 0.008542152
0002f0 22 5c 3e bd c3 53 89 3b 9b fb db 3d a8 75 4f bd
       -0.046474583 0.0041908934 0.10741349 -0.050649315
000300 c1 ad a2 bd a6 41 23 3d 9b 2c ff 3d 95 35 b9 3c
       -0.07943297 0.03985753 0.1245968 0.022608558
000310 bd 9d a4 bc 10 5c b7 3d ea a1 44 bd 1f f6 90 3c
       -0.020094747 0.089531064 -0.048005976 0.017695485
000320 8d a2 2c 3c f9 52 d0 bc e1 62 d9 3c e6 6d a5 bb
       0.010536802 -0.02543019 0.026536407 -0.0050485013
000330 2e 35 35 bd 50 c5 ed 3c 86 50 fc bc 16 4f 8c bd
       -0.04424017 0.02902475 -0.030800115 -0.06851022
000340 f1 c7 f2 bc 28 fa 09 3d ff 24 e2 3c 1e f0 53 bc
       -0.029636355 0.033685833 0.027605532 -0.012935666
000350 62 3e eb 3a 6c 24 6a bd 8e bc 0a 3c 8b ed 9e bd
       0.0017947669 -0.05716364 0.0084678065 -0.077601515
000360 3e 53 3f bc 85 cf 90 bd 0d d8 b7 3a 0c c8 01 bc
       -0.011677561 -0.07070831 0.001402618 -0.00792123
000370 4b ac 28 3d 2f c5 03 bd c6 43 8d bd 68 23 70 bc
       0.041179936 -0.03217047 -0.068976924 -0.014656879
000380 6a 71 2d bc e5 0d 41 3c 12 00 a3 3a d4 74 42 bd
       -0.010586122 0.011783098 0.0012435934 -0.047474697
000390 01 18 53 3d 37 88 93 3d 18 41 44 bd 23 5c c4 bd
       0.051536564 0.07203715 -0.04791364 -0.09587886
0003a0 f9 6e 5b bc bf 1d d6 bc 92 b5 59 bd 48 b4 20 3d
       -0.013393157 -0.02613723 -0.053151675 0.03923443
0003b0 c0 7e 38 3a 69 5f a2 3c e2 67 ef 3c d9 2e 9c bd
       0.000703793 0.019820886 0.02922434 -0.07626123
0003c0 88 fb d0 3c 53 f4 ee 39 66 ef 0e 3d d8 52 47 bc
       0.025510564 0.00045576933 0.034896277 -0.012165748
0003d0 78 6b 04 3d de 05 3a bd 7d db a3 bd 5b 2d 4b bc
       0.032329053 -0.04541575 -0.080008484 -0.01240095
0003e0 48 d1 a5 3c eb 6a b2 3b 17 e4 ab 3b df fa 2b ba
       0.020241395 0.0054448745 0.0052456963 -0.0006560515
0003f0 f6 02 94 bc 5e 65 97 bd 3b 7d 4e 3c 25 7e e2 ba
       -0.018067818 -0.07392381 0.012603099 -0.0017280026

block.1.running_var f4 [256]
000000 7e ad b2 3a 42 fc ac 3a 35 d7 a7 3a db 9c f1 3a
       0.0013632027 0.0013197737 0.0012805226 0.0018433587
000010 cb 07 a2 3a d9 e4 b9 3a b0 bd c9 3a 01 e6 b2 3a
       0.0012361942 0.0014182582 0.0015391614 0.0013648869
000020 01 11 df 3a 6f 56 b9 3a 47 a1 e7 3a 0c 01 d7 3a
       0.0017018617 0.0014140139 0.0017671966 0.001640351
000030 1a 04 fa 3a 39 6a ca 3a 1c de aa 3a 4c 70 d4 3a
       0.0019074709 0.0015443034 0.0013036164 0.0016207783
000040 ad 87 dd 3a f3 b9 a9 3a 18 b1 c8 3a fe 0e af 3a
       0.0016901396 0.0012949094 0.0015311567 0.0013355908
000050 f0 99 ae 3a b5 47 bb 3a 91 4d eb 3a 34 07 fc 3a
       0.0013321023 0.0014288338 0.0017952194 0.0019228221
000060 41 89 ce 3a e7 e5 dd 3a 95 81 c4 3a ab ca 0d 3b
       0.0015757458 0.0016929478 0.0014992232 0.0021635692
000070 da 87 cf 3a 06 8e a3 3a 1c 37 ba 3a 2a fb ca 3a
       0.0015833334 0.0012478239 0.0014207098 0.001548623
000080 61 f5 df 3a e3 0f ac 3a 44 60 02 3b 6e 81 b0 3a
       0.0017086678 0.0013127293 0.0019893805 0.0013466307
000090 c7 eb d8 3a 46 8f 98 3a d7 ad b7 3a 62 c6 e3 3a
       0.0016549759 0.0011639378 0.00140136 0.0017377848
0000a0 8b 9c 9f 3a d2 71 9d 3a 42 34 9c 3a 89 0d bc 3a
       0.0012177391 0.001201207 0.001191743 0.0014347296
0000b0 2a 54 bd 3a 10 38 a5 3a a0 0b e1 3a eb 54 aa 3a
       0.0014444639 0.0012605209 0.0017169602 0.0012995278
0000c0 ba 14 02 3b ad 36 a4 3a 36 55 e6 3a 32 ef 95 3a
       0.001984878 0.0012528502 0.0017573002 0.0011439084
0000d0 d9 02 f3 3a 3a 4b b9 3a d4 3c b3 3a c9 e2 09 3b
       0.0018540277 0.0014136799 0.0013674744 0.0021039716
0000e0 7f 06 af 3a 95 12 03 3b 1a 9a a5 3a e0 23 b5 3a
       0.0013353376 0.002000009 0.0012634427 0.0013819896
0000f0 8d cf b6 3a ed 65 0a 3b 5b 50 95 3a 68 ed b9 3a
       0.0013947353 0.0021117881 0.0011391746 0.0014185132
000100 60 d7 d0 3a 14 eb c5 3a 11 95 11 3b 21 64 f8 3a
       0.0015933327 0.0015099966 0.0022214095 0.0018950739
000110 e4 0f ae 3a 04 8a 18 3b 31 08 2c 3b 5b bc cb 3a
       0.0013279882 0.0023275623 0.002625 0.0015543805
000120 31 8d eb 3a fb a3 b5 3a 92 38 ee 3a 2d 36 c7 3a
       0.0017971155 0.0013858074 0.0018174818 0.0015198641
000130 54 cd e6 3a 00 12 da 3a 15 e1 d2 3a 81 58 bb 3a
       0.00176088 0.0016637444 0.0016088808 0.0014293344
000140 14 c7 00 3b 34 a0 c4 3a fb 0d cd 3a ee 3e e7 3a
       0.001964991 0.0015001358 0.0015644425 0.0017642656
000150 94 21 a6 3a 0e 74 d8 3a e2 8d d2 3a 53 15 cd 3a
       0.0012674802 0.0016514079 0.0016064013 0.0015646614
000160 1f 6e 10 3b be 81 fd 3a 48 bf c4 3a 33 9b f5 3a
       0.0022038294 0.0019341034 0.001501062 0.001873827
000170 26 82 b9 3a 96 37 cc 3a 00 ec d2 3a d4 dc cb 3a
       0.0014153167 0.0015580531 0.0016092062 0.0015553483
000180 d5 ee f0 3a 8a d9 92 3a 94 f9 b4 3a 04 f6 8e 3a
       0.0018381724 0.0011203748 0.001380729 0.0010907059
000190 df e8 cb 3a 33 cd cc 3a 72 1a a8 3a 91 20 9e 3a
       0.0015557072 0.0015625119 0.0012825264 0.0012064149
0001a0 2c 96 e2 3a 3c 36 cf 3a 4f bd a0 3a f3 ea ef 3a
       0.0017287186 0.001580901 0.001226345 0.0018304273
0001b0 ff 36 d1 3a c6 25 ff 3a 73 ad d4 3a 50 d1 07 3b
       0.0015961825 0.0019466213 0.0016226008 0.0020724125
0001c0 ce 14 dd 3a 19 92 c5 3a 4a f3 b6 3a fc 7c d1 3a
       0.0016867162 0.0015073448 0.0013958004 0.0015982683
0001d0 63 1b be 3a b5 ab ae 3a e9 da 0c 3b 23 f1 8e 3a
       0.0014504011 0.0013326319 0.0021492785 0.0010905605
0001e0 cb 7a fa 3a b2 bc 95 3a 1c ca b6 3a e0 b0 d5 3a
       0.0019110081 0.0011424033 0.0013945731 0.0016303323
0001f0 dc 3e d3 3a b3 21 ab 3a d5 8b e7 3a 78 ad f6 3a
       0.0016116756 0.0013056308 0.0017665575 0.0018820008
000200 db 02 d9 3a 29 a1 a2 3a 46 3e b4 3a 8e 7a 9f 3a
       0.0016556637 0.0012407649 0.0013751469 0.0012167261
000210 c2 86 b5 3a 32 bf c3 3a 63 d6 6e 3a 07 01 d3 3a
       0.0013849365 0.00149343 0.00091109256 0.0016098329
000220 1e 66 2a 3b 68 cd b4 3a 40 66 ab 3a 2f ba c6 3a
       0.0026000808 0.0013794126 0.0013076738 0.0015161688
000230 6f 47 d3 3a a7 9e aa 3a 1c 74 11 3b e7 c0 27 3b
       0.0016119311 0.0013017253 0.002219445 0.0025597156
000240 b5 2f b6 3a 8f 2d 83 3a 97 48 b6 3a da e8 d5 3a
       0.0013899716 0.0010008084 0.0013907132 0.0016320006
000250 48 6d c7 3a ae 12 ee 3a ad 3d ad 3a 80 b5 85 3a
       0.0015215063 0.0018163526 0.0013217233 0.0010201186
000260 53 9b 12 3b 31 44 c9 3a be 70 ee 3a 38 fe 1c 3b
       0.0022370412 0.0015355406 0.0018191559 0.0023955237
000270 eb 09 d5 3a 51 ab be 3a ba eb cb 3a bf f2 b6 3a
       0.0016253566 0.0014546906 0.0015557923 0.0013957842
000280 f2 84 a7 3a af 14 ca 3a 57 cb c9 3a 2e 2e a9 3a
       0.001278071 0.0015417541 0.0015395683 0.0012907439
000290 53 2d 0d 3b c5 30 f5 3a 22 b9 de 3a 13 57 da 3a
       0.0021541908 0.0018706551 0.001699243 0.001665803
0002a0 64 e1 da 3a f2 f1 b2 3a 11 cc 0d 3b f3 b0 a8 3a
       0.0016699252 0.0013652428 0.0021636526 0.0012870118
0002b0 b0 1e cc 3a 91 f3 bc 3a 08 98 d2 3a 6d 3f 00 3b
       0.001557311 0.001441585 0.0016067037 0.0019569055
0002c0 21 97 e5 3a 07 28 c9 3a 53 74 ab 3a 93 ad 84 3a
       0.0017516353 0.0015347012 0.0013080932 0.001012253
0002d0 a0 96 e7 3a 80 64 c8 3a f0 8d a5 3a f9 1b b3 3a
       0.0017668791 0.001528874 0.0012630802 0.0013664953
0002e0 c7 5f b0 3a 42 3e b3 3a 66 64 99 3a cf 00 e8 3a
       0.0013456278 0.001367517 0.0011702895 0.0017700436
0002f0 34 64 ee 3a 82 9d be 3a 8a b0 bd 3a 9f 09 c3 3a
       0.0018187822 0.0014542791 0.0014472168 0.0014880187
000300 77 62 e0 3a a3 d6 d2 3a 24 dc e2 3a ee 01 86 3a
       0.0017119189 0.0016085695 0.0017308039 0.0010223964
000310 67 af b0 3a 37 1e c4 3a 91 c7 b3 3a b2 96 f7 3a
       0.0013480008 0.0014962618 0.0013716092 0.0018889515
000320 42 fc 0c 3b e1 09 e4 3a ab e3 de 3a 00 2f d8 3a
       0.0021512662 0.0017397964 0.0017005106 0.0016493499
000330 70 24 ca 3a 3b 1c d4 3a b7 28 d1 3a fa fd bf 3a
       0.0015422236 0.001618273 0.0015957569 0.0014647834
000340 48 f4 b8 3a d8 0c ae 3a 2c 47 e0 3a ad 21 b7 3a
       0.0014110887 0.0013278974 0.0017111055 0.0013971828
000350 af 61 e7 3a c0 4e a7 3a b6 26 d4 3a 6d dc 94 3a
       0.0017653013 0.0012764558 0.0016185853 0.0011357196
000360 c6 1a 08 3b b2 1d e8 3a 61 17 da 3a 66 49 a9 3a
       0.0020767911 0.0017709045 0.0016639048 0.0012915551
000370 e6 3c ea 3a a7 46 bb 3a 56 3a f0 3a 02 22 be 3a
       0.0017870932 0.0014288024 0.0018327932 0.0014505985
000380 c8 95 ef 3a ce 9c e2 3a 32 2b b1 3a 48 79 cc 3a
       0.0018278891 0.0017289163 0.0013516902 0.001560011
000390 81 c0 8d 3a 4c c4 bd 3a a6 e8 dc 3a 99 50 ac 3a
       0.0010814817 0.0014478057 0.0016854003 0.0013146579
0003a0 1a 50 ca 3a 01 7e b3 3a e8 d1 eb 3a 5d f4 b5 3a
       0.0015435249 0.0013694168 0.0017991634 0.001388203
0003b0 a1 18 c8 3a 9e 96 a2 3a 13 88 07 3b 15 78 aa 3a
       0.0015266129 0.0012404507 0.0020680472 0.0013005758
0003c0 cd dc d9 3a a4 bb af 3a e9 37 b3 3a ef 88 ba 3a
       0.001662159 0.0013407362 0.0013673279 0.0014231483
0003d0 68 66 f8 3a 1a 11 a1 3a 05 ff ef 3a 30 3a b5 3a
       0.0018951418 0.0012288422 0.0018310255 0.0013826545
0003e0 20 86 8e 3a ef c7 d7 3a ea 82 ac 3a 24 01 9e 3a
       0.0010873713 0.0016462783 0.0013161574 0.0012054783
0003f0 ba a4 de 3a d1 3e af 3a 97 01 b8 3a 32 78 b2 3a
       0.0016986348 0.0013370161 0.001403856 0.0013616143

block.4.weight f4 [128, 256]
000000 bf d0 9b bc fc bd 9f bc 45 88 7c bd 55 11 a3 bc
       -0.019020436 -0.019499771 -0.061653394 -0.019905725
000010 c0 9e 3b bd 80 73 84 3a d3 cd 13 3d 08 93 db bc
       -0.045805693 0.0010105222 0.03608496 -0.026803508
000020 52 8b d1 3c c9 08 2e 3d 01 a2 a7 bd d2 32 a8 bb
       0.025579128 0.042488847 -0.08185197 -0.0051330114
000030 cc 16 01 bc d1 25 6d 3d 36 57 0c 3d 5d 3a b5 3c
       -0.00787897 0.057897393 0.03426286 0.022122556
000040 ed 3c e1 bc bb ea d4 bc a5 7b 9e 3d cb 0b 9a bd
       -0.027494872 -0.025990834 0.07738427 -0.075217806
000050 e7 fa a8 3d 4e a2 11 3c d1 93 a3 3d 45 b3 89 bb
       0.08250981 0.008888794 0.07987178 -0.004202279
000060 82 b0 e7 3d 8c 58 1e 3d 8e 70 49 3d 59 c2 f0 3c
       0.11312963 0.038658664 0.049179606 0.029389547
000070 82 f7 ac 3d 58 fa 8b bc a6 46 70 bd 61 02 06 3d
       0.08445646 -0.017087147 -0.058661126 0.032717112
000080 a1 25 2b 3c 37 49 0b bc e4 5b 65 3b 47 a2 8b 3d
       0.010445983 -0.0085013425 0.0034997398 0.06818061
000090 ca 53 3f bd 73 8b 86 ba 70 72 13 bd d1 0a 24 bd
       -0.046710767 -0.0010264948 -0.035997808 -0.040049378
0000a0 01 cf 3f 3d 72 d9 f9 3b 23 8d 3d bd 61 1b 06 3d
       0.046828274 0.0076247985 -0.046277177 0.032740954
0000b0 5b 6f 2d 3c 76 fe 8e bb f8 06 42 bc a0 62 2d bd
       0.010585631 -0.00436383 -0.011842482 -0.042330384
0000c0 42 24 4e bd 8e ac b5 3c 57 ba cd 3c c3 f3 f1 3c
       -0.050327547 0.022177007 0.025113268 0.02953518
0000d0 cc d2 cc 3c 09 eb 4c bd 98 c6 c6 bc 13 cb be 3c
       0.02500286 -0.050028834 -0.024264619 0.023290193
0000e0 01 49 67 bc 55 ae 9f 3d 5f f1 c8 3c 98 35 88 bd
       -0.014116527 0.07796923 0.024529157 -0.06650847
0000f0 ee 3b 8f bc 54 58 d3 bc e1 09 6a bd 25 c0 9b 3c
       -0.017484631 -0.025798954 -0.057138328 0.01901252
000100 4c 73 8f bc 74 86 2b bb bb 37 9f 3d c0 72 07 3b
       -0.017511033 -0.002617267 0.077743016 0.0020667762
000110 7b 7a 10 bc a0 25 74 ba c5 b2 0a 3c 16 c4 01 bd
       -0.008818264 -0.0009313468 0.008465474 -0.031681143
000120 9e 76 1e 3d 99 c5 b1 bd 41 9d f0 3c 30 c2 02 3b
       0.03868734 -0.08680267 0.02937186 0.001995217
000130 f8 6f 31 3c de 7b 91 bd d1 b7 0c bc 83 be a4 3c
       0.010829918 -0.07103704 -0.008588747 0.020110374
000140 06 44 2b bd c9 c2 6c bd 81 6d 2b 3d ff 6c 38 3d
       -0.04181292 -0.05780295 0.041852478 0.04502582
000150 32 39 69 bd 6a f5 d2 3c 26 31 5e 3d d0 e3 a9 bd
       -0.05693931 0.025751788 0.05424609 -0.08295405
000160 28 69 a1 bd 5a c8 a1 3d 12 7e 1f bd dc 25 b9 bc
       -0.07881385 0.07899542 -0.03893859 -0.02260106
000170 61 54 4a 39 a5 8b 2e 3d f2 da e0 3c 15 13 ed bc
       0.00019295655 0.042613644 0.027448151 -0.028939763
000180 e0 75 18 3c 23 0e 53 3d 82 13 2d 3d 7d b9 5c 3d
       0.009305447 0.051527154 0.042254932 0.053887833
000190 1f 3c b6 bb f5 fb 27 bd bc 4b 24 bd e0 91 0d bc
       -0.005561366 -0.04101177 -0.04011129 -0.008640736
0001a0 72 b3 08 3d 07 fc 96 bd 92 45 7b bd b7 a6 10 bd
       0.033374257 -0.07372289 -0.061345644 -0.03531524
0001b0 b0 36 ad 3d ec 44 75 bc 99 00 9e 3b 79 ff 89 3d
       0.084576964 -0.014970046 0.0048218486 0.06738181
0001c0 27 3f 17 bd 8f a7 6d 3c 07 da 25 3d bd 5c cc bc
       -0.03692546 0.014505281 0.04049113 -0.024946565
0001d0 8c 1b 6a 3d 72 b3 93 bd 43 a4 87 bc 1b 0c 70 3d
       0.057155177 -0.07211961 -0.016557818 0.058605295
0001e0 e6 df 9e bd da 73 8c bc 25 ec 6d 3c b6 77 21 3d
       -0.07757549 -0.017145086 0.014521633 0.039420806
0001f0 af 6f 7a bc d0 bd 16 3c 94 ed 8f 3d 04 ab 60 3b
       -0.0152854165 0.009200528 0.07027736 0.003428162
000200 6d 1d 1f 3c c5 d4 68 3d 15 67 a8 3d 6c 1e 01 bc
       0.0097116055 0.056843538 0.08222786 -0.007880788
000210 06 a0 7d 3d 6d 28 58 bc 85 7e 2f 3d b1 e7 11 bc
       0.06192019 -0.013193232 0.042845268 -0.008905337
000220 3d 33 9c 3d 89 c5 29 bd 8d f7 5a bc 0c 78 3f bd
       0.076269604 -0.04144815 -0.013364685 -0.046745345
000230 f0 9f 74 bd 6a 05 57 3d 56 7b c9 3d 36 ce 16 3d
       -0.05972284 0.052495398 0.098379776 0.03681775
000240 b5 c8 5e 3c f1 23 a2 3d 5f c0 f4 bc 36 ca b0 bd
       0.013597657 0.079170115 -0.029876886 -0.08632319
000250 12 9b 64 bd 59 a3 c1 bd 65 92 6a 3c 42 ec 22 bd
       -0.05581195 -0.09454984 0.01431713 -0.039776094
000260 0a 54 77 3d e8 f4 45 3c 3e 9a c6 3d bf 1c 2b 3d
       0.06038288 0.012082316 0.09697388 0.04177546
000270 95 7a 52 bd d0 3d b7 bc e2 7c 99 bc 0c bc bd ba
       -0.051386435 -0.022368342 -0.018736307 -0.0014475598
000280 8e 1e 69 3d 53 fe 02 3d 43 cf e7 bb ba dc bf bd
       0.056913905 0.031980824 -0.007074268 -0.09368272
000290 a1 dc db 3c a8 3d 52 3d 0a 9d c9 bd 8f 90 52 bd
       0.026838602 0.05132833 -0.09844406 -0.051407393
0002a0 bb 12 26 3c a2 2e 2f bd 1f 11 84 bb 3d d1 30 bc
       0.010136302 -0.042769082 -0.0040303613 -0.010792074
0002b0 9f 37 70 bd 02 a2 b4 bc 60 d2 1a bd a0 60 2a 3d
       -0.058646794 -0.022049908 -0.037798285 0.041596055
0002c0 8a ee 06 bd cb 53 cf 3c 5e df 39 bd 08 01 39 bd
       -0.032942332 0.02530851 -0.045379035 -0.045167
0002d0 67 bf 3e 3d ef f5 3b bd 50 48 89 bc e1 03 2a 3d
       0.046569254 -0.045888837 -0.016758114 0.041507605
0002e0 a6 34 74 bc 11 5c 3d bc 02 f2 a4 bd 66 d7 37 3c
       -0.0149051305 -0.011557595 -0.08053972 0.011220789
0002f0 2e 3b 0f 3d e4 b7 1f 3d 4a 90 04 bd e6 97 29 bd
       0.034968548 0.03899373 -0.032364167 -0.041404627
000300 7d 2f 6e bd 30 64 a2 bc ed 35 d9 3c 51 ef 4b bb
       -0.058150757 -0.019823164 0.026514972 -0.0031117985
000310 e0 1a be bd 06 72 76 3d 42 f9 6c bd 87 8c a4 bc
       -0.0928247 0.060167335 -0.0578549 -0.02008654
000320 26 84 52 3d b7 51 70 bb 50 df 87 bd 63 ae f8 3c
       0.051395558 -0.00366698 -0.0663439 0.030356592
000330 11 b3 00 3d 65 76 b1 bc e2 a0 dc 3c 3e 68 99 3c
       0.03142077 -0.0216629 0.026932184 0.018726464
000340 f0 c3 7a bd 69 f0 0d bb 54 18 a8 3d 9d 17 b6 bc
       -0.061222017 -0.0021658188 0.08207765 -0.022228057
000350 9c d6 af bd b7 d2 15 bc e3 84 36 bd bf 1d 03 bd
       -0.08585855 -0.009144477 -0.044560324 -0.03201079
000360 07 6d b5 3c 3a ed cd 3c 3b d7 96 3d b9 9d c6 3c
       0.022146715 0.025137533 0.07365271 0.02424513
000370 d9 78 6e bd 89 59 b5 bd 58 0c b5 3c d7 9a 16 bd
       -0.058220718 -0.08854968 0.022100613 -0.03676876
000380 d3 7c 3c 3c cb 74 14 3d 21 36 72 3d 05 de a5 3a
       0.01150437 0.036244195 0.059133653 0.0012654668
000390 81 22 07 bd c5 11 04 bd 2b 93 e3 3c 89 f0 05 bd
       -0.03299189 -0.03224351 0.027780136 -0.032700095
0003a0 46 0a 8e bd 9a a1 c3 3c b6 be 90 3d c2 62 59 3c
       -0.06935553 0.023880769 0.07067625 0.013268175
0003b0 a2 7a fa 3c c5 9f 9b 3d 94 7c 3c bd d4 f8 12 bd
       0.030576054 0.07598833 -0.046017244 -0.035881832
0003c0 81 11 5c 3c 12 be c4 3b eb 12 18 3d ce 8f 85 bd
       0.013431908 0.0060041035 0.037127417 -0.06521569
0003d0 bf a4 74 3d ee a9 13 3d ab c0 a8 3c 39 f5 8c 3c
       0.059727427 0.03605073 0.020599684 0.017206775
0003e0 da 9d 1f 3d 8b 35 a3 3d 87 31 1f bd 71 88 31 bc
       0.0389689 0.07969197 -0.038865592 -0.010835753
0003f0 8f 29 65 bb 48 cd ea bc 5e 05 43 3d 2e 80 62 3d
       -0.0034967398 -0.028662339 0.04761254 0.055298023
